{"class_name": "Model", "keras_version": "2.1.3", "backend": "theano", "config": {"input_layers": [["input_1", 0, 0]], "output_layers": [["dense_2", 0, 0]], "layers": [{"class_name": "InputLayer", "name": "input_1", "inbound_nodes": [], "config": {"dtype": "float32", "batch_input_shape": [null, null, null, 3], "sparse": false, "name": "input_1"}}, {"class_name": "Conv2D", "name": "conv2d_1", "inbound_nodes": [[["input_1", 0, 0, {}]]], "config": {"kernel_initializer": {"class_name": "VarianceScaling", "config": {"distribution": "uniform", "scale": 1.0, "mode": "fan_avg", "seed": null}}, "kernel_regularizer": null, "bias_regularizer": null, "filters": 32, "use_bias": false, "bias_initializer": {"class_name": "Zeros", "config": {}}, "padding": "valid", "kernel_constraint": null, "bias_constraint": null, "name": "conv2d_1", "data_format": "channels_last", "strides": [2, 2], "activation": "linear", "trainable": false, "dilation_rate": [1, 1], "kernel_size": [3, 3], "activity_regularizer": null}}, {"class_name": "BatchNormalization", "name": "batch_normalization_1", "inbound_nodes": [[["conv2d_1", 0, 0, {}]]], "config": {"gamma_constraint": null, "beta_initializer": {"class_name": "Zeros", "config": {}}, "beta_regularizer": null, "scale": false, "momentum": 0.99, "gamma_regularizer": null, "gamma_initializer": {"class_name": "Ones", "config": {}}, "moving_variance_initializer": {"class_name": "Ones", "config": {}}, "moving_mean_initializer": {"class_name": "Zeros", "config": {}}, "beta_constraint": null, "epsilon": 0.001, "trainable": false, "name": "batch_normalization_1", "center": true, "axis": 3}}, {"class_name": "Activation", "name": "activation_1", "inbound_nodes": [[["batch_normalization_1", 0, 0, {}]]], "config": {"activation": "relu", "trainable": false, "name": "activation_1"}}, {"class_name": "Conv2D", "name": "conv2d_2", "inbound_nodes": [[["activation_1", 0, 0, {}]]], "config": {"kernel_initializer": {"class_name": "VarianceScaling", "config": {"distribution": "uniform", "scale": 1.0, "mode": "fan_avg", "seed": null}}, "kernel_regularizer": null, "bias_regularizer": null, "filters": 32, "use_bias": false, "bias_initializer": {"class_name": "Zeros", "config": {}}, "padding": "valid", "kernel_constraint": null, "bias_constraint": null, "name": "conv2d_2", "data_format": "channels_last", "strides": [1, 1], "activation": "linear", "trainable": false, "dilation_rate": [1, 1], "kernel_size": [3, 3], "activity_regularizer": null}}, {"class_name": "BatchNormalization", "name": "batch_normalization_2", "inbound_nodes": [[["conv2d_2", 0, 0, {}]]], "config": {"gamma_constraint": null, "beta_initializer": {"class_name": "Zeros", "config": {}}, "beta_regularizer": null, "scale": false, "momentum": 0.99, "gamma_regularizer": null, "gamma_initializer": {"class_name": "Ones", "config": {}}, "moving_variance_initializer": {"class_name": "Ones", "config": {}}, "moving_mean_initializer": {"class_name": "Zeros", "config": {}}, "beta_constraint": null, "epsilon": 0.001, "trainable": false, "name": "batch_normalization_2", "center": true, "axis": 3}}, {"class_name": "Activation", "name": "activation_2", "inbound_nodes": [[["batch_normalization_2", 0, 0, {}]]], "config": {"activation": "relu", "trainable": false, "name": "activation_2"}}, {"class_name": "Conv2D", "name": "conv2d_3", "inbound_nodes": [[["activation_2", 0, 0, {}]]], "config": {"kernel_initializer": {"class_name": "VarianceScaling", "config": {"distribution": "uniform", "scale": 1.0, "mode": "fan_avg", "seed": null}}, "kernel_regularizer": null, "bias_regularizer": null, "filters": 64, "use_bias": false, "bias_initializer": {"class_name": "Zeros", "config": {}}, "padding": "same", "kernel_constraint": null, "bias_constraint": null, "name": "conv2d_3", "data_format": "channels_last", "strides": [1, 1], "activation": "linear", "trainable": false, "dilation_rate": [1, 1], "kernel_size": [3, 3], "activity_regularizer": null}}, {"class_name": "BatchNormalization", "name": "batch_normalization_3", "inbound_nodes": [[["conv2d_3", 0, 0, {}]]], "config": {"gamma_constraint": null, "beta_initializer": {"class_name": "Zeros", "config": {}}, "beta_regularizer": null, "scale": false, "momentum": 0.99, "gamma_regularizer": null, "gamma_initializer": {"class_name": "Ones", "config": {}}, "moving_variance_initializer": {"class_name": "Ones", "config": {}}, "moving_mean_initializer": {"class_name": "Zeros", "config": {}}, "beta_constraint": null, "epsilon": 0.001, "trainable": false, "name": "batch_normalization_3", "center": true, "axis": 3}}, {"class_name": "Activation", "name": "activation_3", "inbound_nodes": [[["batch_normalization_3", 0, 0, {}]]], "config": {"activation": "relu", "trainable": false, "name": "activation_3"}}, {"class_name": "MaxPooling2D", "name": "max_pooling2d_1", "inbound_nodes": [[["activation_3", 0, 0, {}]]], "config": {"trainable": false, "strides": [2, 2], "pool_size": [3, 3], "padding": "valid", "data_format": "channels_last", "name": "max_pooling2d_1"}}, {"class_name": "Conv2D", "name": "conv2d_4", "inbound_nodes": [[["max_pooling2d_1", 0, 0, {}]]], "config": {"kernel_initializer": {"class_name": "VarianceScaling", "config": {"distribution": "uniform", "scale": 1.0, "mode": "fan_avg", "seed": null}}, "kernel_regularizer": null, "bias_regularizer": null, "filters": 80, "use_bias": false, "bias_initializer": {"class_name": "Zeros", "config": {}}, "padding": "valid", "kernel_constraint": null, "bias_constraint": null, "name": "conv2d_4", "data_format": "channels_last", "strides": [1, 1], "activation": "linear", "trainable": false, "dilation_rate": [1, 1], "kernel_size": [1, 1], "activity_regularizer": null}}, {"class_name": "BatchNormalization", "name": "batch_normalization_4", "inbound_nodes": [[["conv2d_4", 0, 0, {}]]], "config": {"gamma_constraint": null, "beta_initializer": {"class_name": "Zeros", "config": {}}, "beta_regularizer": null, "scale": false, "momentum": 0.99, "gamma_regularizer": null, "gamma_initializer": {"class_name": "Ones", "config": {}}, "moving_variance_initializer": {"class_name": "Ones", "config": {}}, "moving_mean_initializer": {"class_name": "Zeros", "config": {}}, "beta_constraint": null, "epsilon": 0.001, "trainable": false, "name": "batch_normalization_4", "center": true, "axis": 3}}, {"class_name": "Activation", "name": "activation_4", "inbound_nodes": [[["batch_normalization_4", 0, 0, {}]]], "config": {"activation": "relu", "trainable": false, "name": "activation_4"}}, {"class_name": "Conv2D", "name": "conv2d_5", "inbound_nodes": [[["activation_4", 0, 0, {}]]], "config": {"kernel_initializer": {"class_name": "VarianceScaling", "config": {"distribution": "uniform", "scale": 1.0, "mode": "fan_avg", "seed": null}}, "kernel_regularizer": null, "bias_regularizer": null, "filters": 192, "use_bias": false, "bias_initializer": {"class_name": "Zeros", "config": {}}, "padding": "valid", "kernel_constraint": null, "bias_constraint": null, "name": "conv2d_5", "data_format": "channels_last", "strides": [1, 1], "activation": "linear", "trainable": false, "dilation_rate": [1, 1], "kernel_size": [3, 3], "activity_regularizer": null}}, {"class_name": "BatchNormalization", "name": "batch_normalization_5", "inbound_nodes": [[["conv2d_5", 0, 0, {}]]], "config": {"gamma_constraint": null, "beta_initializer": {"class_name": "Zeros", "config": {}}, "beta_regularizer": null, "scale": false, "momentum": 0.99, "gamma_regularizer": null, "gamma_initializer": {"class_name": "Ones", "config": {}}, "moving_variance_initializer": {"class_name": "Ones", "config": {}}, "moving_mean_initializer": {"class_name": "Zeros", "config": {}}, "beta_constraint": null, "epsilon": 0.001, "trainable": false, "name": "batch_normalization_5", "center": true, "axis": 3}}, {"class_name": "Activation", "name": "activation_5", "inbound_nodes": [[["batch_normalization_5", 0, 0, {}]]], "config": {"activation": "relu", "trainable": false, "name": "activation_5"}}, {"class_name": "MaxPooling2D", "name": "max_pooling2d_2", "inbound_nodes": [[["activation_5", 0, 0, {}]]], "config": {"trainable": false, "strides": [2, 2], "pool_size": [3, 3], "padding": "valid", "data_format": "channels_last", "name": "max_pooling2d_2"}}, {"class_name": "Conv2D", "name": "conv2d_9", "inbound_nodes": [[["max_pooling2d_2", 0, 0, {}]]], "config": {"kernel_initializer": {"class_name": "VarianceScaling", "config": {"distribution": "uniform", "scale": 1.0, "mode": "fan_avg", "seed": null}}, "kernel_regularizer": null, "bias_regularizer": null, "filters": 64, "use_bias": false, "bias_initializer": {"class_name": "Zeros", "config": {}}, "padding": "same", "kernel_constraint": null, "bias_constraint": null, "name": "conv2d_9", "data_format": "channels_last", "strides": [1, 1], "activation": "linear", "trainable": false, "dilation_rate": [1, 1], "kernel_size": [1, 1], "activity_regularizer": null}}, {"class_name": "BatchNormalization", "name": "batch_normalization_9", "inbound_nodes": [[["conv2d_9", 0, 0, {}]]], "config": {"gamma_constraint": null, "beta_initializer": {"class_name": "Zeros", "config": {}}, "beta_regularizer": null, "scale": false, "momentum": 0.99, "gamma_regularizer": null, "gamma_initializer": {"class_name": "Ones", "config": {}}, "moving_variance_initializer": {"class_name": "Ones", "config": {}}, "moving_mean_initializer": {"class_name": "Zeros", "config": {}}, "beta_constraint": null, "epsilon": 0.001, "trainable": false, "name": "batch_normalization_9", "center": true, "axis": 3}}, {"class_name": "Activation", "name": "activation_9", "inbound_nodes": [[["batch_normalization_9", 0, 0, {}]]], "config": {"activation": "relu", "trainable": false, "name": "activation_9"}}, {"class_name": "Conv2D", "name": "conv2d_7", "inbound_nodes": [[["max_pooling2d_2", 0, 0, {}]]], "config": {"kernel_initializer": {"class_name": "VarianceScaling", "config": {"distribution": "uniform", "scale": 1.0, "mode": "fan_avg", "seed": null}}, "kernel_regularizer": null, "bias_regularizer": null, "filters": 48, "use_bias": false, "bias_initializer": {"class_name": "Zeros", "config": {}}, "padding": "same", "kernel_constraint": null, "bias_constraint": null, "name": "conv2d_7", "data_format": "channels_last", "strides": [1, 1], "activation": "linear", "trainable": false, "dilation_rate": [1, 1], "kernel_size": [1, 1], "activity_regularizer": null}}, {"class_name": "Conv2D", "name": "conv2d_10", "inbound_nodes": [[["activation_9", 0, 0, {}]]], "config": {"kernel_initializer": {"class_name": "VarianceScaling", "config": {"distribution": "uniform", "scale": 1.0, "mode": "fan_avg", "seed": null}}, "kernel_regularizer": null, "bias_regularizer": null, "filters": 96, "use_bias": false, "bias_initializer": {"class_name": "Zeros", "config": {}}, "padding": "same", "kernel_constraint": null, "bias_constraint": null, "name": "conv2d_10", "data_format": "channels_last", "strides": [1, 1], "activation": "linear", "trainable": false, "dilation_rate": [1, 1], "kernel_size": [3, 3], "activity_regularizer": null}}, {"class_name": "BatchNormalization", "name": "batch_normalization_7", "inbound_nodes": [[["conv2d_7", 0, 0, {}]]], "config": {"gamma_constraint": null, "beta_initializer": {"class_name": "Zeros", "config": {}}, "beta_regularizer": null, "scale": false, "momentum": 0.99, "gamma_regularizer": null, "gamma_initializer": {"class_name": "Ones", "config": {}}, "moving_variance_initializer": {"class_name": "Ones", "config": {}}, "moving_mean_initializer": {"class_name": "Zeros", "config": {}}, "beta_constraint": null, "epsilon": 0.001, "trainable": false, "name": "batch_normalization_7", "center": true, "axis": 3}}, {"class_name": "BatchNormalization", "name": "batch_normalization_10", "inbound_nodes": [[["conv2d_10", 0, 0, {}]]], "config": {"gamma_constraint": null, "beta_initializer": {"class_name": "Zeros", "config": {}}, "beta_regularizer": null, "scale": false, "momentum": 0.99, "gamma_regularizer": null, "gamma_initializer": {"class_name": "Ones", "config": {}}, "moving_variance_initializer": {"class_name": "Ones", "config": {}}, "moving_mean_initializer": {"class_name": "Zeros", "config": {}}, "beta_constraint": null, "epsilon": 0.001, "trainable": false, "name": "batch_normalization_10", "center": true, "axis": 3}}, {"class_name": "Activation", "name": "activation_7", "inbound_nodes": [[["batch_normalization_7", 0, 0, {}]]], "config": {"activation": "relu", "trainable": false, "name": "activation_7"}}, {"class_name": "Activation", "name": "activation_10", "inbound_nodes": [[["batch_normalization_10", 0, 0, {}]]], "config": {"activation": "relu", "trainable": false, "name": "activation_10"}}, {"class_name": "AveragePooling2D", "name": "average_pooling2d_1", "inbound_nodes": [[["max_pooling2d_2", 0, 0, {}]]], "config": {"trainable": false, "strides": [1, 1], "pool_size": [3, 3], "padding": "same", "data_format": "channels_last", "name": "average_pooling2d_1"}}, {"class_name": "Conv2D", "name": "conv2d_6", "inbound_nodes": [[["max_pooling2d_2", 0, 0, {}]]], "config": {"kernel_initializer": {"class_name": "VarianceScaling", "config": {"distribution": "uniform", "scale": 1.0, "mode": "fan_avg", "seed": null}}, "kernel_regularizer": null, "bias_regularizer": null, "filters": 64, "use_bias": false, "bias_initializer": {"class_name": "Zeros", "config": {}}, "padding": "same", "kernel_constraint": null, "bias_constraint": null, "name": "conv2d_6", "data_format": "channels_last", "strides": [1, 1], "activation": "linear", "trainable": false, "dilation_rate": [1, 1], "kernel_size": [1, 1], "activity_regularizer": null}}, {"class_name": "Conv2D", "name": "conv2d_8", "inbound_nodes": [[["activation_7", 0, 0, {}]]], "config": {"kernel_initializer": {"class_name": "VarianceScaling", "config": {"distribution": "uniform", "scale": 1.0, "mode": "fan_avg", "seed": null}}, "kernel_regularizer": null, "bias_regularizer": null, "filters": 64, "use_bias": false, "bias_initializer": {"class_name": "Zeros", "config": {}}, "padding": "same", "kernel_constraint": null, "bias_constraint": null, "name": "conv2d_8", "data_format": "channels_last", "strides": [1, 1], "activation": "linear", "trainable": false, "dilation_rate": [1, 1], "kernel_size": [5, 5], "activity_regularizer": null}}, {"class_name": "Conv2D", "name": "conv2d_11", "inbound_nodes": [[["activation_10", 0, 0, {}]]], "config": {"kernel_initializer": {"class_name": "VarianceScaling", "config": {"distribution": "uniform", "scale": 1.0, "mode": "fan_avg", "seed": null}}, "kernel_regularizer": null, "bias_regularizer": null, "filters": 96, "use_bias": false, "bias_initializer": {"class_name": "Zeros", "config": {}}, "padding": "same", "kernel_constraint": null, "bias_constraint": null, "name": "conv2d_11", "data_format": "channels_last", "strides": [1, 1], "activation": "linear", "trainable": false, "dilation_rate": [1, 1], "kernel_size": [3, 3], "activity_regularizer": null}}, {"class_name": "Conv2D", "name": "conv2d_12", "inbound_nodes": [[["average_pooling2d_1", 0, 0, {}]]], "config": {"kernel_initializer": {"class_name": "VarianceScaling", "config": {"distribution": "uniform", "scale": 1.0, "mode": "fan_avg", "seed": null}}, "kernel_regularizer": null, "bias_regularizer": null, "filters": 32, "use_bias": false, "bias_initializer": {"class_name": "Zeros", "config": {}}, "padding": "same", "kernel_constraint": null, "bias_constraint": null, "name": "conv2d_12", "data_format": "channels_last", "strides": [1, 1], "activation": "linear", "trainable": false, "dilation_rate": [1, 1], "kernel_size": [1, 1], "activity_regularizer": null}}, {"class_name": "BatchNormalization", "name": "batch_normalization_6", "inbound_nodes": [[["conv2d_6", 0, 0, {}]]], "config": {"gamma_constraint": null, "beta_initializer": {"class_name": "Zeros", "config": {}}, "beta_regularizer": null, "scale": false, "momentum": 0.99, "gamma_regularizer": null, "gamma_initializer": {"class_name": "Ones", "config": {}}, "moving_variance_initializer": {"class_name": "Ones", "config": {}}, "moving_mean_initializer": {"class_name": "Zeros", "config": {}}, "beta_constraint": null, "epsilon": 0.001, "trainable": false, "name": "batch_normalization_6", "center": true, "axis": 3}}, {"class_name": "BatchNormalization", "name": "batch_normalization_8", "inbound_nodes": [[["conv2d_8", 0, 0, {}]]], "config": {"gamma_constraint": null, "beta_initializer": {"class_name": "Zeros", "config": {}}, "beta_regularizer": null, "scale": false, "momentum": 0.99, "gamma_regularizer": null, "gamma_initializer": {"class_name": "Ones", "config": {}}, "moving_variance_initializer": {"class_name": "Ones", "config": {}}, "moving_mean_initializer": {"class_name": "Zeros", "config": {}}, "beta_constraint": null, "epsilon": 0.001, "trainable": false, "name": "batch_normalization_8", "center": true, "axis": 3}}, {"class_name": "BatchNormalization", "name": "batch_normalization_11", "inbound_nodes": [[["conv2d_11", 0, 0, {}]]], "config": {"gamma_constraint": null, "beta_initializer": {"class_name": "Zeros", "config": {}}, "beta_regularizer": null, "scale": false, "momentum": 0.99, "gamma_regularizer": null, "gamma_initializer": {"class_name": "Ones", "config": {}}, "moving_variance_initializer": {"class_name": "Ones", "config": {}}, "moving_mean_initializer": {"class_name": "Zeros", "config": {}}, "beta_constraint": null, "epsilon": 0.001, "trainable": false, "name": "batch_normalization_11", "center": true, "axis": 3}}, {"class_name": "BatchNormalization", "name": "batch_normalization_12", "inbound_nodes": [[["conv2d_12", 0, 0, {}]]], "config": {"gamma_constraint": null, "beta_initializer": {"class_name": "Zeros", "config": {}}, "beta_regularizer": null, "scale": false, "momentum": 0.99, "gamma_regularizer": null, "gamma_initializer": {"class_name": "Ones", "config": {}}, "moving_variance_initializer": {"class_name": "Ones", "config": {}}, "moving_mean_initializer": {"class_name": "Zeros", "config": {}}, "beta_constraint": null, "epsilon": 0.001, "trainable": false, "name": "batch_normalization_12", "center": true, "axis": 3}}, {"class_name": "Activation", "name": "activation_6", "inbound_nodes": [[["batch_normalization_6", 0, 0, {}]]], "config": {"activation": "relu", "trainable": false, "name": "activation_6"}}, {"class_name": "Activation", "name": "activation_8", "inbound_nodes": [[["batch_normalization_8", 0, 0, {}]]], "config": {"activation": "relu", "trainable": false, "name": "activation_8"}}, {"class_name": "Activation", "name": "activation_11", "inbound_nodes": [[["batch_normalization_11", 0, 0, {}]]], "config": {"activation": "relu", "trainable": false, "name": "activation_11"}}, {"class_name": "Activation", "name": "activation_12", "inbound_nodes": [[["batch_normalization_12", 0, 0, {}]]], "config": {"activation": "relu", "trainable": false, "name": "activation_12"}}, {"class_name": "Concatenate", "name": "mixed0", "inbound_nodes": [[["activation_6", 0, 0, {}], ["activation_8", 0, 0, {}], ["activation_11", 0, 0, {}], ["activation_12", 0, 0, {}]]], "config": {"name": "mixed0", "trainable": false, "axis": 3}}, {"class_name": "Conv2D", "name": "conv2d_16", "inbound_nodes": [[["mixed0", 0, 0, {}]]], "config": {"kernel_initializer": {"class_name": "VarianceScaling", "config": {"distribution": "uniform", "scale": 1.0, "mode": "fan_avg", "seed": null}}, "kernel_regularizer": null, "bias_regularizer": null, "filters": 64, "use_bias": false, "bias_initializer": {"class_name": "Zeros", "config": {}}, "padding": "same", "kernel_constraint": null, "bias_constraint": null, "name": "conv2d_16", "data_format": "channels_last", "strides": [1, 1], "activation": "linear", "trainable": false, "dilation_rate": [1, 1], "kernel_size": [1, 1], "activity_regularizer": null}}, {"class_name": "BatchNormalization", "name": "batch_normalization_16", "inbound_nodes": [[["conv2d_16", 0, 0, {}]]], "config": {"gamma_constraint": null, "beta_initializer": {"class_name": "Zeros", "config": {}}, "beta_regularizer": null, "scale": false, "momentum": 0.99, "gamma_regularizer": null, "gamma_initializer": {"class_name": "Ones", "config": {}}, "moving_variance_initializer": {"class_name": "Ones", "config": {}}, "moving_mean_initializer": {"class_name": "Zeros", "config": {}}, "beta_constraint": null, "epsilon": 0.001, "trainable": false, "name": "batch_normalization_16", "center": true, "axis": 3}}, {"class_name": "Activation", "name": "activation_16", "inbound_nodes": [[["batch_normalization_16", 0, 0, {}]]], "config": {"activation": "relu", "trainable": false, "name": "activation_16"}}, {"class_name": "Conv2D", "name": "conv2d_14", "inbound_nodes": [[["mixed0", 0, 0, {}]]], "config": {"kernel_initializer": {"class_name": "VarianceScaling", "config": {"distribution": "uniform", "scale": 1.0, "mode": "fan_avg", "seed": null}}, "kernel_regularizer": null, "bias_regularizer": null, "filters": 48, "use_bias": false, "bias_initializer": {"class_name": "Zeros", "config": {}}, "padding": "same", "kernel_constraint": null, "bias_constraint": null, "name": "conv2d_14", "data_format": "channels_last", "strides": [1, 1], "activation": "linear", "trainable": false, "dilation_rate": [1, 1], "kernel_size": [1, 1], "activity_regularizer": null}}, {"class_name": "Conv2D", "name": "conv2d_17", "inbound_nodes": [[["activation_16", 0, 0, {}]]], "config": {"kernel_initializer": {"class_name": "VarianceScaling", "config": {"distribution": "uniform", "scale": 1.0, "mode": "fan_avg", "seed": null}}, "kernel_regularizer": null, "bias_regularizer": null, "filters": 96, "use_bias": false, "bias_initializer": {"class_name": "Zeros", "config": {}}, "padding": "same", "kernel_constraint": null, "bias_constraint": null, "name": "conv2d_17", "data_format": "channels_last", "strides": [1, 1], "activation": "linear", "trainable": false, "dilation_rate": [1, 1], "kernel_size": [3, 3], "activity_regularizer": null}}, {"class_name": "BatchNormalization", "name": "batch_normalization_14", "inbound_nodes": [[["conv2d_14", 0, 0, {}]]], "config": {"gamma_constraint": null, "beta_initializer": {"class_name": "Zeros", "config": {}}, "beta_regularizer": null, "scale": false, "momentum": 0.99, "gamma_regularizer": null, "gamma_initializer": {"class_name": "Ones", "config": {}}, "moving_variance_initializer": {"class_name": "Ones", "config": {}}, "moving_mean_initializer": {"class_name": "Zeros", "config": {}}, "beta_constraint": null, "epsilon": 0.001, "trainable": false, "name": "batch_normalization_14", "center": true, "axis": 3}}, {"class_name": "BatchNormalization", "name": "batch_normalization_17", "inbound_nodes": [[["conv2d_17", 0, 0, {}]]], "config": {"gamma_constraint": null, "beta_initializer": {"class_name": "Zeros", "config": {}}, "beta_regularizer": null, "scale": false, "momentum": 0.99, "gamma_regularizer": null, "gamma_initializer": {"class_name": "Ones", "config": {}}, "moving_variance_initializer": {"class_name": "Ones", "config": {}}, "moving_mean_initializer": {"class_name": "Zeros", "config": {}}, "beta_constraint": null, "epsilon": 0.001, "trainable": false, "name": "batch_normalization_17", "center": true, "axis": 3}}, {"class_name": "Activation", "name": "activation_14", "inbound_nodes": [[["batch_normalization_14", 0, 0, {}]]], "config": {"activation": "relu", "trainable": false, "name": "activation_14"}}, {"class_name": "Activation", "name": "activation_17", "inbound_nodes": [[["batch_normalization_17", 0, 0, {}]]], "config": {"activation": "relu", "trainable": false, "name": "activation_17"}}, {"class_name": "AveragePooling2D", "name": "average_pooling2d_2", "inbound_nodes": [[["mixed0", 0, 0, {}]]], "config": {"trainable": false, "strides": [1, 1], "pool_size": [3, 3], "padding": "same", "data_format": "channels_last", "name": "average_pooling2d_2"}}, {"class_name": "Conv2D", "name": "conv2d_13", "inbound_nodes": [[["mixed0", 0, 0, {}]]], "config": {"kernel_initializer": {"class_name": "VarianceScaling", "config": {"distribution": "uniform", "scale": 1.0, "mode": "fan_avg", "seed": null}}, "kernel_regularizer": null, "bias_regularizer": null, "filters": 64, "use_bias": false, "bias_initializer": {"class_name": "Zeros", "config": {}}, "padding": "same", "kernel_constraint": null, "bias_constraint": null, "name": "conv2d_13", "data_format": "channels_last", "strides": [1, 1], "activation": "linear", "trainable": false, "dilation_rate": [1, 1], "kernel_size": [1, 1], "activity_regularizer": null}}, {"class_name": "Conv2D", "name": "conv2d_15", "inbound_nodes": [[["activation_14", 0, 0, {}]]], "config": {"kernel_initializer": {"class_name": "VarianceScaling", "config": {"distribution": "uniform", "scale": 1.0, "mode": "fan_avg", "seed": null}}, "kernel_regularizer": null, "bias_regularizer": null, "filters": 64, "use_bias": false, "bias_initializer": {"class_name": "Zeros", "config": {}}, "padding": "same", "kernel_constraint": null, "bias_constraint": null, "name": "conv2d_15", "data_format": "channels_last", "strides": [1, 1], "activation": "linear", "trainable": false, "dilation_rate": [1, 1], "kernel_size": [5, 5], "activity_regularizer": null}}, {"class_name": "Conv2D", "name": "conv2d_18", "inbound_nodes": [[["activation_17", 0, 0, {}]]], "config": {"kernel_initializer": {"class_name": "VarianceScaling", "config": {"distribution": "uniform", "scale": 1.0, "mode": "fan_avg", "seed": null}}, "kernel_regularizer": null, "bias_regularizer": null, "filters": 96, "use_bias": false, "bias_initializer": {"class_name": "Zeros", "config": {}}, "padding": "same", "kernel_constraint": null, "bias_constraint": null, "name": "conv2d_18", "data_format": "channels_last", "strides": [1, 1], "activation": "linear", "trainable": false, "dilation_rate": [1, 1], "kernel_size": [3, 3], "activity_regularizer": null}}, {"class_name": "Conv2D", "name": "conv2d_19", "inbound_nodes": [[["average_pooling2d_2", 0, 0, {}]]], "config": {"kernel_initializer": {"class_name": "VarianceScaling", "config": {"distribution": "uniform", "scale": 1.0, "mode": "fan_avg", "seed": null}}, "kernel_regularizer": null, "bias_regularizer": null, "filters": 64, "use_bias": false, "bias_initializer": {"class_name": "Zeros", "config": {}}, "padding": "same", "kernel_constraint": null, "bias_constraint": null, "name": "conv2d_19", "data_format": "channels_last", "strides": [1, 1], "activation": "linear", "trainable": false, "dilation_rate": [1, 1], "kernel_size": [1, 1], "activity_regularizer": null}}, {"class_name": "BatchNormalization", "name": "batch_normalization_13", "inbound_nodes": [[["conv2d_13", 0, 0, {}]]], "config": {"gamma_constraint": null, "beta_initializer": {"class_name": "Zeros", "config": {}}, "beta_regularizer": null, "scale": false, "momentum": 0.99, "gamma_regularizer": null, "gamma_initializer": {"class_name": "Ones", "config": {}}, "moving_variance_initializer": {"class_name": "Ones", "config": {}}, "moving_mean_initializer": {"class_name": "Zeros", "config": {}}, "beta_constraint": null, "epsilon": 0.001, "trainable": false, "name": "batch_normalization_13", "center": true, "axis": 3}}, {"class_name": "BatchNormalization", "name": "batch_normalization_15", "inbound_nodes": [[["conv2d_15", 0, 0, {}]]], "config": {"gamma_constraint": null, "beta_initializer": {"class_name": "Zeros", "config": {}}, "beta_regularizer": null, "scale": false, "momentum": 0.99, "gamma_regularizer": null, "gamma_initializer": {"class_name": "Ones", "config": {}}, "moving_variance_initializer": {"class_name": "Ones", "config": {}}, "moving_mean_initializer": {"class_name": "Zeros", "config": {}}, "beta_constraint": null, "epsilon": 0.001, "trainable": false, "name": "batch_normalization_15", "center": true, "axis": 3}}, {"class_name": "BatchNormalization", "name": "batch_normalization_18", "inbound_nodes": [[["conv2d_18", 0, 0, {}]]], "config": {"gamma_constraint": null, "beta_initializer": {"class_name": "Zeros", "config": {}}, "beta_regularizer": null, "scale": false, "momentum": 0.99, "gamma_regularizer": null, "gamma_initializer": {"class_name": "Ones", "config": {}}, "moving_variance_initializer": {"class_name": "Ones", "config": {}}, "moving_mean_initializer": {"class_name": "Zeros", "config": {}}, "beta_constraint": null, "epsilon": 0.001, "trainable": false, "name": "batch_normalization_18", "center": true, "axis": 3}}, {"class_name": "BatchNormalization", "name": "batch_normalization_19", "inbound_nodes": [[["conv2d_19", 0, 0, {}]]], "config": {"gamma_constraint": null, "beta_initializer": {"class_name": "Zeros", "config": {}}, "beta_regularizer": null, "scale": false, "momentum": 0.99, "gamma_regularizer": null, "gamma_initializer": {"class_name": "Ones", "config": {}}, "moving_variance_initializer": {"class_name": "Ones", "config": {}}, "moving_mean_initializer": {"class_name": "Zeros", "config": {}}, "beta_constraint": null, "epsilon": 0.001, "trainable": false, "name": "batch_normalization_19", "center": true, "axis": 3}}, {"class_name": "Activation", "name": "activation_13", "inbound_nodes": [[["batch_normalization_13", 0, 0, {}]]], "config": {"activation": "relu", "trainable": false, "name": "activation_13"}}, {"class_name": "Activation", "name": "activation_15", "inbound_nodes": [[["batch_normalization_15", 0, 0, {}]]], "config": {"activation": "relu", "trainable": false, "name": "activation_15"}}, {"class_name": "Activation", "name": "activation_18", "inbound_nodes": [[["batch_normalization_18", 0, 0, {}]]], "config": {"activation": "relu", "trainable": false, "name": "activation_18"}}, {"class_name": "Activation", "name": "activation_19", "inbound_nodes": [[["batch_normalization_19", 0, 0, {}]]], "config": {"activation": "relu", "trainable": false, "name": "activation_19"}}, {"class_name": "Concatenate", "name": "mixed1", "inbound_nodes": [[["activation_13", 0, 0, {}], ["activation_15", 0, 0, {}], ["activation_18", 0, 0, {}], ["activation_19", 0, 0, {}]]], "config": {"name": "mixed1", "trainable": false, "axis": 3}}, {"class_name": "Conv2D", "name": "conv2d_23", "inbound_nodes": [[["mixed1", 0, 0, {}]]], "config": {"kernel_initializer": {"class_name": "VarianceScaling", "config": {"distribution": "uniform", "scale": 1.0, "mode": "fan_avg", "seed": null}}, "kernel_regularizer": null, "bias_regularizer": null, "filters": 64, "use_bias": false, "bias_initializer": {"class_name": "Zeros", "config": {}}, "padding": "same", "kernel_constraint": null, "bias_constraint": null, "name": "conv2d_23", "data_format": "channels_last", "strides": [1, 1], "activation": "linear", "trainable": false, "dilation_rate": [1, 1], "kernel_size": [1, 1], "activity_regularizer": null}}, {"class_name": "BatchNormalization", "name": "batch_normalization_23", "inbound_nodes": [[["conv2d_23", 0, 0, {}]]], "config": {"gamma_constraint": null, "beta_initializer": {"class_name": "Zeros", "config": {}}, "beta_regularizer": null, "scale": false, "momentum": 0.99, "gamma_regularizer": null, "gamma_initializer": {"class_name": "Ones", "config": {}}, "moving_variance_initializer": {"class_name": "Ones", "config": {}}, "moving_mean_initializer": {"class_name": "Zeros", "config": {}}, "beta_constraint": null, "epsilon": 0.001, "trainable": false, "name": "batch_normalization_23", "center": true, "axis": 3}}, {"class_name": "Activation", "name": "activation_23", "inbound_nodes": [[["batch_normalization_23", 0, 0, {}]]], "config": {"activation": "relu", "trainable": false, "name": "activation_23"}}, {"class_name": "Conv2D", "name": "conv2d_21", "inbound_nodes": [[["mixed1", 0, 0, {}]]], "config": {"kernel_initializer": {"class_name": "VarianceScaling", "config": {"distribution": "uniform", "scale": 1.0, "mode": "fan_avg", "seed": null}}, "kernel_regularizer": null, "bias_regularizer": null, "filters": 48, "use_bias": false, "bias_initializer": {"class_name": "Zeros", "config": {}}, "padding": "same", "kernel_constraint": null, "bias_constraint": null, "name": "conv2d_21", "data_format": "channels_last", "strides": [1, 1], "activation": "linear", "trainable": false, "dilation_rate": [1, 1], "kernel_size": [1, 1], "activity_regularizer": null}}, {"class_name": "Conv2D", "name": "conv2d_24", "inbound_nodes": [[["activation_23", 0, 0, {}]]], "config": {"kernel_initializer": {"class_name": "VarianceScaling", "config": {"distribution": "uniform", "scale": 1.0, "mode": "fan_avg", "seed": null}}, "kernel_regularizer": null, "bias_regularizer": null, "filters": 96, "use_bias": false, "bias_initializer": {"class_name": "Zeros", "config": {}}, "padding": "same", "kernel_constraint": null, "bias_constraint": null, "name": "conv2d_24", "data_format": "channels_last", "strides": [1, 1], "activation": "linear", "trainable": false, "dilation_rate": [1, 1], "kernel_size": [3, 3], "activity_regularizer": null}}, {"class_name": "BatchNormalization", "name": "batch_normalization_21", "inbound_nodes": [[["conv2d_21", 0, 0, {}]]], "config": {"gamma_constraint": null, "beta_initializer": {"class_name": "Zeros", "config": {}}, "beta_regularizer": null, "scale": false, "momentum": 0.99, "gamma_regularizer": null, "gamma_initializer": {"class_name": "Ones", "config": {}}, "moving_variance_initializer": {"class_name": "Ones", "config": {}}, "moving_mean_initializer": {"class_name": "Zeros", "config": {}}, "beta_constraint": null, "epsilon": 0.001, "trainable": false, "name": "batch_normalization_21", "center": true, "axis": 3}}, {"class_name": "BatchNormalization", "name": "batch_normalization_24", "inbound_nodes": [[["conv2d_24", 0, 0, {}]]], "config": {"gamma_constraint": null, "beta_initializer": {"class_name": "Zeros", "config": {}}, "beta_regularizer": null, "scale": false, "momentum": 0.99, "gamma_regularizer": null, "gamma_initializer": {"class_name": "Ones", "config": {}}, "moving_variance_initializer": {"class_name": "Ones", "config": {}}, "moving_mean_initializer": {"class_name": "Zeros", "config": {}}, "beta_constraint": null, "epsilon": 0.001, "trainable": false, "name": "batch_normalization_24", "center": true, "axis": 3}}, {"class_name": "Activation", "name": "activation_21", "inbound_nodes": [[["batch_normalization_21", 0, 0, {}]]], "config": {"activation": "relu", "trainable": false, "name": "activation_21"}}, {"class_name": "Activation", "name": "activation_24", "inbound_nodes": [[["batch_normalization_24", 0, 0, {}]]], "config": {"activation": "relu", "trainable": false, "name": "activation_24"}}, {"class_name": "AveragePooling2D", "name": "average_pooling2d_3", "inbound_nodes": [[["mixed1", 0, 0, {}]]], "config": {"trainable": false, "strides": [1, 1], "pool_size": [3, 3], "padding": "same", "data_format": "channels_last", "name": "average_pooling2d_3"}}, {"class_name": "Conv2D", "name": "conv2d_20", "inbound_nodes": [[["mixed1", 0, 0, {}]]], "config": {"kernel_initializer": {"class_name": "VarianceScaling", "config": {"distribution": "uniform", "scale": 1.0, "mode": "fan_avg", "seed": null}}, "kernel_regularizer": null, "bias_regularizer": null, "filters": 64, "use_bias": false, "bias_initializer": {"class_name": "Zeros", "config": {}}, "padding": "same", "kernel_constraint": null, "bias_constraint": null, "name": "conv2d_20", "data_format": "channels_last", "strides": [1, 1], "activation": "linear", "trainable": false, "dilation_rate": [1, 1], "kernel_size": [1, 1], "activity_regularizer": null}}, {"class_name": "Conv2D", "name": "conv2d_22", "inbound_nodes": [[["activation_21", 0, 0, {}]]], "config": {"kernel_initializer": {"class_name": "VarianceScaling", "config": {"distribution": "uniform", "scale": 1.0, "mode": "fan_avg", "seed": null}}, "kernel_regularizer": null, "bias_regularizer": null, "filters": 64, "use_bias": false, "bias_initializer": {"class_name": "Zeros", "config": {}}, "padding": "same", "kernel_constraint": null, "bias_constraint": null, "name": "conv2d_22", "data_format": "channels_last", "strides": [1, 1], "activation": "linear", "trainable": false, "dilation_rate": [1, 1], "kernel_size": [5, 5], "activity_regularizer": null}}, {"class_name": "Conv2D", "name": "conv2d_25", "inbound_nodes": [[["activation_24", 0, 0, {}]]], "config": {"kernel_initializer": {"class_name": "VarianceScaling", "config": {"distribution": "uniform", "scale": 1.0, "mode": "fan_avg", "seed": null}}, "kernel_regularizer": null, "bias_regularizer": null, "filters": 96, "use_bias": false, "bias_initializer": {"class_name": "Zeros", "config": {}}, "padding": "same", "kernel_constraint": null, "bias_constraint": null, "name": "conv2d_25", "data_format": "channels_last", "strides": [1, 1], "activation": "linear", "trainable": false, "dilation_rate": [1, 1], "kernel_size": [3, 3], "activity_regularizer": null}}, {"class_name": "Conv2D", "name": "conv2d_26", "inbound_nodes": [[["average_pooling2d_3", 0, 0, {}]]], "config": {"kernel_initializer": {"class_name": "VarianceScaling", "config": {"distribution": "uniform", "scale": 1.0, "mode": "fan_avg", "seed": null}}, "kernel_regularizer": null, "bias_regularizer": null, "filters": 64, "use_bias": false, "bias_initializer": {"class_name": "Zeros", "config": {}}, "padding": "same", "kernel_constraint": null, "bias_constraint": null, "name": "conv2d_26", "data_format": "channels_last", "strides": [1, 1], "activation": "linear", "trainable": false, "dilation_rate": [1, 1], "kernel_size": [1, 1], "activity_regularizer": null}}, {"class_name": "BatchNormalization", "name": "batch_normalization_20", "inbound_nodes": [[["conv2d_20", 0, 0, {}]]], "config": {"gamma_constraint": null, "beta_initializer": {"class_name": "Zeros", "config": {}}, "beta_regularizer": null, "scale": false, "momentum": 0.99, "gamma_regularizer": null, "gamma_initializer": {"class_name": "Ones", "config": {}}, "moving_variance_initializer": {"class_name": "Ones", "config": {}}, "moving_mean_initializer": {"class_name": "Zeros", "config": {}}, "beta_constraint": null, "epsilon": 0.001, "trainable": false, "name": "batch_normalization_20", "center": true, "axis": 3}}, {"class_name": "BatchNormalization", "name": "batch_normalization_22", "inbound_nodes": [[["conv2d_22", 0, 0, {}]]], "config": {"gamma_constraint": null, "beta_initializer": {"class_name": "Zeros", "config": {}}, "beta_regularizer": null, "scale": false, "momentum": 0.99, "gamma_regularizer": null, "gamma_initializer": {"class_name": "Ones", "config": {}}, "moving_variance_initializer": {"class_name": "Ones", "config": {}}, "moving_mean_initializer": {"class_name": "Zeros", "config": {}}, "beta_constraint": null, "epsilon": 0.001, "trainable": false, "name": "batch_normalization_22", "center": true, "axis": 3}}, {"class_name": "BatchNormalization", "name": "batch_normalization_25", "inbound_nodes": [[["conv2d_25", 0, 0, {}]]], "config": {"gamma_constraint": null, "beta_initializer": {"class_name": "Zeros", "config": {}}, "beta_regularizer": null, "scale": false, "momentum": 0.99, "gamma_regularizer": null, "gamma_initializer": {"class_name": "Ones", "config": {}}, "moving_variance_initializer": {"class_name": "Ones", "config": {}}, "moving_mean_initializer": {"class_name": "Zeros", "config": {}}, "beta_constraint": null, "epsilon": 0.001, "trainable": false, "name": "batch_normalization_25", "center": true, "axis": 3}}, {"class_name": "BatchNormalization", "name": "batch_normalization_26", "inbound_nodes": [[["conv2d_26", 0, 0, {}]]], "config": {"gamma_constraint": null, "beta_initializer": {"class_name": "Zeros", "config": {}}, "beta_regularizer": null, "scale": false, "momentum": 0.99, "gamma_regularizer": null, "gamma_initializer": {"class_name": "Ones", "config": {}}, "moving_variance_initializer": {"class_name": "Ones", "config": {}}, "moving_mean_initializer": {"class_name": "Zeros", "config": {}}, "beta_constraint": null, "epsilon": 0.001, "trainable": false, "name": "batch_normalization_26", "center": true, "axis": 3}}, {"class_name": "Activation", "name": "activation_20", "inbound_nodes": [[["batch_normalization_20", 0, 0, {}]]], "config": {"activation": "relu", "trainable": false, "name": "activation_20"}}, {"class_name": "Activation", "name": "activation_22", "inbound_nodes": [[["batch_normalization_22", 0, 0, {}]]], "config": {"activation": "relu", "trainable": false, "name": "activation_22"}}, {"class_name": "Activation", "name": "activation_25", "inbound_nodes": [[["batch_normalization_25", 0, 0, {}]]], "config": {"activation": "relu", "trainable": false, "name": "activation_25"}}, {"class_name": "Activation", "name": "activation_26", "inbound_nodes": [[["batch_normalization_26", 0, 0, {}]]], "config": {"activation": "relu", "trainable": false, "name": "activation_26"}}, {"class_name": "Concatenate", "name": "mixed2", "inbound_nodes": [[["activation_20", 0, 0, {}], ["activation_22", 0, 0, {}], ["activation_25", 0, 0, {}], ["activation_26", 0, 0, {}]]], "config": {"name": "mixed2", "trainable": false, "axis": 3}}, {"class_name": "Conv2D", "name": "conv2d_28", "inbound_nodes": [[["mixed2", 0, 0, {}]]], "config": {"kernel_initializer": {"class_name": "VarianceScaling", "config": {"distribution": "uniform", "scale": 1.0, "mode": "fan_avg", "seed": null}}, "kernel_regularizer": null, "bias_regularizer": null, "filters": 64, "use_bias": false, "bias_initializer": {"class_name": "Zeros", "config": {}}, "padding": "same", "kernel_constraint": null, "bias_constraint": null, "name": "conv2d_28", "data_format": "channels_last", "strides": [1, 1], "activation": "linear", "trainable": true, "dilation_rate": [1, 1], "kernel_size": [1, 1], "activity_regularizer": null}}, {"class_name": "BatchNormalization", "name": "batch_normalization_28", "inbound_nodes": [[["conv2d_28", 0, 0, {}]]], "config": {"gamma_constraint": null, "beta_initializer": {"class_name": "Zeros", "config": {}}, "beta_regularizer": null, "scale": false, "momentum": 0.99, "gamma_regularizer": null, "gamma_initializer": {"class_name": "Ones", "config": {}}, "moving_variance_initializer": {"class_name": "Ones", "config": {}}, "moving_mean_initializer": {"class_name": "Zeros", "config": {}}, "beta_constraint": null, "epsilon": 0.001, "trainable": true, "name": "batch_normalization_28", "center": true, "axis": 3}}, {"class_name": "Activation", "name": "activation_28", "inbound_nodes": [[["batch_normalization_28", 0, 0, {}]]], "config": {"activation": "relu", "trainable": true, "name": "activation_28"}}, {"class_name": "Conv2D", "name": "conv2d_29", "inbound_nodes": [[["activation_28", 0, 0, {}]]], "config": {"kernel_initializer": {"class_name": "VarianceScaling", "config": {"distribution": "uniform", "scale": 1.0, "mode": "fan_avg", "seed": null}}, "kernel_regularizer": null, "bias_regularizer": null, "filters": 96, "use_bias": false, "bias_initializer": {"class_name": "Zeros", "config": {}}, "padding": "same", "kernel_constraint": null, "bias_constraint": null, "name": "conv2d_29", "data_format": "channels_last", "strides": [1, 1], "activation": "linear", "trainable": true, "dilation_rate": [1, 1], "kernel_size": [3, 3], "activity_regularizer": null}}, {"class_name": "BatchNormalization", "name": "batch_normalization_29", "inbound_nodes": [[["conv2d_29", 0, 0, {}]]], "config": {"gamma_constraint": null, "beta_initializer": {"class_name": "Zeros", "config": {}}, "beta_regularizer": null, "scale": false, "momentum": 0.99, "gamma_regularizer": null, "gamma_initializer": {"class_name": "Ones", "config": {}}, "moving_variance_initializer": {"class_name": "Ones", "config": {}}, "moving_mean_initializer": {"class_name": "Zeros", "config": {}}, "beta_constraint": null, "epsilon": 0.001, "trainable": true, "name": "batch_normalization_29", "center": true, "axis": 3}}, {"class_name": "Activation", "name": "activation_29", "inbound_nodes": [[["batch_normalization_29", 0, 0, {}]]], "config": {"activation": "relu", "trainable": true, "name": "activation_29"}}, {"class_name": "Conv2D", "name": "conv2d_27", "inbound_nodes": [[["mixed2", 0, 0, {}]]], "config": {"kernel_initializer": {"class_name": "VarianceScaling", "config": {"distribution": "uniform", "scale": 1.0, "mode": "fan_avg", "seed": null}}, "kernel_regularizer": null, "bias_regularizer": null, "filters": 384, "use_bias": false, "bias_initializer": {"class_name": "Zeros", "config": {}}, "padding": "valid", "kernel_constraint": null, "bias_constraint": null, "name": "conv2d_27", "data_format": "channels_last", "strides": [2, 2], "activation": "linear", "trainable": true, "dilation_rate": [1, 1], "kernel_size": [3, 3], "activity_regularizer": null}}, {"class_name": "Conv2D", "name": "conv2d_30", "inbound_nodes": [[["activation_29", 0, 0, {}]]], "config": {"kernel_initializer": {"class_name": "VarianceScaling", "config": {"distribution": "uniform", "scale": 1.0, "mode": "fan_avg", "seed": null}}, "kernel_regularizer": null, "bias_regularizer": null, "filters": 96, "use_bias": false, "bias_initializer": {"class_name": "Zeros", "config": {}}, "padding": "valid", "kernel_constraint": null, "bias_constraint": null, "name": "conv2d_30", "data_format": "channels_last", "strides": [2, 2], "activation": "linear", "trainable": true, "dilation_rate": [1, 1], "kernel_size": [3, 3], "activity_regularizer": null}}, {"class_name": "BatchNormalization", "name": "batch_normalization_27", "inbound_nodes": [[["conv2d_27", 0, 0, {}]]], "config": {"gamma_constraint": null, "beta_initializer": {"class_name": "Zeros", "config": {}}, "beta_regularizer": null, "scale": false, "momentum": 0.99, "gamma_regularizer": null, "gamma_initializer": {"class_name": "Ones", "config": {}}, "moving_variance_initializer": {"class_name": "Ones", "config": {}}, "moving_mean_initializer": {"class_name": "Zeros", "config": {}}, "beta_constraint": null, "epsilon": 0.001, "trainable": true, "name": "batch_normalization_27", "center": true, "axis": 3}}, {"class_name": "BatchNormalization", "name": "batch_normalization_30", "inbound_nodes": [[["conv2d_30", 0, 0, {}]]], "config": {"gamma_constraint": null, "beta_initializer": {"class_name": "Zeros", "config": {}}, "beta_regularizer": null, "scale": false, "momentum": 0.99, "gamma_regularizer": null, "gamma_initializer": {"class_name": "Ones", "config": {}}, "moving_variance_initializer": {"class_name": "Ones", "config": {}}, "moving_mean_initializer": {"class_name": "Zeros", "config": {}}, "beta_constraint": null, "epsilon": 0.001, "trainable": true, "name": "batch_normalization_30", "center": true, "axis": 3}}, {"class_name": "Activation", "name": "activation_27", "inbound_nodes": [[["batch_normalization_27", 0, 0, {}]]], "config": {"activation": "relu", "trainable": true, "name": "activation_27"}}, {"class_name": "Activation", "name": "activation_30", "inbound_nodes": [[["batch_normalization_30", 0, 0, {}]]], "config": {"activation": "relu", "trainable": true, "name": "activation_30"}}, {"class_name": "MaxPooling2D", "name": "max_pooling2d_3", "inbound_nodes": [[["mixed2", 0, 0, {}]]], "config": {"trainable": true, "strides": [2, 2], "pool_size": [3, 3], "padding": "valid", "data_format": "channels_last", "name": "max_pooling2d_3"}}, {"class_name": "Concatenate", "name": "mixed3", "inbound_nodes": [[["activation_27", 0, 0, {}], ["activation_30", 0, 0, {}], ["max_pooling2d_3", 0, 0, {}]]], "config": {"name": "mixed3", "trainable": true, "axis": 3}}, {"class_name": "Conv2D", "name": "conv2d_35", "inbound_nodes": [[["mixed3", 0, 0, {}]]], "config": {"kernel_initializer": {"class_name": "VarianceScaling", "config": {"distribution": "uniform", "scale": 1.0, "mode": "fan_avg", "seed": null}}, "kernel_regularizer": null, "bias_regularizer": null, "filters": 128, "use_bias": false, "bias_initializer": {"class_name": "Zeros", "config": {}}, "padding": "same", "kernel_constraint": null, "bias_constraint": null, "name": "conv2d_35", "data_format": "channels_last", "strides": [1, 1], "activation": "linear", "trainable": true, "dilation_rate": [1, 1], "kernel_size": [1, 1], "activity_regularizer": null}}, {"class_name": "BatchNormalization", "name": "batch_normalization_35", "inbound_nodes": [[["conv2d_35", 0, 0, {}]]], "config": {"gamma_constraint": null, "beta_initializer": {"class_name": "Zeros", "config": {}}, "beta_regularizer": null, "scale": false, "momentum": 0.99, "gamma_regularizer": null, "gamma_initializer": {"class_name": "Ones", "config": {}}, "moving_variance_initializer": {"class_name": "Ones", "config": {}}, "moving_mean_initializer": {"class_name": "Zeros", "config": {}}, "beta_constraint": null, "epsilon": 0.001, "trainable": true, "name": "batch_normalization_35", "center": true, "axis": 3}}, {"class_name": "Activation", "name": "activation_35", "inbound_nodes": [[["batch_normalization_35", 0, 0, {}]]], "config": {"activation": "relu", "trainable": true, "name": "activation_35"}}, {"class_name": "Conv2D", "name": "conv2d_36", "inbound_nodes": [[["activation_35", 0, 0, {}]]], "config": {"kernel_initializer": {"class_name": "VarianceScaling", "config": {"distribution": "uniform", "scale": 1.0, "mode": "fan_avg", "seed": null}}, "kernel_regularizer": null, "bias_regularizer": null, "filters": 128, "use_bias": false, "bias_initializer": {"class_name": "Zeros", "config": {}}, "padding": "same", "kernel_constraint": null, "bias_constraint": null, "name": "conv2d_36", "data_format": "channels_last", "strides": [1, 1], "activation": "linear", "trainable": true, "dilation_rate": [1, 1], "kernel_size": [7, 1], "activity_regularizer": null}}, {"class_name": "BatchNormalization", "name": "batch_normalization_36", "inbound_nodes": [[["conv2d_36", 0, 0, {}]]], "config": {"gamma_constraint": null, "beta_initializer": {"class_name": "Zeros", "config": {}}, "beta_regularizer": null, "scale": false, "momentum": 0.99, "gamma_regularizer": null, "gamma_initializer": {"class_name": "Ones", "config": {}}, "moving_variance_initializer": {"class_name": "Ones", "config": {}}, "moving_mean_initializer": {"class_name": "Zeros", "config": {}}, "beta_constraint": null, "epsilon": 0.001, "trainable": true, "name": "batch_normalization_36", "center": true, "axis": 3}}, {"class_name": "Activation", "name": "activation_36", "inbound_nodes": [[["batch_normalization_36", 0, 0, {}]]], "config": {"activation": "relu", "trainable": true, "name": "activation_36"}}, {"class_name": "Conv2D", "name": "conv2d_32", "inbound_nodes": [[["mixed3", 0, 0, {}]]], "config": {"kernel_initializer": {"class_name": "VarianceScaling", "config": {"distribution": "uniform", "scale": 1.0, "mode": "fan_avg", "seed": null}}, "kernel_regularizer": null, "bias_regularizer": null, "filters": 128, "use_bias": false, "bias_initializer": {"class_name": "Zeros", "config": {}}, "padding": "same", "kernel_constraint": null, "bias_constraint": null, "name": "conv2d_32", "data_format": "channels_last", "strides": [1, 1], "activation": "linear", "trainable": true, "dilation_rate": [1, 1], "kernel_size": [1, 1], "activity_regularizer": null}}, {"class_name": "Conv2D", "name": "conv2d_37", "inbound_nodes": [[["activation_36", 0, 0, {}]]], "config": {"kernel_initializer": {"class_name": "VarianceScaling", "config": {"distribution": "uniform", "scale": 1.0, "mode": "fan_avg", "seed": null}}, "kernel_regularizer": null, "bias_regularizer": null, "filters": 128, "use_bias": false, "bias_initializer": {"class_name": "Zeros", "config": {}}, "padding": "same", "kernel_constraint": null, "bias_constraint": null, "name": "conv2d_37", "data_format": "channels_last", "strides": [1, 1], "activation": "linear", "trainable": true, "dilation_rate": [1, 1], "kernel_size": [1, 7], "activity_regularizer": null}}, {"class_name": "BatchNormalization", "name": "batch_normalization_32", "inbound_nodes": [[["conv2d_32", 0, 0, {}]]], "config": {"gamma_constraint": null, "beta_initializer": {"class_name": "Zeros", "config": {}}, "beta_regularizer": null, "scale": false, "momentum": 0.99, "gamma_regularizer": null, "gamma_initializer": {"class_name": "Ones", "config": {}}, "moving_variance_initializer": {"class_name": "Ones", "config": {}}, "moving_mean_initializer": {"class_name": "Zeros", "config": {}}, "beta_constraint": null, "epsilon": 0.001, "trainable": true, "name": "batch_normalization_32", "center": true, "axis": 3}}, {"class_name": "BatchNormalization", "name": "batch_normalization_37", "inbound_nodes": [[["conv2d_37", 0, 0, {}]]], "config": {"gamma_constraint": null, "beta_initializer": {"class_name": "Zeros", "config": {}}, "beta_regularizer": null, "scale": false, "momentum": 0.99, "gamma_regularizer": null, "gamma_initializer": {"class_name": "Ones", "config": {}}, "moving_variance_initializer": {"class_name": "Ones", "config": {}}, "moving_mean_initializer": {"class_name": "Zeros", "config": {}}, "beta_constraint": null, "epsilon": 0.001, "trainable": true, "name": "batch_normalization_37", "center": true, "axis": 3}}, {"class_name": "Activation", "name": "activation_32", "inbound_nodes": [[["batch_normalization_32", 0, 0, {}]]], "config": {"activation": "relu", "trainable": true, "name": "activation_32"}}, {"class_name": "Activation", "name": "activation_37", "inbound_nodes": [[["batch_normalization_37", 0, 0, {}]]], "config": {"activation": "relu", "trainable": true, "name": "activation_37"}}, {"class_name": "Conv2D", "name": "conv2d_33", "inbound_nodes": [[["activation_32", 0, 0, {}]]], "config": {"kernel_initializer": {"class_name": "VarianceScaling", "config": {"distribution": "uniform", "scale": 1.0, "mode": "fan_avg", "seed": null}}, "kernel_regularizer": null, "bias_regularizer": null, "filters": 128, "use_bias": false, "bias_initializer": {"class_name": "Zeros", "config": {}}, "padding": "same", "kernel_constraint": null, "bias_constraint": null, "name": "conv2d_33", "data_format": "channels_last", "strides": [1, 1], "activation": "linear", "trainable": true, "dilation_rate": [1, 1], "kernel_size": [1, 7], "activity_regularizer": null}}, {"class_name": "Conv2D", "name": "conv2d_38", "inbound_nodes": [[["activation_37", 0, 0, {}]]], "config": {"kernel_initializer": {"class_name": "VarianceScaling", "config": {"distribution": "uniform", "scale": 1.0, "mode": "fan_avg", "seed": null}}, "kernel_regularizer": null, "bias_regularizer": null, "filters": 128, "use_bias": false, "bias_initializer": {"class_name": "Zeros", "config": {}}, "padding": "same", "kernel_constraint": null, "bias_constraint": null, "name": "conv2d_38", "data_format": "channels_last", "strides": [1, 1], "activation": "linear", "trainable": true, "dilation_rate": [1, 1], "kernel_size": [7, 1], "activity_regularizer": null}}, {"class_name": "BatchNormalization", "name": "batch_normalization_33", "inbound_nodes": [[["conv2d_33", 0, 0, {}]]], "config": {"gamma_constraint": null, "beta_initializer": {"class_name": "Zeros", "config": {}}, "beta_regularizer": null, "scale": false, "momentum": 0.99, "gamma_regularizer": null, "gamma_initializer": {"class_name": "Ones", "config": {}}, "moving_variance_initializer": {"class_name": "Ones", "config": {}}, "moving_mean_initializer": {"class_name": "Zeros", "config": {}}, "beta_constraint": null, "epsilon": 0.001, "trainable": true, "name": "batch_normalization_33", "center": true, "axis": 3}}, {"class_name": "BatchNormalization", "name": "batch_normalization_38", "inbound_nodes": [[["conv2d_38", 0, 0, {}]]], "config": {"gamma_constraint": null, "beta_initializer": {"class_name": "Zeros", "config": {}}, "beta_regularizer": null, "scale": false, "momentum": 0.99, "gamma_regularizer": null, "gamma_initializer": {"class_name": "Ones", "config": {}}, "moving_variance_initializer": {"class_name": "Ones", "config": {}}, "moving_mean_initializer": {"class_name": "Zeros", "config": {}}, "beta_constraint": null, "epsilon": 0.001, "trainable": true, "name": "batch_normalization_38", "center": true, "axis": 3}}, {"class_name": "Activation", "name": "activation_33", "inbound_nodes": [[["batch_normalization_33", 0, 0, {}]]], "config": {"activation": "relu", "trainable": true, "name": "activation_33"}}, {"class_name": "Activation", "name": "activation_38", "inbound_nodes": [[["batch_normalization_38", 0, 0, {}]]], "config": {"activation": "relu", "trainable": true, "name": "activation_38"}}, {"class_name": "AveragePooling2D", "name": "average_pooling2d_4", "inbound_nodes": [[["mixed3", 0, 0, {}]]], "config": {"trainable": true, "strides": [1, 1], "pool_size": [3, 3], "padding": "same", "data_format": "channels_last", "name": "average_pooling2d_4"}}, {"class_name": "Conv2D", "name": "conv2d_31", "inbound_nodes": [[["mixed3", 0, 0, {}]]], "config": {"kernel_initializer": {"class_name": "VarianceScaling", "config": {"distribution": "uniform", "scale": 1.0, "mode": "fan_avg", "seed": null}}, "kernel_regularizer": null, "bias_regularizer": null, "filters": 192, "use_bias": false, "bias_initializer": {"class_name": "Zeros", "config": {}}, "padding": "same", "kernel_constraint": null, "bias_constraint": null, "name": "conv2d_31", "data_format": "channels_last", "strides": [1, 1], "activation": "linear", "trainable": true, "dilation_rate": [1, 1], "kernel_size": [1, 1], "activity_regularizer": null}}, {"class_name": "Conv2D", "name": "conv2d_34", "inbound_nodes": [[["activation_33", 0, 0, {}]]], "config": {"kernel_initializer": {"class_name": "VarianceScaling", "config": {"distribution": "uniform", "scale": 1.0, "mode": "fan_avg", "seed": null}}, "kernel_regularizer": null, "bias_regularizer": null, "filters": 192, "use_bias": false, "bias_initializer": {"class_name": "Zeros", "config": {}}, "padding": "same", "kernel_constraint": null, "bias_constraint": null, "name": "conv2d_34", "data_format": "channels_last", "strides": [1, 1], "activation": "linear", "trainable": true, "dilation_rate": [1, 1], "kernel_size": [7, 1], "activity_regularizer": null}}, {"class_name": "Conv2D", "name": "conv2d_39", "inbound_nodes": [[["activation_38", 0, 0, {}]]], "config": {"kernel_initializer": {"class_name": "VarianceScaling", "config": {"distribution": "uniform", "scale": 1.0, "mode": "fan_avg", "seed": null}}, "kernel_regularizer": null, "bias_regularizer": null, "filters": 192, "use_bias": false, "bias_initializer": {"class_name": "Zeros", "config": {}}, "padding": "same", "kernel_constraint": null, "bias_constraint": null, "name": "conv2d_39", "data_format": "channels_last", "strides": [1, 1], "activation": "linear", "trainable": true, "dilation_rate": [1, 1], "kernel_size": [1, 7], "activity_regularizer": null}}, {"class_name": "Conv2D", "name": "conv2d_40", "inbound_nodes": [[["average_pooling2d_4", 0, 0, {}]]], "config": {"kernel_initializer": {"class_name": "VarianceScaling", "config": {"distribution": "uniform", "scale": 1.0, "mode": "fan_avg", "seed": null}}, "kernel_regularizer": null, "bias_regularizer": null, "filters": 192, "use_bias": false, "bias_initializer": {"class_name": "Zeros", "config": {}}, "padding": "same", "kernel_constraint": null, "bias_constraint": null, "name": "conv2d_40", "data_format": "channels_last", "strides": [1, 1], "activation": "linear", "trainable": true, "dilation_rate": [1, 1], "kernel_size": [1, 1], "activity_regularizer": null}}, {"class_name": "BatchNormalization", "name": "batch_normalization_31", "inbound_nodes": [[["conv2d_31", 0, 0, {}]]], "config": {"gamma_constraint": null, "beta_initializer": {"class_name": "Zeros", "config": {}}, "beta_regularizer": null, "scale": false, "momentum": 0.99, "gamma_regularizer": null, "gamma_initializer": {"class_name": "Ones", "config": {}}, "moving_variance_initializer": {"class_name": "Ones", "config": {}}, "moving_mean_initializer": {"class_name": "Zeros", "config": {}}, "beta_constraint": null, "epsilon": 0.001, "trainable": true, "name": "batch_normalization_31", "center": true, "axis": 3}}, {"class_name": "BatchNormalization", "name": "batch_normalization_34", "inbound_nodes": [[["conv2d_34", 0, 0, {}]]], "config": {"gamma_constraint": null, "beta_initializer": {"class_name": "Zeros", "config": {}}, "beta_regularizer": null, "scale": false, "momentum": 0.99, "gamma_regularizer": null, "gamma_initializer": {"class_name": "Ones", "config": {}}, "moving_variance_initializer": {"class_name": "Ones", "config": {}}, "moving_mean_initializer": {"class_name": "Zeros", "config": {}}, "beta_constraint": null, "epsilon": 0.001, "trainable": true, "name": "batch_normalization_34", "center": true, "axis": 3}}, {"class_name": "BatchNormalization", "name": "batch_normalization_39", "inbound_nodes": [[["conv2d_39", 0, 0, {}]]], "config": {"gamma_constraint": null, "beta_initializer": {"class_name": "Zeros", "config": {}}, "beta_regularizer": null, "scale": false, "momentum": 0.99, "gamma_regularizer": null, "gamma_initializer": {"class_name": "Ones", "config": {}}, "moving_variance_initializer": {"class_name": "Ones", "config": {}}, "moving_mean_initializer": {"class_name": "Zeros", "config": {}}, "beta_constraint": null, "epsilon": 0.001, "trainable": true, "name": "batch_normalization_39", "center": true, "axis": 3}}, {"class_name": "BatchNormalization", "name": "batch_normalization_40", "inbound_nodes": [[["conv2d_40", 0, 0, {}]]], "config": {"gamma_constraint": null, "beta_initializer": {"class_name": "Zeros", "config": {}}, "beta_regularizer": null, "scale": false, "momentum": 0.99, "gamma_regularizer": null, "gamma_initializer": {"class_name": "Ones", "config": {}}, "moving_variance_initializer": {"class_name": "Ones", "config": {}}, "moving_mean_initializer": {"class_name": "Zeros", "config": {}}, "beta_constraint": null, "epsilon": 0.001, "trainable": true, "name": "batch_normalization_40", "center": true, "axis": 3}}, {"class_name": "Activation", "name": "activation_31", "inbound_nodes": [[["batch_normalization_31", 0, 0, {}]]], "config": {"activation": "relu", "trainable": true, "name": "activation_31"}}, {"class_name": "Activation", "name": "activation_34", "inbound_nodes": [[["batch_normalization_34", 0, 0, {}]]], "config": {"activation": "relu", "trainable": true, "name": "activation_34"}}, {"class_name": "Activation", "name": "activation_39", "inbound_nodes": [[["batch_normalization_39", 0, 0, {}]]], "config": {"activation": "relu", "trainable": true, "name": "activation_39"}}, {"class_name": "Activation", "name": "activation_40", "inbound_nodes": [[["batch_normalization_40", 0, 0, {}]]], "config": {"activation": "relu", "trainable": true, "name": "activation_40"}}, {"class_name": "Concatenate", "name": "mixed4", "inbound_nodes": [[["activation_31", 0, 0, {}], ["activation_34", 0, 0, {}], ["activation_39", 0, 0, {}], ["activation_40", 0, 0, {}]]], "config": {"name": "mixed4", "trainable": true, "axis": 3}}, {"class_name": "Conv2D", "name": "conv2d_45", "inbound_nodes": [[["mixed4", 0, 0, {}]]], "config": {"kernel_initializer": {"class_name": "VarianceScaling", "config": {"distribution": "uniform", "scale": 1.0, "mode": "fan_avg", "seed": null}}, "kernel_regularizer": null, "bias_regularizer": null, "filters": 160, "use_bias": false, "bias_initializer": {"class_name": "Zeros", "config": {}}, "padding": "same", "kernel_constraint": null, "bias_constraint": null, "name": "conv2d_45", "data_format": "channels_last", "strides": [1, 1], "activation": "linear", "trainable": true, "dilation_rate": [1, 1], "kernel_size": [1, 1], "activity_regularizer": null}}, {"class_name": "BatchNormalization", "name": "batch_normalization_45", "inbound_nodes": [[["conv2d_45", 0, 0, {}]]], "config": {"gamma_constraint": null, "beta_initializer": {"class_name": "Zeros", "config": {}}, "beta_regularizer": null, "scale": false, "momentum": 0.99, "gamma_regularizer": null, "gamma_initializer": {"class_name": "Ones", "config": {}}, "moving_variance_initializer": {"class_name": "Ones", "config": {}}, "moving_mean_initializer": {"class_name": "Zeros", "config": {}}, "beta_constraint": null, "epsilon": 0.001, "trainable": true, "name": "batch_normalization_45", "center": true, "axis": 3}}, {"class_name": "Activation", "name": "activation_45", "inbound_nodes": [[["batch_normalization_45", 0, 0, {}]]], "config": {"activation": "relu", "trainable": true, "name": "activation_45"}}, {"class_name": "Conv2D", "name": "conv2d_46", "inbound_nodes": [[["activation_45", 0, 0, {}]]], "config": {"kernel_initializer": {"class_name": "VarianceScaling", "config": {"distribution": "uniform", "scale": 1.0, "mode": "fan_avg", "seed": null}}, "kernel_regularizer": null, "bias_regularizer": null, "filters": 160, "use_bias": false, "bias_initializer": {"class_name": "Zeros", "config": {}}, "padding": "same", "kernel_constraint": null, "bias_constraint": null, "name": "conv2d_46", "data_format": "channels_last", "strides": [1, 1], "activation": "linear", "trainable": true, "dilation_rate": [1, 1], "kernel_size": [7, 1], "activity_regularizer": null}}, {"class_name": "BatchNormalization", "name": "batch_normalization_46", "inbound_nodes": [[["conv2d_46", 0, 0, {}]]], "config": {"gamma_constraint": null, "beta_initializer": {"class_name": "Zeros", "config": {}}, "beta_regularizer": null, "scale": false, "momentum": 0.99, "gamma_regularizer": null, "gamma_initializer": {"class_name": "Ones", "config": {}}, "moving_variance_initializer": {"class_name": "Ones", "config": {}}, "moving_mean_initializer": {"class_name": "Zeros", "config": {}}, "beta_constraint": null, "epsilon": 0.001, "trainable": true, "name": "batch_normalization_46", "center": true, "axis": 3}}, {"class_name": "Activation", "name": "activation_46", "inbound_nodes": [[["batch_normalization_46", 0, 0, {}]]], "config": {"activation": "relu", "trainable": true, "name": "activation_46"}}, {"class_name": "Conv2D", "name": "conv2d_42", "inbound_nodes": [[["mixed4", 0, 0, {}]]], "config": {"kernel_initializer": {"class_name": "VarianceScaling", "config": {"distribution": "uniform", "scale": 1.0, "mode": "fan_avg", "seed": null}}, "kernel_regularizer": null, "bias_regularizer": null, "filters": 160, "use_bias": false, "bias_initializer": {"class_name": "Zeros", "config": {}}, "padding": "same", "kernel_constraint": null, "bias_constraint": null, "name": "conv2d_42", "data_format": "channels_last", "strides": [1, 1], "activation": "linear", "trainable": true, "dilation_rate": [1, 1], "kernel_size": [1, 1], "activity_regularizer": null}}, {"class_name": "Conv2D", "name": "conv2d_47", "inbound_nodes": [[["activation_46", 0, 0, {}]]], "config": {"kernel_initializer": {"class_name": "VarianceScaling", "config": {"distribution": "uniform", "scale": 1.0, "mode": "fan_avg", "seed": null}}, "kernel_regularizer": null, "bias_regularizer": null, "filters": 160, "use_bias": false, "bias_initializer": {"class_name": "Zeros", "config": {}}, "padding": "same", "kernel_constraint": null, "bias_constraint": null, "name": "conv2d_47", "data_format": "channels_last", "strides": [1, 1], "activation": "linear", "trainable": true, "dilation_rate": [1, 1], "kernel_size": [1, 7], "activity_regularizer": null}}, {"class_name": "BatchNormalization", "name": "batch_normalization_42", "inbound_nodes": [[["conv2d_42", 0, 0, {}]]], "config": {"gamma_constraint": null, "beta_initializer": {"class_name": "Zeros", "config": {}}, "beta_regularizer": null, "scale": false, "momentum": 0.99, "gamma_regularizer": null, "gamma_initializer": {"class_name": "Ones", "config": {}}, "moving_variance_initializer": {"class_name": "Ones", "config": {}}, "moving_mean_initializer": {"class_name": "Zeros", "config": {}}, "beta_constraint": null, "epsilon": 0.001, "trainable": true, "name": "batch_normalization_42", "center": true, "axis": 3}}, {"class_name": "BatchNormalization", "name": "batch_normalization_47", "inbound_nodes": [[["conv2d_47", 0, 0, {}]]], "config": {"gamma_constraint": null, "beta_initializer": {"class_name": "Zeros", "config": {}}, "beta_regularizer": null, "scale": false, "momentum": 0.99, "gamma_regularizer": null, "gamma_initializer": {"class_name": "Ones", "config": {}}, "moving_variance_initializer": {"class_name": "Ones", "config": {}}, "moving_mean_initializer": {"class_name": "Zeros", "config": {}}, "beta_constraint": null, "epsilon": 0.001, "trainable": true, "name": "batch_normalization_47", "center": true, "axis": 3}}, {"class_name": "Activation", "name": "activation_42", "inbound_nodes": [[["batch_normalization_42", 0, 0, {}]]], "config": {"activation": "relu", "trainable": true, "name": "activation_42"}}, {"class_name": "Activation", "name": "activation_47", "inbound_nodes": [[["batch_normalization_47", 0, 0, {}]]], "config": {"activation": "relu", "trainable": true, "name": "activation_47"}}, {"class_name": "Conv2D", "name": "conv2d_43", "inbound_nodes": [[["activation_42", 0, 0, {}]]], "config": {"kernel_initializer": {"class_name": "VarianceScaling", "config": {"distribution": "uniform", "scale": 1.0, "mode": "fan_avg", "seed": null}}, "kernel_regularizer": null, "bias_regularizer": null, "filters": 160, "use_bias": false, "bias_initializer": {"class_name": "Zeros", "config": {}}, "padding": "same", "kernel_constraint": null, "bias_constraint": null, "name": "conv2d_43", "data_format": "channels_last", "strides": [1, 1], "activation": "linear", "trainable": true, "dilation_rate": [1, 1], "kernel_size": [1, 7], "activity_regularizer": null}}, {"class_name": "Conv2D", "name": "conv2d_48", "inbound_nodes": [[["activation_47", 0, 0, {}]]], "config": {"kernel_initializer": {"class_name": "VarianceScaling", "config": {"distribution": "uniform", "scale": 1.0, "mode": "fan_avg", "seed": null}}, "kernel_regularizer": null, "bias_regularizer": null, "filters": 160, "use_bias": false, "bias_initializer": {"class_name": "Zeros", "config": {}}, "padding": "same", "kernel_constraint": null, "bias_constraint": null, "name": "conv2d_48", "data_format": "channels_last", "strides": [1, 1], "activation": "linear", "trainable": true, "dilation_rate": [1, 1], "kernel_size": [7, 1], "activity_regularizer": null}}, {"class_name": "BatchNormalization", "name": "batch_normalization_43", "inbound_nodes": [[["conv2d_43", 0, 0, {}]]], "config": {"gamma_constraint": null, "beta_initializer": {"class_name": "Zeros", "config": {}}, "beta_regularizer": null, "scale": false, "momentum": 0.99, "gamma_regularizer": null, "gamma_initializer": {"class_name": "Ones", "config": {}}, "moving_variance_initializer": {"class_name": "Ones", "config": {}}, "moving_mean_initializer": {"class_name": "Zeros", "config": {}}, "beta_constraint": null, "epsilon": 0.001, "trainable": true, "name": "batch_normalization_43", "center": true, "axis": 3}}, {"class_name": "BatchNormalization", "name": "batch_normalization_48", "inbound_nodes": [[["conv2d_48", 0, 0, {}]]], "config": {"gamma_constraint": null, "beta_initializer": {"class_name": "Zeros", "config": {}}, "beta_regularizer": null, "scale": false, "momentum": 0.99, "gamma_regularizer": null, "gamma_initializer": {"class_name": "Ones", "config": {}}, "moving_variance_initializer": {"class_name": "Ones", "config": {}}, "moving_mean_initializer": {"class_name": "Zeros", "config": {}}, "beta_constraint": null, "epsilon": 0.001, "trainable": true, "name": "batch_normalization_48", "center": true, "axis": 3}}, {"class_name": "Activation", "name": "activation_43", "inbound_nodes": [[["batch_normalization_43", 0, 0, {}]]], "config": {"activation": "relu", "trainable": true, "name": "activation_43"}}, {"class_name": "Activation", "name": "activation_48", "inbound_nodes": [[["batch_normalization_48", 0, 0, {}]]], "config": {"activation": "relu", "trainable": true, "name": "activation_48"}}, {"class_name": "AveragePooling2D", "name": "average_pooling2d_5", "inbound_nodes": [[["mixed4", 0, 0, {}]]], "config": {"trainable": true, "strides": [1, 1], "pool_size": [3, 3], "padding": "same", "data_format": "channels_last", "name": "average_pooling2d_5"}}, {"class_name": "Conv2D", "name": "conv2d_41", "inbound_nodes": [[["mixed4", 0, 0, {}]]], "config": {"kernel_initializer": {"class_name": "VarianceScaling", "config": {"distribution": "uniform", "scale": 1.0, "mode": "fan_avg", "seed": null}}, "kernel_regularizer": null, "bias_regularizer": null, "filters": 192, "use_bias": false, "bias_initializer": {"class_name": "Zeros", "config": {}}, "padding": "same", "kernel_constraint": null, "bias_constraint": null, "name": "conv2d_41", "data_format": "channels_last", "strides": [1, 1], "activation": "linear", "trainable": true, "dilation_rate": [1, 1], "kernel_size": [1, 1], "activity_regularizer": null}}, {"class_name": "Conv2D", "name": "conv2d_44", "inbound_nodes": [[["activation_43", 0, 0, {}]]], "config": {"kernel_initializer": {"class_name": "VarianceScaling", "config": {"distribution": "uniform", "scale": 1.0, "mode": "fan_avg", "seed": null}}, "kernel_regularizer": null, "bias_regularizer": null, "filters": 192, "use_bias": false, "bias_initializer": {"class_name": "Zeros", "config": {}}, "padding": "same", "kernel_constraint": null, "bias_constraint": null, "name": "conv2d_44", "data_format": "channels_last", "strides": [1, 1], "activation": "linear", "trainable": true, "dilation_rate": [1, 1], "kernel_size": [7, 1], "activity_regularizer": null}}, {"class_name": "Conv2D", "name": "conv2d_49", "inbound_nodes": [[["activation_48", 0, 0, {}]]], "config": {"kernel_initializer": {"class_name": "VarianceScaling", "config": {"distribution": "uniform", "scale": 1.0, "mode": "fan_avg", "seed": null}}, "kernel_regularizer": null, "bias_regularizer": null, "filters": 192, "use_bias": false, "bias_initializer": {"class_name": "Zeros", "config": {}}, "padding": "same", "kernel_constraint": null, "bias_constraint": null, "name": "conv2d_49", "data_format": "channels_last", "strides": [1, 1], "activation": "linear", "trainable": true, "dilation_rate": [1, 1], "kernel_size": [1, 7], "activity_regularizer": null}}, {"class_name": "Conv2D", "name": "conv2d_50", "inbound_nodes": [[["average_pooling2d_5", 0, 0, {}]]], "config": {"kernel_initializer": {"class_name": "VarianceScaling", "config": {"distribution": "uniform", "scale": 1.0, "mode": "fan_avg", "seed": null}}, "kernel_regularizer": null, "bias_regularizer": null, "filters": 192, "use_bias": false, "bias_initializer": {"class_name": "Zeros", "config": {}}, "padding": "same", "kernel_constraint": null, "bias_constraint": null, "name": "conv2d_50", "data_format": "channels_last", "strides": [1, 1], "activation": "linear", "trainable": true, "dilation_rate": [1, 1], "kernel_size": [1, 1], "activity_regularizer": null}}, {"class_name": "BatchNormalization", "name": "batch_normalization_41", "inbound_nodes": [[["conv2d_41", 0, 0, {}]]], "config": {"gamma_constraint": null, "beta_initializer": {"class_name": "Zeros", "config": {}}, "beta_regularizer": null, "scale": false, "momentum": 0.99, "gamma_regularizer": null, "gamma_initializer": {"class_name": "Ones", "config": {}}, "moving_variance_initializer": {"class_name": "Ones", "config": {}}, "moving_mean_initializer": {"class_name": "Zeros", "config": {}}, "beta_constraint": null, "epsilon": 0.001, "trainable": true, "name": "batch_normalization_41", "center": true, "axis": 3}}, {"class_name": "BatchNormalization", "name": "batch_normalization_44", "inbound_nodes": [[["conv2d_44", 0, 0, {}]]], "config": {"gamma_constraint": null, "beta_initializer": {"class_name": "Zeros", "config": {}}, "beta_regularizer": null, "scale": false, "momentum": 0.99, "gamma_regularizer": null, "gamma_initializer": {"class_name": "Ones", "config": {}}, "moving_variance_initializer": {"class_name": "Ones", "config": {}}, "moving_mean_initializer": {"class_name": "Zeros", "config": {}}, "beta_constraint": null, "epsilon": 0.001, "trainable": true, "name": "batch_normalization_44", "center": true, "axis": 3}}, {"class_name": "BatchNormalization", "name": "batch_normalization_49", "inbound_nodes": [[["conv2d_49", 0, 0, {}]]], "config": {"gamma_constraint": null, "beta_initializer": {"class_name": "Zeros", "config": {}}, "beta_regularizer": null, "scale": false, "momentum": 0.99, "gamma_regularizer": null, "gamma_initializer": {"class_name": "Ones", "config": {}}, "moving_variance_initializer": {"class_name": "Ones", "config": {}}, "moving_mean_initializer": {"class_name": "Zeros", "config": {}}, "beta_constraint": null, "epsilon": 0.001, "trainable": true, "name": "batch_normalization_49", "center": true, "axis": 3}}, {"class_name": "BatchNormalization", "name": "batch_normalization_50", "inbound_nodes": [[["conv2d_50", 0, 0, {}]]], "config": {"gamma_constraint": null, "beta_initializer": {"class_name": "Zeros", "config": {}}, "beta_regularizer": null, "scale": false, "momentum": 0.99, "gamma_regularizer": null, "gamma_initializer": {"class_name": "Ones", "config": {}}, "moving_variance_initializer": {"class_name": "Ones", "config": {}}, "moving_mean_initializer": {"class_name": "Zeros", "config": {}}, "beta_constraint": null, "epsilon": 0.001, "trainable": true, "name": "batch_normalization_50", "center": true, "axis": 3}}, {"class_name": "Activation", "name": "activation_41", "inbound_nodes": [[["batch_normalization_41", 0, 0, {}]]], "config": {"activation": "relu", "trainable": true, "name": "activation_41"}}, {"class_name": "Activation", "name": "activation_44", "inbound_nodes": [[["batch_normalization_44", 0, 0, {}]]], "config": {"activation": "relu", "trainable": true, "name": "activation_44"}}, {"class_name": "Activation", "name": "activation_49", "inbound_nodes": [[["batch_normalization_49", 0, 0, {}]]], "config": {"activation": "relu", "trainable": true, "name": "activation_49"}}, {"class_name": "Activation", "name": "activation_50", "inbound_nodes": [[["batch_normalization_50", 0, 0, {}]]], "config": {"activation": "relu", "trainable": true, "name": "activation_50"}}, {"class_name": "Concatenate", "name": "mixed5", "inbound_nodes": [[["activation_41", 0, 0, {}], ["activation_44", 0, 0, {}], ["activation_49", 0, 0, {}], ["activation_50", 0, 0, {}]]], "config": {"name": "mixed5", "trainable": true, "axis": 3}}, {"class_name": "Conv2D", "name": "conv2d_55", "inbound_nodes": [[["mixed5", 0, 0, {}]]], "config": {"kernel_initializer": {"class_name": "VarianceScaling", "config": {"distribution": "uniform", "scale": 1.0, "mode": "fan_avg", "seed": null}}, "kernel_regularizer": null, "bias_regularizer": null, "filters": 160, "use_bias": false, "bias_initializer": {"class_name": "Zeros", "config": {}}, "padding": "same", "kernel_constraint": null, "bias_constraint": null, "name": "conv2d_55", "data_format": "channels_last", "strides": [1, 1], "activation": "linear", "trainable": true, "dilation_rate": [1, 1], "kernel_size": [1, 1], "activity_regularizer": null}}, {"class_name": "BatchNormalization", "name": "batch_normalization_55", "inbound_nodes": [[["conv2d_55", 0, 0, {}]]], "config": {"gamma_constraint": null, "beta_initializer": {"class_name": "Zeros", "config": {}}, "beta_regularizer": null, "scale": false, "momentum": 0.99, "gamma_regularizer": null, "gamma_initializer": {"class_name": "Ones", "config": {}}, "moving_variance_initializer": {"class_name": "Ones", "config": {}}, "moving_mean_initializer": {"class_name": "Zeros", "config": {}}, "beta_constraint": null, "epsilon": 0.001, "trainable": true, "name": "batch_normalization_55", "center": true, "axis": 3}}, {"class_name": "Activation", "name": "activation_55", "inbound_nodes": [[["batch_normalization_55", 0, 0, {}]]], "config": {"activation": "relu", "trainable": true, "name": "activation_55"}}, {"class_name": "Conv2D", "name": "conv2d_56", "inbound_nodes": [[["activation_55", 0, 0, {}]]], "config": {"kernel_initializer": {"class_name": "VarianceScaling", "config": {"distribution": "uniform", "scale": 1.0, "mode": "fan_avg", "seed": null}}, "kernel_regularizer": null, "bias_regularizer": null, "filters": 160, "use_bias": false, "bias_initializer": {"class_name": "Zeros", "config": {}}, "padding": "same", "kernel_constraint": null, "bias_constraint": null, "name": "conv2d_56", "data_format": "channels_last", "strides": [1, 1], "activation": "linear", "trainable": true, "dilation_rate": [1, 1], "kernel_size": [7, 1], "activity_regularizer": null}}, {"class_name": "BatchNormalization", "name": "batch_normalization_56", "inbound_nodes": [[["conv2d_56", 0, 0, {}]]], "config": {"gamma_constraint": null, "beta_initializer": {"class_name": "Zeros", "config": {}}, "beta_regularizer": null, "scale": false, "momentum": 0.99, "gamma_regularizer": null, "gamma_initializer": {"class_name": "Ones", "config": {}}, "moving_variance_initializer": {"class_name": "Ones", "config": {}}, "moving_mean_initializer": {"class_name": "Zeros", "config": {}}, "beta_constraint": null, "epsilon": 0.001, "trainable": true, "name": "batch_normalization_56", "center": true, "axis": 3}}, {"class_name": "Activation", "name": "activation_56", "inbound_nodes": [[["batch_normalization_56", 0, 0, {}]]], "config": {"activation": "relu", "trainable": true, "name": "activation_56"}}, {"class_name": "Conv2D", "name": "conv2d_52", "inbound_nodes": [[["mixed5", 0, 0, {}]]], "config": {"kernel_initializer": {"class_name": "VarianceScaling", "config": {"distribution": "uniform", "scale": 1.0, "mode": "fan_avg", "seed": null}}, "kernel_regularizer": null, "bias_regularizer": null, "filters": 160, "use_bias": false, "bias_initializer": {"class_name": "Zeros", "config": {}}, "padding": "same", "kernel_constraint": null, "bias_constraint": null, "name": "conv2d_52", "data_format": "channels_last", "strides": [1, 1], "activation": "linear", "trainable": true, "dilation_rate": [1, 1], "kernel_size": [1, 1], "activity_regularizer": null}}, {"class_name": "Conv2D", "name": "conv2d_57", "inbound_nodes": [[["activation_56", 0, 0, {}]]], "config": {"kernel_initializer": {"class_name": "VarianceScaling", "config": {"distribution": "uniform", "scale": 1.0, "mode": "fan_avg", "seed": null}}, "kernel_regularizer": null, "bias_regularizer": null, "filters": 160, "use_bias": false, "bias_initializer": {"class_name": "Zeros", "config": {}}, "padding": "same", "kernel_constraint": null, "bias_constraint": null, "name": "conv2d_57", "data_format": "channels_last", "strides": [1, 1], "activation": "linear", "trainable": true, "dilation_rate": [1, 1], "kernel_size": [1, 7], "activity_regularizer": null}}, {"class_name": "BatchNormalization", "name": "batch_normalization_52", "inbound_nodes": [[["conv2d_52", 0, 0, {}]]], "config": {"gamma_constraint": null, "beta_initializer": {"class_name": "Zeros", "config": {}}, "beta_regularizer": null, "scale": false, "momentum": 0.99, "gamma_regularizer": null, "gamma_initializer": {"class_name": "Ones", "config": {}}, "moving_variance_initializer": {"class_name": "Ones", "config": {}}, "moving_mean_initializer": {"class_name": "Zeros", "config": {}}, "beta_constraint": null, "epsilon": 0.001, "trainable": true, "name": "batch_normalization_52", "center": true, "axis": 3}}, {"class_name": "BatchNormalization", "name": "batch_normalization_57", "inbound_nodes": [[["conv2d_57", 0, 0, {}]]], "config": {"gamma_constraint": null, "beta_initializer": {"class_name": "Zeros", "config": {}}, "beta_regularizer": null, "scale": false, "momentum": 0.99, "gamma_regularizer": null, "gamma_initializer": {"class_name": "Ones", "config": {}}, "moving_variance_initializer": {"class_name": "Ones", "config": {}}, "moving_mean_initializer": {"class_name": "Zeros", "config": {}}, "beta_constraint": null, "epsilon": 0.001, "trainable": true, "name": "batch_normalization_57", "center": true, "axis": 3}}, {"class_name": "Activation", "name": "activation_52", "inbound_nodes": [[["batch_normalization_52", 0, 0, {}]]], "config": {"activation": "relu", "trainable": true, "name": "activation_52"}}, {"class_name": "Activation", "name": "activation_57", "inbound_nodes": [[["batch_normalization_57", 0, 0, {}]]], "config": {"activation": "relu", "trainable": true, "name": "activation_57"}}, {"class_name": "Conv2D", "name": "conv2d_53", "inbound_nodes": [[["activation_52", 0, 0, {}]]], "config": {"kernel_initializer": {"class_name": "VarianceScaling", "config": {"distribution": "uniform", "scale": 1.0, "mode": "fan_avg", "seed": null}}, "kernel_regularizer": null, "bias_regularizer": null, "filters": 160, "use_bias": false, "bias_initializer": {"class_name": "Zeros", "config": {}}, "padding": "same", "kernel_constraint": null, "bias_constraint": null, "name": "conv2d_53", "data_format": "channels_last", "strides": [1, 1], "activation": "linear", "trainable": true, "dilation_rate": [1, 1], "kernel_size": [1, 7], "activity_regularizer": null}}, {"class_name": "Conv2D", "name": "conv2d_58", "inbound_nodes": [[["activation_57", 0, 0, {}]]], "config": {"kernel_initializer": {"class_name": "VarianceScaling", "config": {"distribution": "uniform", "scale": 1.0, "mode": "fan_avg", "seed": null}}, "kernel_regularizer": null, "bias_regularizer": null, "filters": 160, "use_bias": false, "bias_initializer": {"class_name": "Zeros", "config": {}}, "padding": "same", "kernel_constraint": null, "bias_constraint": null, "name": "conv2d_58", "data_format": "channels_last", "strides": [1, 1], "activation": "linear", "trainable": true, "dilation_rate": [1, 1], "kernel_size": [7, 1], "activity_regularizer": null}}, {"class_name": "BatchNormalization", "name": "batch_normalization_53", "inbound_nodes": [[["conv2d_53", 0, 0, {}]]], "config": {"gamma_constraint": null, "beta_initializer": {"class_name": "Zeros", "config": {}}, "beta_regularizer": null, "scale": false, "momentum": 0.99, "gamma_regularizer": null, "gamma_initializer": {"class_name": "Ones", "config": {}}, "moving_variance_initializer": {"class_name": "Ones", "config": {}}, "moving_mean_initializer": {"class_name": "Zeros", "config": {}}, "beta_constraint": null, "epsilon": 0.001, "trainable": true, "name": "batch_normalization_53", "center": true, "axis": 3}}, {"class_name": "BatchNormalization", "name": "batch_normalization_58", "inbound_nodes": [[["conv2d_58", 0, 0, {}]]], "config": {"gamma_constraint": null, "beta_initializer": {"class_name": "Zeros", "config": {}}, "beta_regularizer": null, "scale": false, "momentum": 0.99, "gamma_regularizer": null, "gamma_initializer": {"class_name": "Ones", "config": {}}, "moving_variance_initializer": {"class_name": "Ones", "config": {}}, "moving_mean_initializer": {"class_name": "Zeros", "config": {}}, "beta_constraint": null, "epsilon": 0.001, "trainable": true, "name": "batch_normalization_58", "center": true, "axis": 3}}, {"class_name": "Activation", "name": "activation_53", "inbound_nodes": [[["batch_normalization_53", 0, 0, {}]]], "config": {"activation": "relu", "trainable": true, "name": "activation_53"}}, {"class_name": "Activation", "name": "activation_58", "inbound_nodes": [[["batch_normalization_58", 0, 0, {}]]], "config": {"activation": "relu", "trainable": true, "name": "activation_58"}}, {"class_name": "AveragePooling2D", "name": "average_pooling2d_6", "inbound_nodes": [[["mixed5", 0, 0, {}]]], "config": {"trainable": true, "strides": [1, 1], "pool_size": [3, 3], "padding": "same", "data_format": "channels_last", "name": "average_pooling2d_6"}}, {"class_name": "Conv2D", "name": "conv2d_51", "inbound_nodes": [[["mixed5", 0, 0, {}]]], "config": {"kernel_initializer": {"class_name": "VarianceScaling", "config": {"distribution": "uniform", "scale": 1.0, "mode": "fan_avg", "seed": null}}, "kernel_regularizer": null, "bias_regularizer": null, "filters": 192, "use_bias": false, "bias_initializer": {"class_name": "Zeros", "config": {}}, "padding": "same", "kernel_constraint": null, "bias_constraint": null, "name": "conv2d_51", "data_format": "channels_last", "strides": [1, 1], "activation": "linear", "trainable": true, "dilation_rate": [1, 1], "kernel_size": [1, 1], "activity_regularizer": null}}, {"class_name": "Conv2D", "name": "conv2d_54", "inbound_nodes": [[["activation_53", 0, 0, {}]]], "config": {"kernel_initializer": {"class_name": "VarianceScaling", "config": {"distribution": "uniform", "scale": 1.0, "mode": "fan_avg", "seed": null}}, "kernel_regularizer": null, "bias_regularizer": null, "filters": 192, "use_bias": false, "bias_initializer": {"class_name": "Zeros", "config": {}}, "padding": "same", "kernel_constraint": null, "bias_constraint": null, "name": "conv2d_54", "data_format": "channels_last", "strides": [1, 1], "activation": "linear", "trainable": true, "dilation_rate": [1, 1], "kernel_size": [7, 1], "activity_regularizer": null}}, {"class_name": "Conv2D", "name": "conv2d_59", "inbound_nodes": [[["activation_58", 0, 0, {}]]], "config": {"kernel_initializer": {"class_name": "VarianceScaling", "config": {"distribution": "uniform", "scale": 1.0, "mode": "fan_avg", "seed": null}}, "kernel_regularizer": null, "bias_regularizer": null, "filters": 192, "use_bias": false, "bias_initializer": {"class_name": "Zeros", "config": {}}, "padding": "same", "kernel_constraint": null, "bias_constraint": null, "name": "conv2d_59", "data_format": "channels_last", "strides": [1, 1], "activation": "linear", "trainable": true, "dilation_rate": [1, 1], "kernel_size": [1, 7], "activity_regularizer": null}}, {"class_name": "Conv2D", "name": "conv2d_60", "inbound_nodes": [[["average_pooling2d_6", 0, 0, {}]]], "config": {"kernel_initializer": {"class_name": "VarianceScaling", "config": {"distribution": "uniform", "scale": 1.0, "mode": "fan_avg", "seed": null}}, "kernel_regularizer": null, "bias_regularizer": null, "filters": 192, "use_bias": false, "bias_initializer": {"class_name": "Zeros", "config": {}}, "padding": "same", "kernel_constraint": null, "bias_constraint": null, "name": "conv2d_60", "data_format": "channels_last", "strides": [1, 1], "activation": "linear", "trainable": true, "dilation_rate": [1, 1], "kernel_size": [1, 1], "activity_regularizer": null}}, {"class_name": "BatchNormalization", "name": "batch_normalization_51", "inbound_nodes": [[["conv2d_51", 0, 0, {}]]], "config": {"gamma_constraint": null, "beta_initializer": {"class_name": "Zeros", "config": {}}, "beta_regularizer": null, "scale": false, "momentum": 0.99, "gamma_regularizer": null, "gamma_initializer": {"class_name": "Ones", "config": {}}, "moving_variance_initializer": {"class_name": "Ones", "config": {}}, "moving_mean_initializer": {"class_name": "Zeros", "config": {}}, "beta_constraint": null, "epsilon": 0.001, "trainable": true, "name": "batch_normalization_51", "center": true, "axis": 3}}, {"class_name": "BatchNormalization", "name": "batch_normalization_54", "inbound_nodes": [[["conv2d_54", 0, 0, {}]]], "config": {"gamma_constraint": null, "beta_initializer": {"class_name": "Zeros", "config": {}}, "beta_regularizer": null, "scale": false, "momentum": 0.99, "gamma_regularizer": null, "gamma_initializer": {"class_name": "Ones", "config": {}}, "moving_variance_initializer": {"class_name": "Ones", "config": {}}, "moving_mean_initializer": {"class_name": "Zeros", "config": {}}, "beta_constraint": null, "epsilon": 0.001, "trainable": true, "name": "batch_normalization_54", "center": true, "axis": 3}}, {"class_name": "BatchNormalization", "name": "batch_normalization_59", "inbound_nodes": [[["conv2d_59", 0, 0, {}]]], "config": {"gamma_constraint": null, "beta_initializer": {"class_name": "Zeros", "config": {}}, "beta_regularizer": null, "scale": false, "momentum": 0.99, "gamma_regularizer": null, "gamma_initializer": {"class_name": "Ones", "config": {}}, "moving_variance_initializer": {"class_name": "Ones", "config": {}}, "moving_mean_initializer": {"class_name": "Zeros", "config": {}}, "beta_constraint": null, "epsilon": 0.001, "trainable": true, "name": "batch_normalization_59", "center": true, "axis": 3}}, {"class_name": "BatchNormalization", "name": "batch_normalization_60", "inbound_nodes": [[["conv2d_60", 0, 0, {}]]], "config": {"gamma_constraint": null, "beta_initializer": {"class_name": "Zeros", "config": {}}, "beta_regularizer": null, "scale": false, "momentum": 0.99, "gamma_regularizer": null, "gamma_initializer": {"class_name": "Ones", "config": {}}, "moving_variance_initializer": {"class_name": "Ones", "config": {}}, "moving_mean_initializer": {"class_name": "Zeros", "config": {}}, "beta_constraint": null, "epsilon": 0.001, "trainable": true, "name": "batch_normalization_60", "center": true, "axis": 3}}, {"class_name": "Activation", "name": "activation_51", "inbound_nodes": [[["batch_normalization_51", 0, 0, {}]]], "config": {"activation": "relu", "trainable": true, "name": "activation_51"}}, {"class_name": "Activation", "name": "activation_54", "inbound_nodes": [[["batch_normalization_54", 0, 0, {}]]], "config": {"activation": "relu", "trainable": true, "name": "activation_54"}}, {"class_name": "Activation", "name": "activation_59", "inbound_nodes": [[["batch_normalization_59", 0, 0, {}]]], "config": {"activation": "relu", "trainable": true, "name": "activation_59"}}, {"class_name": "Activation", "name": "activation_60", "inbound_nodes": [[["batch_normalization_60", 0, 0, {}]]], "config": {"activation": "relu", "trainable": true, "name": "activation_60"}}, {"class_name": "Concatenate", "name": "mixed6", "inbound_nodes": [[["activation_51", 0, 0, {}], ["activation_54", 0, 0, {}], ["activation_59", 0, 0, {}], ["activation_60", 0, 0, {}]]], "config": {"name": "mixed6", "trainable": true, "axis": 3}}, {"class_name": "Conv2D", "name": "conv2d_65", "inbound_nodes": [[["mixed6", 0, 0, {}]]], "config": {"kernel_initializer": {"class_name": "VarianceScaling", "config": {"distribution": "uniform", "scale": 1.0, "mode": "fan_avg", "seed": null}}, "kernel_regularizer": null, "bias_regularizer": null, "filters": 192, "use_bias": false, "bias_initializer": {"class_name": "Zeros", "config": {}}, "padding": "same", "kernel_constraint": null, "bias_constraint": null, "name": "conv2d_65", "data_format": "channels_last", "strides": [1, 1], "activation": "linear", "trainable": true, "dilation_rate": [1, 1], "kernel_size": [1, 1], "activity_regularizer": null}}, {"class_name": "BatchNormalization", "name": "batch_normalization_65", "inbound_nodes": [[["conv2d_65", 0, 0, {}]]], "config": {"gamma_constraint": null, "beta_initializer": {"class_name": "Zeros", "config": {}}, "beta_regularizer": null, "scale": false, "momentum": 0.99, "gamma_regularizer": null, "gamma_initializer": {"class_name": "Ones", "config": {}}, "moving_variance_initializer": {"class_name": "Ones", "config": {}}, "moving_mean_initializer": {"class_name": "Zeros", "config": {}}, "beta_constraint": null, "epsilon": 0.001, "trainable": true, "name": "batch_normalization_65", "center": true, "axis": 3}}, {"class_name": "Activation", "name": "activation_65", "inbound_nodes": [[["batch_normalization_65", 0, 0, {}]]], "config": {"activation": "relu", "trainable": true, "name": "activation_65"}}, {"class_name": "Conv2D", "name": "conv2d_66", "inbound_nodes": [[["activation_65", 0, 0, {}]]], "config": {"kernel_initializer": {"class_name": "VarianceScaling", "config": {"distribution": "uniform", "scale": 1.0, "mode": "fan_avg", "seed": null}}, "kernel_regularizer": null, "bias_regularizer": null, "filters": 192, "use_bias": false, "bias_initializer": {"class_name": "Zeros", "config": {}}, "padding": "same", "kernel_constraint": null, "bias_constraint": null, "name": "conv2d_66", "data_format": "channels_last", "strides": [1, 1], "activation": "linear", "trainable": true, "dilation_rate": [1, 1], "kernel_size": [7, 1], "activity_regularizer": null}}, {"class_name": "BatchNormalization", "name": "batch_normalization_66", "inbound_nodes": [[["conv2d_66", 0, 0, {}]]], "config": {"gamma_constraint": null, "beta_initializer": {"class_name": "Zeros", "config": {}}, "beta_regularizer": null, "scale": false, "momentum": 0.99, "gamma_regularizer": null, "gamma_initializer": {"class_name": "Ones", "config": {}}, "moving_variance_initializer": {"class_name": "Ones", "config": {}}, "moving_mean_initializer": {"class_name": "Zeros", "config": {}}, "beta_constraint": null, "epsilon": 0.001, "trainable": true, "name": "batch_normalization_66", "center": true, "axis": 3}}, {"class_name": "Activation", "name": "activation_66", "inbound_nodes": [[["batch_normalization_66", 0, 0, {}]]], "config": {"activation": "relu", "trainable": true, "name": "activation_66"}}, {"class_name": "Conv2D", "name": "conv2d_62", "inbound_nodes": [[["mixed6", 0, 0, {}]]], "config": {"kernel_initializer": {"class_name": "VarianceScaling", "config": {"distribution": "uniform", "scale": 1.0, "mode": "fan_avg", "seed": null}}, "kernel_regularizer": null, "bias_regularizer": null, "filters": 192, "use_bias": false, "bias_initializer": {"class_name": "Zeros", "config": {}}, "padding": "same", "kernel_constraint": null, "bias_constraint": null, "name": "conv2d_62", "data_format": "channels_last", "strides": [1, 1], "activation": "linear", "trainable": true, "dilation_rate": [1, 1], "kernel_size": [1, 1], "activity_regularizer": null}}, {"class_name": "Conv2D", "name": "conv2d_67", "inbound_nodes": [[["activation_66", 0, 0, {}]]], "config": {"kernel_initializer": {"class_name": "VarianceScaling", "config": {"distribution": "uniform", "scale": 1.0, "mode": "fan_avg", "seed": null}}, "kernel_regularizer": null, "bias_regularizer": null, "filters": 192, "use_bias": false, "bias_initializer": {"class_name": "Zeros", "config": {}}, "padding": "same", "kernel_constraint": null, "bias_constraint": null, "name": "conv2d_67", "data_format": "channels_last", "strides": [1, 1], "activation": "linear", "trainable": true, "dilation_rate": [1, 1], "kernel_size": [1, 7], "activity_regularizer": null}}, {"class_name": "BatchNormalization", "name": "batch_normalization_62", "inbound_nodes": [[["conv2d_62", 0, 0, {}]]], "config": {"gamma_constraint": null, "beta_initializer": {"class_name": "Zeros", "config": {}}, "beta_regularizer": null, "scale": false, "momentum": 0.99, "gamma_regularizer": null, "gamma_initializer": {"class_name": "Ones", "config": {}}, "moving_variance_initializer": {"class_name": "Ones", "config": {}}, "moving_mean_initializer": {"class_name": "Zeros", "config": {}}, "beta_constraint": null, "epsilon": 0.001, "trainable": true, "name": "batch_normalization_62", "center": true, "axis": 3}}, {"class_name": "BatchNormalization", "name": "batch_normalization_67", "inbound_nodes": [[["conv2d_67", 0, 0, {}]]], "config": {"gamma_constraint": null, "beta_initializer": {"class_name": "Zeros", "config": {}}, "beta_regularizer": null, "scale": false, "momentum": 0.99, "gamma_regularizer": null, "gamma_initializer": {"class_name": "Ones", "config": {}}, "moving_variance_initializer": {"class_name": "Ones", "config": {}}, "moving_mean_initializer": {"class_name": "Zeros", "config": {}}, "beta_constraint": null, "epsilon": 0.001, "trainable": true, "name": "batch_normalization_67", "center": true, "axis": 3}}, {"class_name": "Activation", "name": "activation_62", "inbound_nodes": [[["batch_normalization_62", 0, 0, {}]]], "config": {"activation": "relu", "trainable": true, "name": "activation_62"}}, {"class_name": "Activation", "name": "activation_67", "inbound_nodes": [[["batch_normalization_67", 0, 0, {}]]], "config": {"activation": "relu", "trainable": true, "name": "activation_67"}}, {"class_name": "Conv2D", "name": "conv2d_63", "inbound_nodes": [[["activation_62", 0, 0, {}]]], "config": {"kernel_initializer": {"class_name": "VarianceScaling", "config": {"distribution": "uniform", "scale": 1.0, "mode": "fan_avg", "seed": null}}, "kernel_regularizer": null, "bias_regularizer": null, "filters": 192, "use_bias": false, "bias_initializer": {"class_name": "Zeros", "config": {}}, "padding": "same", "kernel_constraint": null, "bias_constraint": null, "name": "conv2d_63", "data_format": "channels_last", "strides": [1, 1], "activation": "linear", "trainable": true, "dilation_rate": [1, 1], "kernel_size": [1, 7], "activity_regularizer": null}}, {"class_name": "Conv2D", "name": "conv2d_68", "inbound_nodes": [[["activation_67", 0, 0, {}]]], "config": {"kernel_initializer": {"class_name": "VarianceScaling", "config": {"distribution": "uniform", "scale": 1.0, "mode": "fan_avg", "seed": null}}, "kernel_regularizer": null, "bias_regularizer": null, "filters": 192, "use_bias": false, "bias_initializer": {"class_name": "Zeros", "config": {}}, "padding": "same", "kernel_constraint": null, "bias_constraint": null, "name": "conv2d_68", "data_format": "channels_last", "strides": [1, 1], "activation": "linear", "trainable": true, "dilation_rate": [1, 1], "kernel_size": [7, 1], "activity_regularizer": null}}, {"class_name": "BatchNormalization", "name": "batch_normalization_63", "inbound_nodes": [[["conv2d_63", 0, 0, {}]]], "config": {"gamma_constraint": null, "beta_initializer": {"class_name": "Zeros", "config": {}}, "beta_regularizer": null, "scale": false, "momentum": 0.99, "gamma_regularizer": null, "gamma_initializer": {"class_name": "Ones", "config": {}}, "moving_variance_initializer": {"class_name": "Ones", "config": {}}, "moving_mean_initializer": {"class_name": "Zeros", "config": {}}, "beta_constraint": null, "epsilon": 0.001, "trainable": true, "name": "batch_normalization_63", "center": true, "axis": 3}}, {"class_name": "BatchNormalization", "name": "batch_normalization_68", "inbound_nodes": [[["conv2d_68", 0, 0, {}]]], "config": {"gamma_constraint": null, "beta_initializer": {"class_name": "Zeros", "config": {}}, "beta_regularizer": null, "scale": false, "momentum": 0.99, "gamma_regularizer": null, "gamma_initializer": {"class_name": "Ones", "config": {}}, "moving_variance_initializer": {"class_name": "Ones", "config": {}}, "moving_mean_initializer": {"class_name": "Zeros", "config": {}}, "beta_constraint": null, "epsilon": 0.001, "trainable": true, "name": "batch_normalization_68", "center": true, "axis": 3}}, {"class_name": "Activation", "name": "activation_63", "inbound_nodes": [[["batch_normalization_63", 0, 0, {}]]], "config": {"activation": "relu", "trainable": true, "name": "activation_63"}}, {"class_name": "Activation", "name": "activation_68", "inbound_nodes": [[["batch_normalization_68", 0, 0, {}]]], "config": {"activation": "relu", "trainable": true, "name": "activation_68"}}, {"class_name": "AveragePooling2D", "name": "average_pooling2d_7", "inbound_nodes": [[["mixed6", 0, 0, {}]]], "config": {"trainable": true, "strides": [1, 1], "pool_size": [3, 3], "padding": "same", "data_format": "channels_last", "name": "average_pooling2d_7"}}, {"class_name": "Conv2D", "name": "conv2d_61", "inbound_nodes": [[["mixed6", 0, 0, {}]]], "config": {"kernel_initializer": {"class_name": "VarianceScaling", "config": {"distribution": "uniform", "scale": 1.0, "mode": "fan_avg", "seed": null}}, "kernel_regularizer": null, "bias_regularizer": null, "filters": 192, "use_bias": false, "bias_initializer": {"class_name": "Zeros", "config": {}}, "padding": "same", "kernel_constraint": null, "bias_constraint": null, "name": "conv2d_61", "data_format": "channels_last", "strides": [1, 1], "activation": "linear", "trainable": true, "dilation_rate": [1, 1], "kernel_size": [1, 1], "activity_regularizer": null}}, {"class_name": "Conv2D", "name": "conv2d_64", "inbound_nodes": [[["activation_63", 0, 0, {}]]], "config": {"kernel_initializer": {"class_name": "VarianceScaling", "config": {"distribution": "uniform", "scale": 1.0, "mode": "fan_avg", "seed": null}}, "kernel_regularizer": null, "bias_regularizer": null, "filters": 192, "use_bias": false, "bias_initializer": {"class_name": "Zeros", "config": {}}, "padding": "same", "kernel_constraint": null, "bias_constraint": null, "name": "conv2d_64", "data_format": "channels_last", "strides": [1, 1], "activation": "linear", "trainable": true, "dilation_rate": [1, 1], "kernel_size": [7, 1], "activity_regularizer": null}}, {"class_name": "Conv2D", "name": "conv2d_69", "inbound_nodes": [[["activation_68", 0, 0, {}]]], "config": {"kernel_initializer": {"class_name": "VarianceScaling", "config": {"distribution": "uniform", "scale": 1.0, "mode": "fan_avg", "seed": null}}, "kernel_regularizer": null, "bias_regularizer": null, "filters": 192, "use_bias": false, "bias_initializer": {"class_name": "Zeros", "config": {}}, "padding": "same", "kernel_constraint": null, "bias_constraint": null, "name": "conv2d_69", "data_format": "channels_last", "strides": [1, 1], "activation": "linear", "trainable": true, "dilation_rate": [1, 1], "kernel_size": [1, 7], "activity_regularizer": null}}, {"class_name": "Conv2D", "name": "conv2d_70", "inbound_nodes": [[["average_pooling2d_7", 0, 0, {}]]], "config": {"kernel_initializer": {"class_name": "VarianceScaling", "config": {"distribution": "uniform", "scale": 1.0, "mode": "fan_avg", "seed": null}}, "kernel_regularizer": null, "bias_regularizer": null, "filters": 192, "use_bias": false, "bias_initializer": {"class_name": "Zeros", "config": {}}, "padding": "same", "kernel_constraint": null, "bias_constraint": null, "name": "conv2d_70", "data_format": "channels_last", "strides": [1, 1], "activation": "linear", "trainable": true, "dilation_rate": [1, 1], "kernel_size": [1, 1], "activity_regularizer": null}}, {"class_name": "BatchNormalization", "name": "batch_normalization_61", "inbound_nodes": [[["conv2d_61", 0, 0, {}]]], "config": {"gamma_constraint": null, "beta_initializer": {"class_name": "Zeros", "config": {}}, "beta_regularizer": null, "scale": false, "momentum": 0.99, "gamma_regularizer": null, "gamma_initializer": {"class_name": "Ones", "config": {}}, "moving_variance_initializer": {"class_name": "Ones", "config": {}}, "moving_mean_initializer": {"class_name": "Zeros", "config": {}}, "beta_constraint": null, "epsilon": 0.001, "trainable": true, "name": "batch_normalization_61", "center": true, "axis": 3}}, {"class_name": "BatchNormalization", "name": "batch_normalization_64", "inbound_nodes": [[["conv2d_64", 0, 0, {}]]], "config": {"gamma_constraint": null, "beta_initializer": {"class_name": "Zeros", "config": {}}, "beta_regularizer": null, "scale": false, "momentum": 0.99, "gamma_regularizer": null, "gamma_initializer": {"class_name": "Ones", "config": {}}, "moving_variance_initializer": {"class_name": "Ones", "config": {}}, "moving_mean_initializer": {"class_name": "Zeros", "config": {}}, "beta_constraint": null, "epsilon": 0.001, "trainable": true, "name": "batch_normalization_64", "center": true, "axis": 3}}, {"class_name": "BatchNormalization", "name": "batch_normalization_69", "inbound_nodes": [[["conv2d_69", 0, 0, {}]]], "config": {"gamma_constraint": null, "beta_initializer": {"class_name": "Zeros", "config": {}}, "beta_regularizer": null, "scale": false, "momentum": 0.99, "gamma_regularizer": null, "gamma_initializer": {"class_name": "Ones", "config": {}}, "moving_variance_initializer": {"class_name": "Ones", "config": {}}, "moving_mean_initializer": {"class_name": "Zeros", "config": {}}, "beta_constraint": null, "epsilon": 0.001, "trainable": true, "name": "batch_normalization_69", "center": true, "axis": 3}}, {"class_name": "BatchNormalization", "name": "batch_normalization_70", "inbound_nodes": [[["conv2d_70", 0, 0, {}]]], "config": {"gamma_constraint": null, "beta_initializer": {"class_name": "Zeros", "config": {}}, "beta_regularizer": null, "scale": false, "momentum": 0.99, "gamma_regularizer": null, "gamma_initializer": {"class_name": "Ones", "config": {}}, "moving_variance_initializer": {"class_name": "Ones", "config": {}}, "moving_mean_initializer": {"class_name": "Zeros", "config": {}}, "beta_constraint": null, "epsilon": 0.001, "trainable": true, "name": "batch_normalization_70", "center": true, "axis": 3}}, {"class_name": "Activation", "name": "activation_61", "inbound_nodes": [[["batch_normalization_61", 0, 0, {}]]], "config": {"activation": "relu", "trainable": true, "name": "activation_61"}}, {"class_name": "Activation", "name": "activation_64", "inbound_nodes": [[["batch_normalization_64", 0, 0, {}]]], "config": {"activation": "relu", "trainable": true, "name": "activation_64"}}, {"class_name": "Activation", "name": "activation_69", "inbound_nodes": [[["batch_normalization_69", 0, 0, {}]]], "config": {"activation": "relu", "trainable": true, "name": "activation_69"}}, {"class_name": "Activation", "name": "activation_70", "inbound_nodes": [[["batch_normalization_70", 0, 0, {}]]], "config": {"activation": "relu", "trainable": true, "name": "activation_70"}}, {"class_name": "Concatenate", "name": "mixed7", "inbound_nodes": [[["activation_61", 0, 0, {}], ["activation_64", 0, 0, {}], ["activation_69", 0, 0, {}], ["activation_70", 0, 0, {}]]], "config": {"name": "mixed7", "trainable": true, "axis": 3}}, {"class_name": "Conv2D", "name": "conv2d_73", "inbound_nodes": [[["mixed7", 0, 0, {}]]], "config": {"kernel_initializer": {"class_name": "VarianceScaling", "config": {"distribution": "uniform", "scale": 1.0, "mode": "fan_avg", "seed": null}}, "kernel_regularizer": null, "bias_regularizer": null, "filters": 192, "use_bias": false, "bias_initializer": {"class_name": "Zeros", "config": {}}, "padding": "same", "kernel_constraint": null, "bias_constraint": null, "name": "conv2d_73", "data_format": "channels_last", "strides": [1, 1], "activation": "linear", "trainable": true, "dilation_rate": [1, 1], "kernel_size": [1, 1], "activity_regularizer": null}}, {"class_name": "BatchNormalization", "name": "batch_normalization_73", "inbound_nodes": [[["conv2d_73", 0, 0, {}]]], "config": {"gamma_constraint": null, "beta_initializer": {"class_name": "Zeros", "config": {}}, "beta_regularizer": null, "scale": false, "momentum": 0.99, "gamma_regularizer": null, "gamma_initializer": {"class_name": "Ones", "config": {}}, "moving_variance_initializer": {"class_name": "Ones", "config": {}}, "moving_mean_initializer": {"class_name": "Zeros", "config": {}}, "beta_constraint": null, "epsilon": 0.001, "trainable": true, "name": "batch_normalization_73", "center": true, "axis": 3}}, {"class_name": "Activation", "name": "activation_73", "inbound_nodes": [[["batch_normalization_73", 0, 0, {}]]], "config": {"activation": "relu", "trainable": true, "name": "activation_73"}}, {"class_name": "Conv2D", "name": "conv2d_74", "inbound_nodes": [[["activation_73", 0, 0, {}]]], "config": {"kernel_initializer": {"class_name": "VarianceScaling", "config": {"distribution": "uniform", "scale": 1.0, "mode": "fan_avg", "seed": null}}, "kernel_regularizer": null, "bias_regularizer": null, "filters": 192, "use_bias": false, "bias_initializer": {"class_name": "Zeros", "config": {}}, "padding": "same", "kernel_constraint": null, "bias_constraint": null, "name": "conv2d_74", "data_format": "channels_last", "strides": [1, 1], "activation": "linear", "trainable": true, "dilation_rate": [1, 1], "kernel_size": [1, 7], "activity_regularizer": null}}, {"class_name": "BatchNormalization", "name": "batch_normalization_74", "inbound_nodes": [[["conv2d_74", 0, 0, {}]]], "config": {"gamma_constraint": null, "beta_initializer": {"class_name": "Zeros", "config": {}}, "beta_regularizer": null, "scale": false, "momentum": 0.99, "gamma_regularizer": null, "gamma_initializer": {"class_name": "Ones", "config": {}}, "moving_variance_initializer": {"class_name": "Ones", "config": {}}, "moving_mean_initializer": {"class_name": "Zeros", "config": {}}, "beta_constraint": null, "epsilon": 0.001, "trainable": true, "name": "batch_normalization_74", "center": true, "axis": 3}}, {"class_name": "Activation", "name": "activation_74", "inbound_nodes": [[["batch_normalization_74", 0, 0, {}]]], "config": {"activation": "relu", "trainable": true, "name": "activation_74"}}, {"class_name": "Conv2D", "name": "conv2d_71", "inbound_nodes": [[["mixed7", 0, 0, {}]]], "config": {"kernel_initializer": {"class_name": "VarianceScaling", "config": {"distribution": "uniform", "scale": 1.0, "mode": "fan_avg", "seed": null}}, "kernel_regularizer": null, "bias_regularizer": null, "filters": 192, "use_bias": false, "bias_initializer": {"class_name": "Zeros", "config": {}}, "padding": "same", "kernel_constraint": null, "bias_constraint": null, "name": "conv2d_71", "data_format": "channels_last", "strides": [1, 1], "activation": "linear", "trainable": true, "dilation_rate": [1, 1], "kernel_size": [1, 1], "activity_regularizer": null}}, {"class_name": "Conv2D", "name": "conv2d_75", "inbound_nodes": [[["activation_74", 0, 0, {}]]], "config": {"kernel_initializer": {"class_name": "VarianceScaling", "config": {"distribution": "uniform", "scale": 1.0, "mode": "fan_avg", "seed": null}}, "kernel_regularizer": null, "bias_regularizer": null, "filters": 192, "use_bias": false, "bias_initializer": {"class_name": "Zeros", "config": {}}, "padding": "same", "kernel_constraint": null, "bias_constraint": null, "name": "conv2d_75", "data_format": "channels_last", "strides": [1, 1], "activation": "linear", "trainable": true, "dilation_rate": [1, 1], "kernel_size": [7, 1], "activity_regularizer": null}}, {"class_name": "BatchNormalization", "name": "batch_normalization_71", "inbound_nodes": [[["conv2d_71", 0, 0, {}]]], "config": {"gamma_constraint": null, "beta_initializer": {"class_name": "Zeros", "config": {}}, "beta_regularizer": null, "scale": false, "momentum": 0.99, "gamma_regularizer": null, "gamma_initializer": {"class_name": "Ones", "config": {}}, "moving_variance_initializer": {"class_name": "Ones", "config": {}}, "moving_mean_initializer": {"class_name": "Zeros", "config": {}}, "beta_constraint": null, "epsilon": 0.001, "trainable": true, "name": "batch_normalization_71", "center": true, "axis": 3}}, {"class_name": "BatchNormalization", "name": "batch_normalization_75", "inbound_nodes": [[["conv2d_75", 0, 0, {}]]], "config": {"gamma_constraint": null, "beta_initializer": {"class_name": "Zeros", "config": {}}, "beta_regularizer": null, "scale": false, "momentum": 0.99, "gamma_regularizer": null, "gamma_initializer": {"class_name": "Ones", "config": {}}, "moving_variance_initializer": {"class_name": "Ones", "config": {}}, "moving_mean_initializer": {"class_name": "Zeros", "config": {}}, "beta_constraint": null, "epsilon": 0.001, "trainable": true, "name": "batch_normalization_75", "center": true, "axis": 3}}, {"class_name": "Activation", "name": "activation_71", "inbound_nodes": [[["batch_normalization_71", 0, 0, {}]]], "config": {"activation": "relu", "trainable": true, "name": "activation_71"}}, {"class_name": "Activation", "name": "activation_75", "inbound_nodes": [[["batch_normalization_75", 0, 0, {}]]], "config": {"activation": "relu", "trainable": true, "name": "activation_75"}}, {"class_name": "Conv2D", "name": "conv2d_72", "inbound_nodes": [[["activation_71", 0, 0, {}]]], "config": {"kernel_initializer": {"class_name": "VarianceScaling", "config": {"distribution": "uniform", "scale": 1.0, "mode": "fan_avg", "seed": null}}, "kernel_regularizer": null, "bias_regularizer": null, "filters": 320, "use_bias": false, "bias_initializer": {"class_name": "Zeros", "config": {}}, "padding": "valid", "kernel_constraint": null, "bias_constraint": null, "name": "conv2d_72", "data_format": "channels_last", "strides": [2, 2], "activation": "linear", "trainable": true, "dilation_rate": [1, 1], "kernel_size": [3, 3], "activity_regularizer": null}}, {"class_name": "Conv2D", "name": "conv2d_76", "inbound_nodes": [[["activation_75", 0, 0, {}]]], "config": {"kernel_initializer": {"class_name": "VarianceScaling", "config": {"distribution": "uniform", "scale": 1.0, "mode": "fan_avg", "seed": null}}, "kernel_regularizer": null, "bias_regularizer": null, "filters": 192, "use_bias": false, "bias_initializer": {"class_name": "Zeros", "config": {}}, "padding": "valid", "kernel_constraint": null, "bias_constraint": null, "name": "conv2d_76", "data_format": "channels_last", "strides": [2, 2], "activation": "linear", "trainable": true, "dilation_rate": [1, 1], "kernel_size": [3, 3], "activity_regularizer": null}}, {"class_name": "BatchNormalization", "name": "batch_normalization_72", "inbound_nodes": [[["conv2d_72", 0, 0, {}]]], "config": {"gamma_constraint": null, "beta_initializer": {"class_name": "Zeros", "config": {}}, "beta_regularizer": null, "scale": false, "momentum": 0.99, "gamma_regularizer": null, "gamma_initializer": {"class_name": "Ones", "config": {}}, "moving_variance_initializer": {"class_name": "Ones", "config": {}}, "moving_mean_initializer": {"class_name": "Zeros", "config": {}}, "beta_constraint": null, "epsilon": 0.001, "trainable": true, "name": "batch_normalization_72", "center": true, "axis": 3}}, {"class_name": "BatchNormalization", "name": "batch_normalization_76", "inbound_nodes": [[["conv2d_76", 0, 0, {}]]], "config": {"gamma_constraint": null, "beta_initializer": {"class_name": "Zeros", "config": {}}, "beta_regularizer": null, "scale": false, "momentum": 0.99, "gamma_regularizer": null, "gamma_initializer": {"class_name": "Ones", "config": {}}, "moving_variance_initializer": {"class_name": "Ones", "config": {}}, "moving_mean_initializer": {"class_name": "Zeros", "config": {}}, "beta_constraint": null, "epsilon": 0.001, "trainable": true, "name": "batch_normalization_76", "center": true, "axis": 3}}, {"class_name": "Activation", "name": "activation_72", "inbound_nodes": [[["batch_normalization_72", 0, 0, {}]]], "config": {"activation": "relu", "trainable": true, "name": "activation_72"}}, {"class_name": "Activation", "name": "activation_76", "inbound_nodes": [[["batch_normalization_76", 0, 0, {}]]], "config": {"activation": "relu", "trainable": true, "name": "activation_76"}}, {"class_name": "MaxPooling2D", "name": "max_pooling2d_4", "inbound_nodes": [[["mixed7", 0, 0, {}]]], "config": {"trainable": true, "strides": [2, 2], "pool_size": [3, 3], "padding": "valid", "data_format": "channels_last", "name": "max_pooling2d_4"}}, {"class_name": "Concatenate", "name": "mixed8", "inbound_nodes": [[["activation_72", 0, 0, {}], ["activation_76", 0, 0, {}], ["max_pooling2d_4", 0, 0, {}]]], "config": {"name": "mixed8", "trainable": true, "axis": 3}}, {"class_name": "Conv2D", "name": "conv2d_81", "inbound_nodes": [[["mixed8", 0, 0, {}]]], "config": {"kernel_initializer": {"class_name": "VarianceScaling", "config": {"distribution": "uniform", "scale": 1.0, "mode": "fan_avg", "seed": null}}, "kernel_regularizer": null, "bias_regularizer": null, "filters": 448, "use_bias": false, "bias_initializer": {"class_name": "Zeros", "config": {}}, "padding": "same", "kernel_constraint": null, "bias_constraint": null, "name": "conv2d_81", "data_format": "channels_last", "strides": [1, 1], "activation": "linear", "trainable": true, "dilation_rate": [1, 1], "kernel_size": [1, 1], "activity_regularizer": null}}, {"class_name": "BatchNormalization", "name": "batch_normalization_81", "inbound_nodes": [[["conv2d_81", 0, 0, {}]]], "config": {"gamma_constraint": null, "beta_initializer": {"class_name": "Zeros", "config": {}}, "beta_regularizer": null, "scale": false, "momentum": 0.99, "gamma_regularizer": null, "gamma_initializer": {"class_name": "Ones", "config": {}}, "moving_variance_initializer": {"class_name": "Ones", "config": {}}, "moving_mean_initializer": {"class_name": "Zeros", "config": {}}, "beta_constraint": null, "epsilon": 0.001, "trainable": true, "name": "batch_normalization_81", "center": true, "axis": 3}}, {"class_name": "Activation", "name": "activation_81", "inbound_nodes": [[["batch_normalization_81", 0, 0, {}]]], "config": {"activation": "relu", "trainable": true, "name": "activation_81"}}, {"class_name": "Conv2D", "name": "conv2d_78", "inbound_nodes": [[["mixed8", 0, 0, {}]]], "config": {"kernel_initializer": {"class_name": "VarianceScaling", "config": {"distribution": "uniform", "scale": 1.0, "mode": "fan_avg", "seed": null}}, "kernel_regularizer": null, "bias_regularizer": null, "filters": 384, "use_bias": false, "bias_initializer": {"class_name": "Zeros", "config": {}}, "padding": "same", "kernel_constraint": null, "bias_constraint": null, "name": "conv2d_78", "data_format": "channels_last", "strides": [1, 1], "activation": "linear", "trainable": true, "dilation_rate": [1, 1], "kernel_size": [1, 1], "activity_regularizer": null}}, {"class_name": "Conv2D", "name": "conv2d_82", "inbound_nodes": [[["activation_81", 0, 0, {}]]], "config": {"kernel_initializer": {"class_name": "VarianceScaling", "config": {"distribution": "uniform", "scale": 1.0, "mode": "fan_avg", "seed": null}}, "kernel_regularizer": null, "bias_regularizer": null, "filters": 384, "use_bias": false, "bias_initializer": {"class_name": "Zeros", "config": {}}, "padding": "same", "kernel_constraint": null, "bias_constraint": null, "name": "conv2d_82", "data_format": "channels_last", "strides": [1, 1], "activation": "linear", "trainable": true, "dilation_rate": [1, 1], "kernel_size": [3, 3], "activity_regularizer": null}}, {"class_name": "BatchNormalization", "name": "batch_normalization_78", "inbound_nodes": [[["conv2d_78", 0, 0, {}]]], "config": {"gamma_constraint": null, "beta_initializer": {"class_name": "Zeros", "config": {}}, "beta_regularizer": null, "scale": false, "momentum": 0.99, "gamma_regularizer": null, "gamma_initializer": {"class_name": "Ones", "config": {}}, "moving_variance_initializer": {"class_name": "Ones", "config": {}}, "moving_mean_initializer": {"class_name": "Zeros", "config": {}}, "beta_constraint": null, "epsilon": 0.001, "trainable": true, "name": "batch_normalization_78", "center": true, "axis": 3}}, {"class_name": "BatchNormalization", "name": "batch_normalization_82", "inbound_nodes": [[["conv2d_82", 0, 0, {}]]], "config": {"gamma_constraint": null, "beta_initializer": {"class_name": "Zeros", "config": {}}, "beta_regularizer": null, "scale": false, "momentum": 0.99, "gamma_regularizer": null, "gamma_initializer": {"class_name": "Ones", "config": {}}, "moving_variance_initializer": {"class_name": "Ones", "config": {}}, "moving_mean_initializer": {"class_name": "Zeros", "config": {}}, "beta_constraint": null, "epsilon": 0.001, "trainable": true, "name": "batch_normalization_82", "center": true, "axis": 3}}, {"class_name": "Activation", "name": "activation_78", "inbound_nodes": [[["batch_normalization_78", 0, 0, {}]]], "config": {"activation": "relu", "trainable": true, "name": "activation_78"}}, {"class_name": "Activation", "name": "activation_82", "inbound_nodes": [[["batch_normalization_82", 0, 0, {}]]], "config": {"activation": "relu", "trainable": true, "name": "activation_82"}}, {"class_name": "Conv2D", "name": "conv2d_79", "inbound_nodes": [[["activation_78", 0, 0, {}]]], "config": {"kernel_initializer": {"class_name": "VarianceScaling", "config": {"distribution": "uniform", "scale": 1.0, "mode": "fan_avg", "seed": null}}, "kernel_regularizer": null, "bias_regularizer": null, "filters": 384, "use_bias": false, "bias_initializer": {"class_name": "Zeros", "config": {}}, "padding": "same", "kernel_constraint": null, "bias_constraint": null, "name": "conv2d_79", "data_format": "channels_last", "strides": [1, 1], "activation": "linear", "trainable": true, "dilation_rate": [1, 1], "kernel_size": [1, 3], "activity_regularizer": null}}, {"class_name": "Conv2D", "name": "conv2d_80", "inbound_nodes": [[["activation_78", 0, 0, {}]]], "config": {"kernel_initializer": {"class_name": "VarianceScaling", "config": {"distribution": "uniform", "scale": 1.0, "mode": "fan_avg", "seed": null}}, "kernel_regularizer": null, "bias_regularizer": null, "filters": 384, "use_bias": false, "bias_initializer": {"class_name": "Zeros", "config": {}}, "padding": "same", "kernel_constraint": null, "bias_constraint": null, "name": "conv2d_80", "data_format": "channels_last", "strides": [1, 1], "activation": "linear", "trainable": true, "dilation_rate": [1, 1], "kernel_size": [3, 1], "activity_regularizer": null}}, {"class_name": "Conv2D", "name": "conv2d_83", "inbound_nodes": [[["activation_82", 0, 0, {}]]], "config": {"kernel_initializer": {"class_name": "VarianceScaling", "config": {"distribution": "uniform", "scale": 1.0, "mode": "fan_avg", "seed": null}}, "kernel_regularizer": null, "bias_regularizer": null, "filters": 384, "use_bias": false, "bias_initializer": {"class_name": "Zeros", "config": {}}, "padding": "same", "kernel_constraint": null, "bias_constraint": null, "name": "conv2d_83", "data_format": "channels_last", "strides": [1, 1], "activation": "linear", "trainable": true, "dilation_rate": [1, 1], "kernel_size": [1, 3], "activity_regularizer": null}}, {"class_name": "Conv2D", "name": "conv2d_84", "inbound_nodes": [[["activation_82", 0, 0, {}]]], "config": {"kernel_initializer": {"class_name": "VarianceScaling", "config": {"distribution": "uniform", "scale": 1.0, "mode": "fan_avg", "seed": null}}, "kernel_regularizer": null, "bias_regularizer": null, "filters": 384, "use_bias": false, "bias_initializer": {"class_name": "Zeros", "config": {}}, "padding": "same", "kernel_constraint": null, "bias_constraint": null, "name": "conv2d_84", "data_format": "channels_last", "strides": [1, 1], "activation": "linear", "trainable": true, "dilation_rate": [1, 1], "kernel_size": [3, 1], "activity_regularizer": null}}, {"class_name": "AveragePooling2D", "name": "average_pooling2d_8", "inbound_nodes": [[["mixed8", 0, 0, {}]]], "config": {"trainable": true, "strides": [1, 1], "pool_size": [3, 3], "padding": "same", "data_format": "channels_last", "name": "average_pooling2d_8"}}, {"class_name": "Conv2D", "name": "conv2d_77", "inbound_nodes": [[["mixed8", 0, 0, {}]]], "config": {"kernel_initializer": {"class_name": "VarianceScaling", "config": {"distribution": "uniform", "scale": 1.0, "mode": "fan_avg", "seed": null}}, "kernel_regularizer": null, "bias_regularizer": null, "filters": 320, "use_bias": false, "bias_initializer": {"class_name": "Zeros", "config": {}}, "padding": "same", "kernel_constraint": null, "bias_constraint": null, "name": "conv2d_77", "data_format": "channels_last", "strides": [1, 1], "activation": "linear", "trainable": true, "dilation_rate": [1, 1], "kernel_size": [1, 1], "activity_regularizer": null}}, {"class_name": "BatchNormalization", "name": "batch_normalization_79", "inbound_nodes": [[["conv2d_79", 0, 0, {}]]], "config": {"gamma_constraint": null, "beta_initializer": {"class_name": "Zeros", "config": {}}, "beta_regularizer": null, "scale": false, "momentum": 0.99, "gamma_regularizer": null, "gamma_initializer": {"class_name": "Ones", "config": {}}, "moving_variance_initializer": {"class_name": "Ones", "config": {}}, "moving_mean_initializer": {"class_name": "Zeros", "config": {}}, "beta_constraint": null, "epsilon": 0.001, "trainable": true, "name": "batch_normalization_79", "center": true, "axis": 3}}, {"class_name": "BatchNormalization", "name": "batch_normalization_80", "inbound_nodes": [[["conv2d_80", 0, 0, {}]]], "config": {"gamma_constraint": null, "beta_initializer": {"class_name": "Zeros", "config": {}}, "beta_regularizer": null, "scale": false, "momentum": 0.99, "gamma_regularizer": null, "gamma_initializer": {"class_name": "Ones", "config": {}}, "moving_variance_initializer": {"class_name": "Ones", "config": {}}, "moving_mean_initializer": {"class_name": "Zeros", "config": {}}, "beta_constraint": null, "epsilon": 0.001, "trainable": true, "name": "batch_normalization_80", "center": true, "axis": 3}}, {"class_name": "BatchNormalization", "name": "batch_normalization_83", "inbound_nodes": [[["conv2d_83", 0, 0, {}]]], "config": {"gamma_constraint": null, "beta_initializer": {"class_name": "Zeros", "config": {}}, "beta_regularizer": null, "scale": false, "momentum": 0.99, "gamma_regularizer": null, "gamma_initializer": {"class_name": "Ones", "config": {}}, "moving_variance_initializer": {"class_name": "Ones", "config": {}}, "moving_mean_initializer": {"class_name": "Zeros", "config": {}}, "beta_constraint": null, "epsilon": 0.001, "trainable": true, "name": "batch_normalization_83", "center": true, "axis": 3}}, {"class_name": "BatchNormalization", "name": "batch_normalization_84", "inbound_nodes": [[["conv2d_84", 0, 0, {}]]], "config": {"gamma_constraint": null, "beta_initializer": {"class_name": "Zeros", "config": {}}, "beta_regularizer": null, "scale": false, "momentum": 0.99, "gamma_regularizer": null, "gamma_initializer": {"class_name": "Ones", "config": {}}, "moving_variance_initializer": {"class_name": "Ones", "config": {}}, "moving_mean_initializer": {"class_name": "Zeros", "config": {}}, "beta_constraint": null, "epsilon": 0.001, "trainable": true, "name": "batch_normalization_84", "center": true, "axis": 3}}, {"class_name": "Conv2D", "name": "conv2d_85", "inbound_nodes": [[["average_pooling2d_8", 0, 0, {}]]], "config": {"kernel_initializer": {"class_name": "VarianceScaling", "config": {"distribution": "uniform", "scale": 1.0, "mode": "fan_avg", "seed": null}}, "kernel_regularizer": null, "bias_regularizer": null, "filters": 192, "use_bias": false, "bias_initializer": {"class_name": "Zeros", "config": {}}, "padding": "same", "kernel_constraint": null, "bias_constraint": null, "name": "conv2d_85", "data_format": "channels_last", "strides": [1, 1], "activation": "linear", "trainable": true, "dilation_rate": [1, 1], "kernel_size": [1, 1], "activity_regularizer": null}}, {"class_name": "BatchNormalization", "name": "batch_normalization_77", "inbound_nodes": [[["conv2d_77", 0, 0, {}]]], "config": {"gamma_constraint": null, "beta_initializer": {"class_name": "Zeros", "config": {}}, "beta_regularizer": null, "scale": false, "momentum": 0.99, "gamma_regularizer": null, "gamma_initializer": {"class_name": "Ones", "config": {}}, "moving_variance_initializer": {"class_name": "Ones", "config": {}}, "moving_mean_initializer": {"class_name": "Zeros", "config": {}}, "beta_constraint": null, "epsilon": 0.001, "trainable": true, "name": "batch_normalization_77", "center": true, "axis": 3}}, {"class_name": "Activation", "name": "activation_79", "inbound_nodes": [[["batch_normalization_79", 0, 0, {}]]], "config": {"activation": "relu", "trainable": true, "name": "activation_79"}}, {"class_name": "Activation", "name": "activation_80", "inbound_nodes": [[["batch_normalization_80", 0, 0, {}]]], "config": {"activation": "relu", "trainable": true, "name": "activation_80"}}, {"class_name": "Activation", "name": "activation_83", "inbound_nodes": [[["batch_normalization_83", 0, 0, {}]]], "config": {"activation": "relu", "trainable": true, "name": "activation_83"}}, {"class_name": "Activation", "name": "activation_84", "inbound_nodes": [[["batch_normalization_84", 0, 0, {}]]], "config": {"activation": "relu", "trainable": true, "name": "activation_84"}}, {"class_name": "BatchNormalization", "name": "batch_normalization_85", "inbound_nodes": [[["conv2d_85", 0, 0, {}]]], "config": {"gamma_constraint": null, "beta_initializer": {"class_name": "Zeros", "config": {}}, "beta_regularizer": null, "scale": false, "momentum": 0.99, "gamma_regularizer": null, "gamma_initializer": {"class_name": "Ones", "config": {}}, "moving_variance_initializer": {"class_name": "Ones", "config": {}}, "moving_mean_initializer": {"class_name": "Zeros", "config": {}}, "beta_constraint": null, "epsilon": 0.001, "trainable": true, "name": "batch_normalization_85", "center": true, "axis": 3}}, {"class_name": "Activation", "name": "activation_77", "inbound_nodes": [[["batch_normalization_77", 0, 0, {}]]], "config": {"activation": "relu", "trainable": true, "name": "activation_77"}}, {"class_name": "Concatenate", "name": "mixed9_0", "inbound_nodes": [[["activation_79", 0, 0, {}], ["activation_80", 0, 0, {}]]], "config": {"name": "mixed9_0", "trainable": true, "axis": 3}}, {"class_name": "Concatenate", "name": "concatenate_1", "inbound_nodes": [[["activation_83", 0, 0, {}], ["activation_84", 0, 0, {}]]], "config": {"name": "concatenate_1", "trainable": true, "axis": 3}}, {"class_name": "Activation", "name": "activation_85", "inbound_nodes": [[["batch_normalization_85", 0, 0, {}]]], "config": {"activation": "relu", "trainable": true, "name": "activation_85"}}, {"class_name": "Concatenate", "name": "mixed9", "inbound_nodes": [[["activation_77", 0, 0, {}], ["mixed9_0", 0, 0, {}], ["concatenate_1", 0, 0, {}], ["activation_85", 0, 0, {}]]], "config": {"name": "mixed9", "trainable": true, "axis": 3}}, {"class_name": "Conv2D", "name": "conv2d_90", "inbound_nodes": [[["mixed9", 0, 0, {}]]], "config": {"kernel_initializer": {"class_name": "VarianceScaling", "config": {"distribution": "uniform", "scale": 1.0, "mode": "fan_avg", "seed": null}}, "kernel_regularizer": null, "bias_regularizer": null, "filters": 448, "use_bias": false, "bias_initializer": {"class_name": "Zeros", "config": {}}, "padding": "same", "kernel_constraint": null, "bias_constraint": null, "name": "conv2d_90", "data_format": "channels_last", "strides": [1, 1], "activation": "linear", "trainable": true, "dilation_rate": [1, 1], "kernel_size": [1, 1], "activity_regularizer": null}}, {"class_name": "BatchNormalization", "name": "batch_normalization_90", "inbound_nodes": [[["conv2d_90", 0, 0, {}]]], "config": {"gamma_constraint": null, "beta_initializer": {"class_name": "Zeros", "config": {}}, "beta_regularizer": null, "scale": false, "momentum": 0.99, "gamma_regularizer": null, "gamma_initializer": {"class_name": "Ones", "config": {}}, "moving_variance_initializer": {"class_name": "Ones", "config": {}}, "moving_mean_initializer": {"class_name": "Zeros", "config": {}}, "beta_constraint": null, "epsilon": 0.001, "trainable": true, "name": "batch_normalization_90", "center": true, "axis": 3}}, {"class_name": "Activation", "name": "activation_90", "inbound_nodes": [[["batch_normalization_90", 0, 0, {}]]], "config": {"activation": "relu", "trainable": true, "name": "activation_90"}}, {"class_name": "Conv2D", "name": "conv2d_87", "inbound_nodes": [[["mixed9", 0, 0, {}]]], "config": {"kernel_initializer": {"class_name": "VarianceScaling", "config": {"distribution": "uniform", "scale": 1.0, "mode": "fan_avg", "seed": null}}, "kernel_regularizer": null, "bias_regularizer": null, "filters": 384, "use_bias": false, "bias_initializer": {"class_name": "Zeros", "config": {}}, "padding": "same", "kernel_constraint": null, "bias_constraint": null, "name": "conv2d_87", "data_format": "channels_last", "strides": [1, 1], "activation": "linear", "trainable": true, "dilation_rate": [1, 1], "kernel_size": [1, 1], "activity_regularizer": null}}, {"class_name": "Conv2D", "name": "conv2d_91", "inbound_nodes": [[["activation_90", 0, 0, {}]]], "config": {"kernel_initializer": {"class_name": "VarianceScaling", "config": {"distribution": "uniform", "scale": 1.0, "mode": "fan_avg", "seed": null}}, "kernel_regularizer": null, "bias_regularizer": null, "filters": 384, "use_bias": false, "bias_initializer": {"class_name": "Zeros", "config": {}}, "padding": "same", "kernel_constraint": null, "bias_constraint": null, "name": "conv2d_91", "data_format": "channels_last", "strides": [1, 1], "activation": "linear", "trainable": true, "dilation_rate": [1, 1], "kernel_size": [3, 3], "activity_regularizer": null}}, {"class_name": "BatchNormalization", "name": "batch_normalization_87", "inbound_nodes": [[["conv2d_87", 0, 0, {}]]], "config": {"gamma_constraint": null, "beta_initializer": {"class_name": "Zeros", "config": {}}, "beta_regularizer": null, "scale": false, "momentum": 0.99, "gamma_regularizer": null, "gamma_initializer": {"class_name": "Ones", "config": {}}, "moving_variance_initializer": {"class_name": "Ones", "config": {}}, "moving_mean_initializer": {"class_name": "Zeros", "config": {}}, "beta_constraint": null, "epsilon": 0.001, "trainable": true, "name": "batch_normalization_87", "center": true, "axis": 3}}, {"class_name": "BatchNormalization", "name": "batch_normalization_91", "inbound_nodes": [[["conv2d_91", 0, 0, {}]]], "config": {"gamma_constraint": null, "beta_initializer": {"class_name": "Zeros", "config": {}}, "beta_regularizer": null, "scale": false, "momentum": 0.99, "gamma_regularizer": null, "gamma_initializer": {"class_name": "Ones", "config": {}}, "moving_variance_initializer": {"class_name": "Ones", "config": {}}, "moving_mean_initializer": {"class_name": "Zeros", "config": {}}, "beta_constraint": null, "epsilon": 0.001, "trainable": true, "name": "batch_normalization_91", "center": true, "axis": 3}}, {"class_name": "Activation", "name": "activation_87", "inbound_nodes": [[["batch_normalization_87", 0, 0, {}]]], "config": {"activation": "relu", "trainable": true, "name": "activation_87"}}, {"class_name": "Activation", "name": "activation_91", "inbound_nodes": [[["batch_normalization_91", 0, 0, {}]]], "config": {"activation": "relu", "trainable": true, "name": "activation_91"}}, {"class_name": "Conv2D", "name": "conv2d_88", "inbound_nodes": [[["activation_87", 0, 0, {}]]], "config": {"kernel_initializer": {"class_name": "VarianceScaling", "config": {"distribution": "uniform", "scale": 1.0, "mode": "fan_avg", "seed": null}}, "kernel_regularizer": null, "bias_regularizer": null, "filters": 384, "use_bias": false, "bias_initializer": {"class_name": "Zeros", "config": {}}, "padding": "same", "kernel_constraint": null, "bias_constraint": null, "name": "conv2d_88", "data_format": "channels_last", "strides": [1, 1], "activation": "linear", "trainable": true, "dilation_rate": [1, 1], "kernel_size": [1, 3], "activity_regularizer": null}}, {"class_name": "Conv2D", "name": "conv2d_89", "inbound_nodes": [[["activation_87", 0, 0, {}]]], "config": {"kernel_initializer": {"class_name": "VarianceScaling", "config": {"distribution": "uniform", "scale": 1.0, "mode": "fan_avg", "seed": null}}, "kernel_regularizer": null, "bias_regularizer": null, "filters": 384, "use_bias": false, "bias_initializer": {"class_name": "Zeros", "config": {}}, "padding": "same", "kernel_constraint": null, "bias_constraint": null, "name": "conv2d_89", "data_format": "channels_last", "strides": [1, 1], "activation": "linear", "trainable": true, "dilation_rate": [1, 1], "kernel_size": [3, 1], "activity_regularizer": null}}, {"class_name": "Conv2D", "name": "conv2d_92", "inbound_nodes": [[["activation_91", 0, 0, {}]]], "config": {"kernel_initializer": {"class_name": "VarianceScaling", "config": {"distribution": "uniform", "scale": 1.0, "mode": "fan_avg", "seed": null}}, "kernel_regularizer": null, "bias_regularizer": null, "filters": 384, "use_bias": false, "bias_initializer": {"class_name": "Zeros", "config": {}}, "padding": "same", "kernel_constraint": null, "bias_constraint": null, "name": "conv2d_92", "data_format": "channels_last", "strides": [1, 1], "activation": "linear", "trainable": true, "dilation_rate": [1, 1], "kernel_size": [1, 3], "activity_regularizer": null}}, {"class_name": "Conv2D", "name": "conv2d_93", "inbound_nodes": [[["activation_91", 0, 0, {}]]], "config": {"kernel_initializer": {"class_name": "VarianceScaling", "config": {"distribution": "uniform", "scale": 1.0, "mode": "fan_avg", "seed": null}}, "kernel_regularizer": null, "bias_regularizer": null, "filters": 384, "use_bias": false, "bias_initializer": {"class_name": "Zeros", "config": {}}, "padding": "same", "kernel_constraint": null, "bias_constraint": null, "name": "conv2d_93", "data_format": "channels_last", "strides": [1, 1], "activation": "linear", "trainable": true, "dilation_rate": [1, 1], "kernel_size": [3, 1], "activity_regularizer": null}}, {"class_name": "AveragePooling2D", "name": "average_pooling2d_9", "inbound_nodes": [[["mixed9", 0, 0, {}]]], "config": {"trainable": true, "strides": [1, 1], "pool_size": [3, 3], "padding": "same", "data_format": "channels_last", "name": "average_pooling2d_9"}}, {"class_name": "Conv2D", "name": "conv2d_86", "inbound_nodes": [[["mixed9", 0, 0, {}]]], "config": {"kernel_initializer": {"class_name": "VarianceScaling", "config": {"distribution": "uniform", "scale": 1.0, "mode": "fan_avg", "seed": null}}, "kernel_regularizer": null, "bias_regularizer": null, "filters": 320, "use_bias": false, "bias_initializer": {"class_name": "Zeros", "config": {}}, "padding": "same", "kernel_constraint": null, "bias_constraint": null, "name": "conv2d_86", "data_format": "channels_last", "strides": [1, 1], "activation": "linear", "trainable": true, "dilation_rate": [1, 1], "kernel_size": [1, 1], "activity_regularizer": null}}, {"class_name": "BatchNormalization", "name": "batch_normalization_88", "inbound_nodes": [[["conv2d_88", 0, 0, {}]]], "config": {"gamma_constraint": null, "beta_initializer": {"class_name": "Zeros", "config": {}}, "beta_regularizer": null, "scale": false, "momentum": 0.99, "gamma_regularizer": null, "gamma_initializer": {"class_name": "Ones", "config": {}}, "moving_variance_initializer": {"class_name": "Ones", "config": {}}, "moving_mean_initializer": {"class_name": "Zeros", "config": {}}, "beta_constraint": null, "epsilon": 0.001, "trainable": true, "name": "batch_normalization_88", "center": true, "axis": 3}}, {"class_name": "BatchNormalization", "name": "batch_normalization_89", "inbound_nodes": [[["conv2d_89", 0, 0, {}]]], "config": {"gamma_constraint": null, "beta_initializer": {"class_name": "Zeros", "config": {}}, "beta_regularizer": null, "scale": false, "momentum": 0.99, "gamma_regularizer": null, "gamma_initializer": {"class_name": "Ones", "config": {}}, "moving_variance_initializer": {"class_name": "Ones", "config": {}}, "moving_mean_initializer": {"class_name": "Zeros", "config": {}}, "beta_constraint": null, "epsilon": 0.001, "trainable": true, "name": "batch_normalization_89", "center": true, "axis": 3}}, {"class_name": "BatchNormalization", "name": "batch_normalization_92", "inbound_nodes": [[["conv2d_92", 0, 0, {}]]], "config": {"gamma_constraint": null, "beta_initializer": {"class_name": "Zeros", "config": {}}, "beta_regularizer": null, "scale": false, "momentum": 0.99, "gamma_regularizer": null, "gamma_initializer": {"class_name": "Ones", "config": {}}, "moving_variance_initializer": {"class_name": "Ones", "config": {}}, "moving_mean_initializer": {"class_name": "Zeros", "config": {}}, "beta_constraint": null, "epsilon": 0.001, "trainable": true, "name": "batch_normalization_92", "center": true, "axis": 3}}, {"class_name": "BatchNormalization", "name": "batch_normalization_93", "inbound_nodes": [[["conv2d_93", 0, 0, {}]]], "config": {"gamma_constraint": null, "beta_initializer": {"class_name": "Zeros", "config": {}}, "beta_regularizer": null, "scale": false, "momentum": 0.99, "gamma_regularizer": null, "gamma_initializer": {"class_name": "Ones", "config": {}}, "moving_variance_initializer": {"class_name": "Ones", "config": {}}, "moving_mean_initializer": {"class_name": "Zeros", "config": {}}, "beta_constraint": null, "epsilon": 0.001, "trainable": true, "name": "batch_normalization_93", "center": true, "axis": 3}}, {"class_name": "Conv2D", "name": "conv2d_94", "inbound_nodes": [[["average_pooling2d_9", 0, 0, {}]]], "config": {"kernel_initializer": {"class_name": "VarianceScaling", "config": {"distribution": "uniform", "scale": 1.0, "mode": "fan_avg", "seed": null}}, "kernel_regularizer": null, "bias_regularizer": null, "filters": 192, "use_bias": false, "bias_initializer": {"class_name": "Zeros", "config": {}}, "padding": "same", "kernel_constraint": null, "bias_constraint": null, "name": "conv2d_94", "data_format": "channels_last", "strides": [1, 1], "activation": "linear", "trainable": true, "dilation_rate": [1, 1], "kernel_size": [1, 1], "activity_regularizer": null}}, {"class_name": "BatchNormalization", "name": "batch_normalization_86", "inbound_nodes": [[["conv2d_86", 0, 0, {}]]], "config": {"gamma_constraint": null, "beta_initializer": {"class_name": "Zeros", "config": {}}, "beta_regularizer": null, "scale": false, "momentum": 0.99, "gamma_regularizer": null, "gamma_initializer": {"class_name": "Ones", "config": {}}, "moving_variance_initializer": {"class_name": "Ones", "config": {}}, "moving_mean_initializer": {"class_name": "Zeros", "config": {}}, "beta_constraint": null, "epsilon": 0.001, "trainable": true, "name": "batch_normalization_86", "center": true, "axis": 3}}, {"class_name": "Activation", "name": "activation_88", "inbound_nodes": [[["batch_normalization_88", 0, 0, {}]]], "config": {"activation": "relu", "trainable": true, "name": "activation_88"}}, {"class_name": "Activation", "name": "activation_89", "inbound_nodes": [[["batch_normalization_89", 0, 0, {}]]], "config": {"activation": "relu", "trainable": true, "name": "activation_89"}}, {"class_name": "Activation", "name": "activation_92", "inbound_nodes": [[["batch_normalization_92", 0, 0, {}]]], "config": {"activation": "relu", "trainable": true, "name": "activation_92"}}, {"class_name": "Activation", "name": "activation_93", "inbound_nodes": [[["batch_normalization_93", 0, 0, {}]]], "config": {"activation": "relu", "trainable": true, "name": "activation_93"}}, {"class_name": "BatchNormalization", "name": "batch_normalization_94", "inbound_nodes": [[["conv2d_94", 0, 0, {}]]], "config": {"gamma_constraint": null, "beta_initializer": {"class_name": "Zeros", "config": {}}, "beta_regularizer": null, "scale": false, "momentum": 0.99, "gamma_regularizer": null, "gamma_initializer": {"class_name": "Ones", "config": {}}, "moving_variance_initializer": {"class_name": "Ones", "config": {}}, "moving_mean_initializer": {"class_name": "Zeros", "config": {}}, "beta_constraint": null, "epsilon": 0.001, "trainable": true, "name": "batch_normalization_94", "center": true, "axis": 3}}, {"class_name": "Activation", "name": "activation_86", "inbound_nodes": [[["batch_normalization_86", 0, 0, {}]]], "config": {"activation": "relu", "trainable": true, "name": "activation_86"}}, {"class_name": "Concatenate", "name": "mixed9_1", "inbound_nodes": [[["activation_88", 0, 0, {}], ["activation_89", 0, 0, {}]]], "config": {"name": "mixed9_1", "trainable": true, "axis": 3}}, {"class_name": "Concatenate", "name": "concatenate_2", "inbound_nodes": [[["activation_92", 0, 0, {}], ["activation_93", 0, 0, {}]]], "config": {"name": "concatenate_2", "trainable": true, "axis": 3}}, {"class_name": "Activation", "name": "activation_94", "inbound_nodes": [[["batch_normalization_94", 0, 0, {}]]], "config": {"activation": "relu", "trainable": true, "name": "activation_94"}}, {"class_name": "Concatenate", "name": "mixed10", "inbound_nodes": [[["activation_86", 0, 0, {}], ["mixed9_1", 0, 0, {}], ["concatenate_2", 0, 0, {}], ["activation_94", 0, 0, {}]]], "config": {"name": "mixed10", "trainable": true, "axis": 3}}, {"class_name": "GlobalAveragePooling2D", "name": "global_average_pooling2d_1", "inbound_nodes": [[["mixed10", 0, 0, {}]]], "config": {"trainable": true, "data_format": "channels_last", "name": "global_average_pooling2d_1"}}, {"class_name": "Dense", "name": "dense_1", "inbound_nodes": [[["global_average_pooling2d_1", 0, 0, {}]]], "config": {"kernel_initializer": {"class_name": "VarianceScaling", "config": {"distribution": "uniform", "scale": 1.0, "mode": "fan_avg", "seed": null}}, "kernel_regularizer": null, "units": 1024, "use_bias": true, "bias_initializer": {"class_name": "Zeros", "config": {}}, "bias_regularizer": null, "kernel_constraint": null, "bias_constraint": null, "name": "dense_1", "trainable": true, "activation": "relu", "activity_regularizer": null}}, {"class_name": "Dense", "name": "dense_2", "inbound_nodes": [[["dense_1", 0, 0, {}]]], "config": {"kernel_initializer": {"class_name": "VarianceScaling", "config": {"distribution": "uniform", "scale": 1.0, "mode": "fan_avg", "seed": null}}, "kernel_regularizer": null, "units": 112, "use_bias": true, "bias_initializer": {"class_name": "Zeros", "config": {}}, "bias_regularizer": null, "kernel_constraint": null, "bias_constraint": null, "name": "dense_2", "trainable": true, "activation": "softmax", "activity_regularizer": null}}], "name": "model_1"}}