{"config": {"name": "model_1", "layers": [{"name": "input_3", "config": {"name": "input_3", "batch_input_shape": [null, null, null, 3], "sparse": false, "dtype": "float32"}, "inbound_nodes": [], "class_name": "InputLayer"}, {"name": "conv2d_189", "config": {"dilation_rate": [1, 1], "name": "conv2d_189", "kernel_size": [3, 3], "activity_regularizer": null, "filters": 32, "kernel_regularizer": null, "strides": [2, 2], "trainable": false, "bias_initializer": {"config": {}, "class_name": "Zeros"}, "kernel_initializer": {"config": {"mode": "fan_avg", "distribution": "uniform", "scale": 1.0, "seed": null}, "class_name": "VarianceScaling"}, "activation": "linear", "use_bias": false, "padding": "valid", "kernel_constraint": null, "data_format": "channels_last", "bias_constraint": null, "bias_regularizer": null}, "inbound_nodes": [[["input_3", 0, 0, {}]]], "class_name": "Conv2D"}, {"name": "batch_normalization_189", "config": {"name": "batch_normalization_189", "beta_constraint": null, "beta_initializer": {"config": {}, "class_name": "Zeros"}, "beta_regularizer": null, "trainable": false, "moving_variance_initializer": {"config": {}, "class_name": "Ones"}, "axis": 3, "epsilon": 0.001, "scale": false, "gamma_constraint": null, "gamma_initializer": {"config": {}, "class_name": "Ones"}, "moving_mean_initializer": {"config": {}, "class_name": "Zeros"}, "center": true, "momentum": 0.99, "gamma_regularizer": null}, "inbound_nodes": [[["conv2d_189", 0, 0, {}]]], "class_name": "BatchNormalization"}, {"name": "activation_189", "config": {"name": "activation_189", "trainable": false, "activation": "relu"}, "inbound_nodes": [[["batch_normalization_189", 0, 0, {}]]], "class_name": "Activation"}, {"name": "conv2d_190", "config": {"dilation_rate": [1, 1], "name": "conv2d_190", "kernel_size": [3, 3], "activity_regularizer": null, "filters": 32, "kernel_regularizer": null, "strides": [1, 1], "trainable": false, "bias_initializer": {"config": {}, "class_name": "Zeros"}, "kernel_initializer": {"config": {"mode": "fan_avg", "distribution": "uniform", "scale": 1.0, "seed": null}, "class_name": "VarianceScaling"}, "activation": "linear", "use_bias": false, "padding": "valid", "kernel_constraint": null, "data_format": "channels_last", "bias_constraint": null, "bias_regularizer": null}, "inbound_nodes": [[["activation_189", 0, 0, {}]]], "class_name": "Conv2D"}, {"name": "batch_normalization_190", "config": {"name": "batch_normalization_190", "beta_constraint": null, "beta_initializer": {"config": {}, "class_name": "Zeros"}, "beta_regularizer": null, "trainable": false, "moving_variance_initializer": {"config": {}, "class_name": "Ones"}, "axis": 3, "epsilon": 0.001, "scale": false, "gamma_constraint": null, "gamma_initializer": {"config": {}, "class_name": "Ones"}, "moving_mean_initializer": {"config": {}, "class_name": "Zeros"}, "center": true, "momentum": 0.99, "gamma_regularizer": null}, "inbound_nodes": [[["conv2d_190", 0, 0, {}]]], "class_name": "BatchNormalization"}, {"name": "activation_190", "config": {"name": "activation_190", "trainable": false, "activation": "relu"}, "inbound_nodes": [[["batch_normalization_190", 0, 0, {}]]], "class_name": "Activation"}, {"name": "conv2d_191", "config": {"dilation_rate": [1, 1], "name": "conv2d_191", "kernel_size": [3, 3], "activity_regularizer": null, "filters": 64, "kernel_regularizer": null, "strides": [1, 1], "trainable": false, "bias_initializer": {"config": {}, "class_name": "Zeros"}, "kernel_initializer": {"config": {"mode": "fan_avg", "distribution": "uniform", "scale": 1.0, "seed": null}, "class_name": "VarianceScaling"}, "activation": "linear", "use_bias": false, "padding": "same", "kernel_constraint": null, "data_format": "channels_last", "bias_constraint": null, "bias_regularizer": null}, "inbound_nodes": [[["activation_190", 0, 0, {}]]], "class_name": "Conv2D"}, {"name": "batch_normalization_191", "config": {"name": "batch_normalization_191", "beta_constraint": null, "beta_initializer": {"config": {}, "class_name": "Zeros"}, "beta_regularizer": null, "trainable": false, "moving_variance_initializer": {"config": {}, "class_name": "Ones"}, "axis": 3, "epsilon": 0.001, "scale": false, "gamma_constraint": null, "gamma_initializer": {"config": {}, "class_name": "Ones"}, "moving_mean_initializer": {"config": {}, "class_name": "Zeros"}, "center": true, "momentum": 0.99, "gamma_regularizer": null}, "inbound_nodes": [[["conv2d_191", 0, 0, {}]]], "class_name": "BatchNormalization"}, {"name": "activation_191", "config": {"name": "activation_191", "trainable": false, "activation": "relu"}, "inbound_nodes": [[["batch_normalization_191", 0, 0, {}]]], "class_name": "Activation"}, {"name": "max_pooling2d_9", "config": {"name": "max_pooling2d_9", "pool_size": [3, 3], "data_format": "channels_last", "strides": [2, 2], "padding": "valid", "trainable": false}, "inbound_nodes": [[["activation_191", 0, 0, {}]]], "class_name": "MaxPooling2D"}, {"name": "conv2d_192", "config": {"dilation_rate": [1, 1], "name": "conv2d_192", "kernel_size": [1, 1], "activity_regularizer": null, "filters": 80, "kernel_regularizer": null, "strides": [1, 1], "trainable": false, "bias_initializer": {"config": {}, "class_name": "Zeros"}, "kernel_initializer": {"config": {"mode": "fan_avg", "distribution": "uniform", "scale": 1.0, "seed": null}, "class_name": "VarianceScaling"}, "activation": "linear", "use_bias": false, "padding": "valid", "kernel_constraint": null, "data_format": "channels_last", "bias_constraint": null, "bias_regularizer": null}, "inbound_nodes": [[["max_pooling2d_9", 0, 0, {}]]], "class_name": "Conv2D"}, {"name": "batch_normalization_192", "config": {"name": "batch_normalization_192", "beta_constraint": null, "beta_initializer": {"config": {}, "class_name": "Zeros"}, "beta_regularizer": null, "trainable": false, "moving_variance_initializer": {"config": {}, "class_name": "Ones"}, "axis": 3, "epsilon": 0.001, "scale": false, "gamma_constraint": null, "gamma_initializer": {"config": {}, "class_name": "Ones"}, "moving_mean_initializer": {"config": {}, "class_name": "Zeros"}, "center": true, "momentum": 0.99, "gamma_regularizer": null}, "inbound_nodes": [[["conv2d_192", 0, 0, {}]]], "class_name": "BatchNormalization"}, {"name": "activation_192", "config": {"name": "activation_192", "trainable": false, "activation": "relu"}, "inbound_nodes": [[["batch_normalization_192", 0, 0, {}]]], "class_name": "Activation"}, {"name": "conv2d_193", "config": {"dilation_rate": [1, 1], "name": "conv2d_193", "kernel_size": [3, 3], "activity_regularizer": null, "filters": 192, "kernel_regularizer": null, "strides": [1, 1], "trainable": false, "bias_initializer": {"config": {}, "class_name": "Zeros"}, "kernel_initializer": {"config": {"mode": "fan_avg", "distribution": "uniform", "scale": 1.0, "seed": null}, "class_name": "VarianceScaling"}, "activation": "linear", "use_bias": false, "padding": "valid", "kernel_constraint": null, "data_format": "channels_last", "bias_constraint": null, "bias_regularizer": null}, "inbound_nodes": [[["activation_192", 0, 0, {}]]], "class_name": "Conv2D"}, {"name": "batch_normalization_193", "config": {"name": "batch_normalization_193", "beta_constraint": null, "beta_initializer": {"config": {}, "class_name": "Zeros"}, "beta_regularizer": null, "trainable": false, "moving_variance_initializer": {"config": {}, "class_name": "Ones"}, "axis": 3, "epsilon": 0.001, "scale": false, "gamma_constraint": null, "gamma_initializer": {"config": {}, "class_name": "Ones"}, "moving_mean_initializer": {"config": {}, "class_name": "Zeros"}, "center": true, "momentum": 0.99, "gamma_regularizer": null}, "inbound_nodes": [[["conv2d_193", 0, 0, {}]]], "class_name": "BatchNormalization"}, {"name": "activation_193", "config": {"name": "activation_193", "trainable": false, "activation": "relu"}, "inbound_nodes": [[["batch_normalization_193", 0, 0, {}]]], "class_name": "Activation"}, {"name": "max_pooling2d_10", "config": {"name": "max_pooling2d_10", "pool_size": [3, 3], "data_format": "channels_last", "strides": [2, 2], "padding": "valid", "trainable": false}, "inbound_nodes": [[["activation_193", 0, 0, {}]]], "class_name": "MaxPooling2D"}, {"name": "conv2d_197", "config": {"dilation_rate": [1, 1], "name": "conv2d_197", "kernel_size": [1, 1], "activity_regularizer": null, "filters": 64, "kernel_regularizer": null, "strides": [1, 1], "trainable": false, "bias_initializer": {"config": {}, "class_name": "Zeros"}, "kernel_initializer": {"config": {"mode": "fan_avg", "distribution": "uniform", "scale": 1.0, "seed": null}, "class_name": "VarianceScaling"}, "activation": "linear", "use_bias": false, "padding": "same", "kernel_constraint": null, "data_format": "channels_last", "bias_constraint": null, "bias_regularizer": null}, "inbound_nodes": [[["max_pooling2d_10", 0, 0, {}]]], "class_name": "Conv2D"}, {"name": "batch_normalization_197", "config": {"name": "batch_normalization_197", "beta_constraint": null, "beta_initializer": {"config": {}, "class_name": "Zeros"}, "beta_regularizer": null, "trainable": false, "moving_variance_initializer": {"config": {}, "class_name": "Ones"}, "axis": 3, "epsilon": 0.001, "scale": false, "gamma_constraint": null, "gamma_initializer": {"config": {}, "class_name": "Ones"}, "moving_mean_initializer": {"config": {}, "class_name": "Zeros"}, "center": true, "momentum": 0.99, "gamma_regularizer": null}, "inbound_nodes": [[["conv2d_197", 0, 0, {}]]], "class_name": "BatchNormalization"}, {"name": "activation_197", "config": {"name": "activation_197", "trainable": false, "activation": "relu"}, "inbound_nodes": [[["batch_normalization_197", 0, 0, {}]]], "class_name": "Activation"}, {"name": "conv2d_195", "config": {"dilation_rate": [1, 1], "name": "conv2d_195", "kernel_size": [1, 1], "activity_regularizer": null, "filters": 48, "kernel_regularizer": null, "strides": [1, 1], "trainable": false, "bias_initializer": {"config": {}, "class_name": "Zeros"}, "kernel_initializer": {"config": {"mode": "fan_avg", "distribution": "uniform", "scale": 1.0, "seed": null}, "class_name": "VarianceScaling"}, "activation": "linear", "use_bias": false, "padding": "same", "kernel_constraint": null, "data_format": "channels_last", "bias_constraint": null, "bias_regularizer": null}, "inbound_nodes": [[["max_pooling2d_10", 0, 0, {}]]], "class_name": "Conv2D"}, {"name": "conv2d_198", "config": {"dilation_rate": [1, 1], "name": "conv2d_198", "kernel_size": [3, 3], "activity_regularizer": null, "filters": 96, "kernel_regularizer": null, "strides": [1, 1], "trainable": false, "bias_initializer": {"config": {}, "class_name": "Zeros"}, "kernel_initializer": {"config": {"mode": "fan_avg", "distribution": "uniform", "scale": 1.0, "seed": null}, "class_name": "VarianceScaling"}, "activation": "linear", "use_bias": false, "padding": "same", "kernel_constraint": null, "data_format": "channels_last", "bias_constraint": null, "bias_regularizer": null}, "inbound_nodes": [[["activation_197", 0, 0, {}]]], "class_name": "Conv2D"}, {"name": "batch_normalization_195", "config": {"name": "batch_normalization_195", "beta_constraint": null, "beta_initializer": {"config": {}, "class_name": "Zeros"}, "beta_regularizer": null, "trainable": false, "moving_variance_initializer": {"config": {}, "class_name": "Ones"}, "axis": 3, "epsilon": 0.001, "scale": false, "gamma_constraint": null, "gamma_initializer": {"config": {}, "class_name": "Ones"}, "moving_mean_initializer": {"config": {}, "class_name": "Zeros"}, "center": true, "momentum": 0.99, "gamma_regularizer": null}, "inbound_nodes": [[["conv2d_195", 0, 0, {}]]], "class_name": "BatchNormalization"}, {"name": "batch_normalization_198", "config": {"name": "batch_normalization_198", "beta_constraint": null, "beta_initializer": {"config": {}, "class_name": "Zeros"}, "beta_regularizer": null, "trainable": false, "moving_variance_initializer": {"config": {}, "class_name": "Ones"}, "axis": 3, "epsilon": 0.001, "scale": false, "gamma_constraint": null, "gamma_initializer": {"config": {}, "class_name": "Ones"}, "moving_mean_initializer": {"config": {}, "class_name": "Zeros"}, "center": true, "momentum": 0.99, "gamma_regularizer": null}, "inbound_nodes": [[["conv2d_198", 0, 0, {}]]], "class_name": "BatchNormalization"}, {"name": "activation_195", "config": {"name": "activation_195", "trainable": false, "activation": "relu"}, "inbound_nodes": [[["batch_normalization_195", 0, 0, {}]]], "class_name": "Activation"}, {"name": "activation_198", "config": {"name": "activation_198", "trainable": false, "activation": "relu"}, "inbound_nodes": [[["batch_normalization_198", 0, 0, {}]]], "class_name": "Activation"}, {"name": "average_pooling2d_19", "config": {"name": "average_pooling2d_19", "pool_size": [3, 3], "data_format": "channels_last", "strides": [1, 1], "padding": "same", "trainable": false}, "inbound_nodes": [[["max_pooling2d_10", 0, 0, {}]]], "class_name": "AveragePooling2D"}, {"name": "conv2d_194", "config": {"dilation_rate": [1, 1], "name": "conv2d_194", "kernel_size": [1, 1], "activity_regularizer": null, "filters": 64, "kernel_regularizer": null, "strides": [1, 1], "trainable": false, "bias_initializer": {"config": {}, "class_name": "Zeros"}, "kernel_initializer": {"config": {"mode": "fan_avg", "distribution": "uniform", "scale": 1.0, "seed": null}, "class_name": "VarianceScaling"}, "activation": "linear", "use_bias": false, "padding": "same", "kernel_constraint": null, "data_format": "channels_last", "bias_constraint": null, "bias_regularizer": null}, "inbound_nodes": [[["max_pooling2d_10", 0, 0, {}]]], "class_name": "Conv2D"}, {"name": "conv2d_196", "config": {"dilation_rate": [1, 1], "name": "conv2d_196", "kernel_size": [5, 5], "activity_regularizer": null, "filters": 64, "kernel_regularizer": null, "strides": [1, 1], "trainable": false, "bias_initializer": {"config": {}, "class_name": "Zeros"}, "kernel_initializer": {"config": {"mode": "fan_avg", "distribution": "uniform", "scale": 1.0, "seed": null}, "class_name": "VarianceScaling"}, "activation": "linear", "use_bias": false, "padding": "same", "kernel_constraint": null, "data_format": "channels_last", "bias_constraint": null, "bias_regularizer": null}, "inbound_nodes": [[["activation_195", 0, 0, {}]]], "class_name": "Conv2D"}, {"name": "conv2d_199", "config": {"dilation_rate": [1, 1], "name": "conv2d_199", "kernel_size": [3, 3], "activity_regularizer": null, "filters": 96, "kernel_regularizer": null, "strides": [1, 1], "trainable": false, "bias_initializer": {"config": {}, "class_name": "Zeros"}, "kernel_initializer": {"config": {"mode": "fan_avg", "distribution": "uniform", "scale": 1.0, "seed": null}, "class_name": "VarianceScaling"}, "activation": "linear", "use_bias": false, "padding": "same", "kernel_constraint": null, "data_format": "channels_last", "bias_constraint": null, "bias_regularizer": null}, "inbound_nodes": [[["activation_198", 0, 0, {}]]], "class_name": "Conv2D"}, {"name": "conv2d_200", "config": {"dilation_rate": [1, 1], "name": "conv2d_200", "kernel_size": [1, 1], "activity_regularizer": null, "filters": 32, "kernel_regularizer": null, "strides": [1, 1], "trainable": false, "bias_initializer": {"config": {}, "class_name": "Zeros"}, "kernel_initializer": {"config": {"mode": "fan_avg", "distribution": "uniform", "scale": 1.0, "seed": null}, "class_name": "VarianceScaling"}, "activation": "linear", "use_bias": false, "padding": "same", "kernel_constraint": null, "data_format": "channels_last", "bias_constraint": null, "bias_regularizer": null}, "inbound_nodes": [[["average_pooling2d_19", 0, 0, {}]]], "class_name": "Conv2D"}, {"name": "batch_normalization_194", "config": {"name": "batch_normalization_194", "beta_constraint": null, "beta_initializer": {"config": {}, "class_name": "Zeros"}, "beta_regularizer": null, "trainable": false, "moving_variance_initializer": {"config": {}, "class_name": "Ones"}, "axis": 3, "epsilon": 0.001, "scale": false, "gamma_constraint": null, "gamma_initializer": {"config": {}, "class_name": "Ones"}, "moving_mean_initializer": {"config": {}, "class_name": "Zeros"}, "center": true, "momentum": 0.99, "gamma_regularizer": null}, "inbound_nodes": [[["conv2d_194", 0, 0, {}]]], "class_name": "BatchNormalization"}, {"name": "batch_normalization_196", "config": {"name": "batch_normalization_196", "beta_constraint": null, "beta_initializer": {"config": {}, "class_name": "Zeros"}, "beta_regularizer": null, "trainable": false, "moving_variance_initializer": {"config": {}, "class_name": "Ones"}, "axis": 3, "epsilon": 0.001, "scale": false, "gamma_constraint": null, "gamma_initializer": {"config": {}, "class_name": "Ones"}, "moving_mean_initializer": {"config": {}, "class_name": "Zeros"}, "center": true, "momentum": 0.99, "gamma_regularizer": null}, "inbound_nodes": [[["conv2d_196", 0, 0, {}]]], "class_name": "BatchNormalization"}, {"name": "batch_normalization_199", "config": {"name": "batch_normalization_199", "beta_constraint": null, "beta_initializer": {"config": {}, "class_name": "Zeros"}, "beta_regularizer": null, "trainable": false, "moving_variance_initializer": {"config": {}, "class_name": "Ones"}, "axis": 3, "epsilon": 0.001, "scale": false, "gamma_constraint": null, "gamma_initializer": {"config": {}, "class_name": "Ones"}, "moving_mean_initializer": {"config": {}, "class_name": "Zeros"}, "center": true, "momentum": 0.99, "gamma_regularizer": null}, "inbound_nodes": [[["conv2d_199", 0, 0, {}]]], "class_name": "BatchNormalization"}, {"name": "batch_normalization_200", "config": {"name": "batch_normalization_200", "beta_constraint": null, "beta_initializer": {"config": {}, "class_name": "Zeros"}, "beta_regularizer": null, "trainable": false, "moving_variance_initializer": {"config": {}, "class_name": "Ones"}, "axis": 3, "epsilon": 0.001, "scale": false, "gamma_constraint": null, "gamma_initializer": {"config": {}, "class_name": "Ones"}, "moving_mean_initializer": {"config": {}, "class_name": "Zeros"}, "center": true, "momentum": 0.99, "gamma_regularizer": null}, "inbound_nodes": [[["conv2d_200", 0, 0, {}]]], "class_name": "BatchNormalization"}, {"name": "activation_194", "config": {"name": "activation_194", "trainable": false, "activation": "relu"}, "inbound_nodes": [[["batch_normalization_194", 0, 0, {}]]], "class_name": "Activation"}, {"name": "activation_196", "config": {"name": "activation_196", "trainable": false, "activation": "relu"}, "inbound_nodes": [[["batch_normalization_196", 0, 0, {}]]], "class_name": "Activation"}, {"name": "activation_199", "config": {"name": "activation_199", "trainable": false, "activation": "relu"}, "inbound_nodes": [[["batch_normalization_199", 0, 0, {}]]], "class_name": "Activation"}, {"name": "activation_200", "config": {"name": "activation_200", "trainable": false, "activation": "relu"}, "inbound_nodes": [[["batch_normalization_200", 0, 0, {}]]], "class_name": "Activation"}, {"name": "mixed0", "config": {"name": "mixed0", "trainable": false, "axis": 3}, "inbound_nodes": [[["activation_194", 0, 0, {}], ["activation_196", 0, 0, {}], ["activation_199", 0, 0, {}], ["activation_200", 0, 0, {}]]], "class_name": "Concatenate"}, {"name": "conv2d_204", "config": {"dilation_rate": [1, 1], "name": "conv2d_204", "kernel_size": [1, 1], "activity_regularizer": null, "filters": 64, "kernel_regularizer": null, "strides": [1, 1], "trainable": false, "bias_initializer": {"config": {}, "class_name": "Zeros"}, "kernel_initializer": {"config": {"mode": "fan_avg", "distribution": "uniform", "scale": 1.0, "seed": null}, "class_name": "VarianceScaling"}, "activation": "linear", "use_bias": false, "padding": "same", "kernel_constraint": null, "data_format": "channels_last", "bias_constraint": null, "bias_regularizer": null}, "inbound_nodes": [[["mixed0", 0, 0, {}]]], "class_name": "Conv2D"}, {"name": "batch_normalization_204", "config": {"name": "batch_normalization_204", "beta_constraint": null, "beta_initializer": {"config": {}, "class_name": "Zeros"}, "beta_regularizer": null, "trainable": false, "moving_variance_initializer": {"config": {}, "class_name": "Ones"}, "axis": 3, "epsilon": 0.001, "scale": false, "gamma_constraint": null, "gamma_initializer": {"config": {}, "class_name": "Ones"}, "moving_mean_initializer": {"config": {}, "class_name": "Zeros"}, "center": true, "momentum": 0.99, "gamma_regularizer": null}, "inbound_nodes": [[["conv2d_204", 0, 0, {}]]], "class_name": "BatchNormalization"}, {"name": "activation_204", "config": {"name": "activation_204", "trainable": false, "activation": "relu"}, "inbound_nodes": [[["batch_normalization_204", 0, 0, {}]]], "class_name": "Activation"}, {"name": "conv2d_202", "config": {"dilation_rate": [1, 1], "name": "conv2d_202", "kernel_size": [1, 1], "activity_regularizer": null, "filters": 48, "kernel_regularizer": null, "strides": [1, 1], "trainable": false, "bias_initializer": {"config": {}, "class_name": "Zeros"}, "kernel_initializer": {"config": {"mode": "fan_avg", "distribution": "uniform", "scale": 1.0, "seed": null}, "class_name": "VarianceScaling"}, "activation": "linear", "use_bias": false, "padding": "same", "kernel_constraint": null, "data_format": "channels_last", "bias_constraint": null, "bias_regularizer": null}, "inbound_nodes": [[["mixed0", 0, 0, {}]]], "class_name": "Conv2D"}, {"name": "conv2d_205", "config": {"dilation_rate": [1, 1], "name": "conv2d_205", "kernel_size": [3, 3], "activity_regularizer": null, "filters": 96, "kernel_regularizer": null, "strides": [1, 1], "trainable": false, "bias_initializer": {"config": {}, "class_name": "Zeros"}, "kernel_initializer": {"config": {"mode": "fan_avg", "distribution": "uniform", "scale": 1.0, "seed": null}, "class_name": "VarianceScaling"}, "activation": "linear", "use_bias": false, "padding": "same", "kernel_constraint": null, "data_format": "channels_last", "bias_constraint": null, "bias_regularizer": null}, "inbound_nodes": [[["activation_204", 0, 0, {}]]], "class_name": "Conv2D"}, {"name": "batch_normalization_202", "config": {"name": "batch_normalization_202", "beta_constraint": null, "beta_initializer": {"config": {}, "class_name": "Zeros"}, "beta_regularizer": null, "trainable": false, "moving_variance_initializer": {"config": {}, "class_name": "Ones"}, "axis": 3, "epsilon": 0.001, "scale": false, "gamma_constraint": null, "gamma_initializer": {"config": {}, "class_name": "Ones"}, "moving_mean_initializer": {"config": {}, "class_name": "Zeros"}, "center": true, "momentum": 0.99, "gamma_regularizer": null}, "inbound_nodes": [[["conv2d_202", 0, 0, {}]]], "class_name": "BatchNormalization"}, {"name": "batch_normalization_205", "config": {"name": "batch_normalization_205", "beta_constraint": null, "beta_initializer": {"config": {}, "class_name": "Zeros"}, "beta_regularizer": null, "trainable": false, "moving_variance_initializer": {"config": {}, "class_name": "Ones"}, "axis": 3, "epsilon": 0.001, "scale": false, "gamma_constraint": null, "gamma_initializer": {"config": {}, "class_name": "Ones"}, "moving_mean_initializer": {"config": {}, "class_name": "Zeros"}, "center": true, "momentum": 0.99, "gamma_regularizer": null}, "inbound_nodes": [[["conv2d_205", 0, 0, {}]]], "class_name": "BatchNormalization"}, {"name": "activation_202", "config": {"name": "activation_202", "trainable": false, "activation": "relu"}, "inbound_nodes": [[["batch_normalization_202", 0, 0, {}]]], "class_name": "Activation"}, {"name": "activation_205", "config": {"name": "activation_205", "trainable": false, "activation": "relu"}, "inbound_nodes": [[["batch_normalization_205", 0, 0, {}]]], "class_name": "Activation"}, {"name": "average_pooling2d_20", "config": {"name": "average_pooling2d_20", "pool_size": [3, 3], "data_format": "channels_last", "strides": [1, 1], "padding": "same", "trainable": false}, "inbound_nodes": [[["mixed0", 0, 0, {}]]], "class_name": "AveragePooling2D"}, {"name": "conv2d_201", "config": {"dilation_rate": [1, 1], "name": "conv2d_201", "kernel_size": [1, 1], "activity_regularizer": null, "filters": 64, "kernel_regularizer": null, "strides": [1, 1], "trainable": false, "bias_initializer": {"config": {}, "class_name": "Zeros"}, "kernel_initializer": {"config": {"mode": "fan_avg", "distribution": "uniform", "scale": 1.0, "seed": null}, "class_name": "VarianceScaling"}, "activation": "linear", "use_bias": false, "padding": "same", "kernel_constraint": null, "data_format": "channels_last", "bias_constraint": null, "bias_regularizer": null}, "inbound_nodes": [[["mixed0", 0, 0, {}]]], "class_name": "Conv2D"}, {"name": "conv2d_203", "config": {"dilation_rate": [1, 1], "name": "conv2d_203", "kernel_size": [5, 5], "activity_regularizer": null, "filters": 64, "kernel_regularizer": null, "strides": [1, 1], "trainable": false, "bias_initializer": {"config": {}, "class_name": "Zeros"}, "kernel_initializer": {"config": {"mode": "fan_avg", "distribution": "uniform", "scale": 1.0, "seed": null}, "class_name": "VarianceScaling"}, "activation": "linear", "use_bias": false, "padding": "same", "kernel_constraint": null, "data_format": "channels_last", "bias_constraint": null, "bias_regularizer": null}, "inbound_nodes": [[["activation_202", 0, 0, {}]]], "class_name": "Conv2D"}, {"name": "conv2d_206", "config": {"dilation_rate": [1, 1], "name": "conv2d_206", "kernel_size": [3, 3], "activity_regularizer": null, "filters": 96, "kernel_regularizer": null, "strides": [1, 1], "trainable": false, "bias_initializer": {"config": {}, "class_name": "Zeros"}, "kernel_initializer": {"config": {"mode": "fan_avg", "distribution": "uniform", "scale": 1.0, "seed": null}, "class_name": "VarianceScaling"}, "activation": "linear", "use_bias": false, "padding": "same", "kernel_constraint": null, "data_format": "channels_last", "bias_constraint": null, "bias_regularizer": null}, "inbound_nodes": [[["activation_205", 0, 0, {}]]], "class_name": "Conv2D"}, {"name": "conv2d_207", "config": {"dilation_rate": [1, 1], "name": "conv2d_207", "kernel_size": [1, 1], "activity_regularizer": null, "filters": 64, "kernel_regularizer": null, "strides": [1, 1], "trainable": false, "bias_initializer": {"config": {}, "class_name": "Zeros"}, "kernel_initializer": {"config": {"mode": "fan_avg", "distribution": "uniform", "scale": 1.0, "seed": null}, "class_name": "VarianceScaling"}, "activation": "linear", "use_bias": false, "padding": "same", "kernel_constraint": null, "data_format": "channels_last", "bias_constraint": null, "bias_regularizer": null}, "inbound_nodes": [[["average_pooling2d_20", 0, 0, {}]]], "class_name": "Conv2D"}, {"name": "batch_normalization_201", "config": {"name": "batch_normalization_201", "beta_constraint": null, "beta_initializer": {"config": {}, "class_name": "Zeros"}, "beta_regularizer": null, "trainable": false, "moving_variance_initializer": {"config": {}, "class_name": "Ones"}, "axis": 3, "epsilon": 0.001, "scale": false, "gamma_constraint": null, "gamma_initializer": {"config": {}, "class_name": "Ones"}, "moving_mean_initializer": {"config": {}, "class_name": "Zeros"}, "center": true, "momentum": 0.99, "gamma_regularizer": null}, "inbound_nodes": [[["conv2d_201", 0, 0, {}]]], "class_name": "BatchNormalization"}, {"name": "batch_normalization_203", "config": {"name": "batch_normalization_203", "beta_constraint": null, "beta_initializer": {"config": {}, "class_name": "Zeros"}, "beta_regularizer": null, "trainable": false, "moving_variance_initializer": {"config": {}, "class_name": "Ones"}, "axis": 3, "epsilon": 0.001, "scale": false, "gamma_constraint": null, "gamma_initializer": {"config": {}, "class_name": "Ones"}, "moving_mean_initializer": {"config": {}, "class_name": "Zeros"}, "center": true, "momentum": 0.99, "gamma_regularizer": null}, "inbound_nodes": [[["conv2d_203", 0, 0, {}]]], "class_name": "BatchNormalization"}, {"name": "batch_normalization_206", "config": {"name": "batch_normalization_206", "beta_constraint": null, "beta_initializer": {"config": {}, "class_name": "Zeros"}, "beta_regularizer": null, "trainable": false, "moving_variance_initializer": {"config": {}, "class_name": "Ones"}, "axis": 3, "epsilon": 0.001, "scale": false, "gamma_constraint": null, "gamma_initializer": {"config": {}, "class_name": "Ones"}, "moving_mean_initializer": {"config": {}, "class_name": "Zeros"}, "center": true, "momentum": 0.99, "gamma_regularizer": null}, "inbound_nodes": [[["conv2d_206", 0, 0, {}]]], "class_name": "BatchNormalization"}, {"name": "batch_normalization_207", "config": {"name": "batch_normalization_207", "beta_constraint": null, "beta_initializer": {"config": {}, "class_name": "Zeros"}, "beta_regularizer": null, "trainable": false, "moving_variance_initializer": {"config": {}, "class_name": "Ones"}, "axis": 3, "epsilon": 0.001, "scale": false, "gamma_constraint": null, "gamma_initializer": {"config": {}, "class_name": "Ones"}, "moving_mean_initializer": {"config": {}, "class_name": "Zeros"}, "center": true, "momentum": 0.99, "gamma_regularizer": null}, "inbound_nodes": [[["conv2d_207", 0, 0, {}]]], "class_name": "BatchNormalization"}, {"name": "activation_201", "config": {"name": "activation_201", "trainable": false, "activation": "relu"}, "inbound_nodes": [[["batch_normalization_201", 0, 0, {}]]], "class_name": "Activation"}, {"name": "activation_203", "config": {"name": "activation_203", "trainable": false, "activation": "relu"}, "inbound_nodes": [[["batch_normalization_203", 0, 0, {}]]], "class_name": "Activation"}, {"name": "activation_206", "config": {"name": "activation_206", "trainable": false, "activation": "relu"}, "inbound_nodes": [[["batch_normalization_206", 0, 0, {}]]], "class_name": "Activation"}, {"name": "activation_207", "config": {"name": "activation_207", "trainable": false, "activation": "relu"}, "inbound_nodes": [[["batch_normalization_207", 0, 0, {}]]], "class_name": "Activation"}, {"name": "mixed1", "config": {"name": "mixed1", "trainable": false, "axis": 3}, "inbound_nodes": [[["activation_201", 0, 0, {}], ["activation_203", 0, 0, {}], ["activation_206", 0, 0, {}], ["activation_207", 0, 0, {}]]], "class_name": "Concatenate"}, {"name": "conv2d_211", "config": {"dilation_rate": [1, 1], "name": "conv2d_211", "kernel_size": [1, 1], "activity_regularizer": null, "filters": 64, "kernel_regularizer": null, "strides": [1, 1], "trainable": false, "bias_initializer": {"config": {}, "class_name": "Zeros"}, "kernel_initializer": {"config": {"mode": "fan_avg", "distribution": "uniform", "scale": 1.0, "seed": null}, "class_name": "VarianceScaling"}, "activation": "linear", "use_bias": false, "padding": "same", "kernel_constraint": null, "data_format": "channels_last", "bias_constraint": null, "bias_regularizer": null}, "inbound_nodes": [[["mixed1", 0, 0, {}]]], "class_name": "Conv2D"}, {"name": "batch_normalization_211", "config": {"name": "batch_normalization_211", "beta_constraint": null, "beta_initializer": {"config": {}, "class_name": "Zeros"}, "beta_regularizer": null, "trainable": false, "moving_variance_initializer": {"config": {}, "class_name": "Ones"}, "axis": 3, "epsilon": 0.001, "scale": false, "gamma_constraint": null, "gamma_initializer": {"config": {}, "class_name": "Ones"}, "moving_mean_initializer": {"config": {}, "class_name": "Zeros"}, "center": true, "momentum": 0.99, "gamma_regularizer": null}, "inbound_nodes": [[["conv2d_211", 0, 0, {}]]], "class_name": "BatchNormalization"}, {"name": "activation_211", "config": {"name": "activation_211", "trainable": false, "activation": "relu"}, "inbound_nodes": [[["batch_normalization_211", 0, 0, {}]]], "class_name": "Activation"}, {"name": "conv2d_209", "config": {"dilation_rate": [1, 1], "name": "conv2d_209", "kernel_size": [1, 1], "activity_regularizer": null, "filters": 48, "kernel_regularizer": null, "strides": [1, 1], "trainable": false, "bias_initializer": {"config": {}, "class_name": "Zeros"}, "kernel_initializer": {"config": {"mode": "fan_avg", "distribution": "uniform", "scale": 1.0, "seed": null}, "class_name": "VarianceScaling"}, "activation": "linear", "use_bias": false, "padding": "same", "kernel_constraint": null, "data_format": "channels_last", "bias_constraint": null, "bias_regularizer": null}, "inbound_nodes": [[["mixed1", 0, 0, {}]]], "class_name": "Conv2D"}, {"name": "conv2d_212", "config": {"dilation_rate": [1, 1], "name": "conv2d_212", "kernel_size": [3, 3], "activity_regularizer": null, "filters": 96, "kernel_regularizer": null, "strides": [1, 1], "trainable": false, "bias_initializer": {"config": {}, "class_name": "Zeros"}, "kernel_initializer": {"config": {"mode": "fan_avg", "distribution": "uniform", "scale": 1.0, "seed": null}, "class_name": "VarianceScaling"}, "activation": "linear", "use_bias": false, "padding": "same", "kernel_constraint": null, "data_format": "channels_last", "bias_constraint": null, "bias_regularizer": null}, "inbound_nodes": [[["activation_211", 0, 0, {}]]], "class_name": "Conv2D"}, {"name": "batch_normalization_209", "config": {"name": "batch_normalization_209", "beta_constraint": null, "beta_initializer": {"config": {}, "class_name": "Zeros"}, "beta_regularizer": null, "trainable": false, "moving_variance_initializer": {"config": {}, "class_name": "Ones"}, "axis": 3, "epsilon": 0.001, "scale": false, "gamma_constraint": null, "gamma_initializer": {"config": {}, "class_name": "Ones"}, "moving_mean_initializer": {"config": {}, "class_name": "Zeros"}, "center": true, "momentum": 0.99, "gamma_regularizer": null}, "inbound_nodes": [[["conv2d_209", 0, 0, {}]]], "class_name": "BatchNormalization"}, {"name": "batch_normalization_212", "config": {"name": "batch_normalization_212", "beta_constraint": null, "beta_initializer": {"config": {}, "class_name": "Zeros"}, "beta_regularizer": null, "trainable": false, "moving_variance_initializer": {"config": {}, "class_name": "Ones"}, "axis": 3, "epsilon": 0.001, "scale": false, "gamma_constraint": null, "gamma_initializer": {"config": {}, "class_name": "Ones"}, "moving_mean_initializer": {"config": {}, "class_name": "Zeros"}, "center": true, "momentum": 0.99, "gamma_regularizer": null}, "inbound_nodes": [[["conv2d_212", 0, 0, {}]]], "class_name": "BatchNormalization"}, {"name": "activation_209", "config": {"name": "activation_209", "trainable": false, "activation": "relu"}, "inbound_nodes": [[["batch_normalization_209", 0, 0, {}]]], "class_name": "Activation"}, {"name": "activation_212", "config": {"name": "activation_212", "trainable": false, "activation": "relu"}, "inbound_nodes": [[["batch_normalization_212", 0, 0, {}]]], "class_name": "Activation"}, {"name": "average_pooling2d_21", "config": {"name": "average_pooling2d_21", "pool_size": [3, 3], "data_format": "channels_last", "strides": [1, 1], "padding": "same", "trainable": false}, "inbound_nodes": [[["mixed1", 0, 0, {}]]], "class_name": "AveragePooling2D"}, {"name": "conv2d_208", "config": {"dilation_rate": [1, 1], "name": "conv2d_208", "kernel_size": [1, 1], "activity_regularizer": null, "filters": 64, "kernel_regularizer": null, "strides": [1, 1], "trainable": false, "bias_initializer": {"config": {}, "class_name": "Zeros"}, "kernel_initializer": {"config": {"mode": "fan_avg", "distribution": "uniform", "scale": 1.0, "seed": null}, "class_name": "VarianceScaling"}, "activation": "linear", "use_bias": false, "padding": "same", "kernel_constraint": null, "data_format": "channels_last", "bias_constraint": null, "bias_regularizer": null}, "inbound_nodes": [[["mixed1", 0, 0, {}]]], "class_name": "Conv2D"}, {"name": "conv2d_210", "config": {"dilation_rate": [1, 1], "name": "conv2d_210", "kernel_size": [5, 5], "activity_regularizer": null, "filters": 64, "kernel_regularizer": null, "strides": [1, 1], "trainable": false, "bias_initializer": {"config": {}, "class_name": "Zeros"}, "kernel_initializer": {"config": {"mode": "fan_avg", "distribution": "uniform", "scale": 1.0, "seed": null}, "class_name": "VarianceScaling"}, "activation": "linear", "use_bias": false, "padding": "same", "kernel_constraint": null, "data_format": "channels_last", "bias_constraint": null, "bias_regularizer": null}, "inbound_nodes": [[["activation_209", 0, 0, {}]]], "class_name": "Conv2D"}, {"name": "conv2d_213", "config": {"dilation_rate": [1, 1], "name": "conv2d_213", "kernel_size": [3, 3], "activity_regularizer": null, "filters": 96, "kernel_regularizer": null, "strides": [1, 1], "trainable": false, "bias_initializer": {"config": {}, "class_name": "Zeros"}, "kernel_initializer": {"config": {"mode": "fan_avg", "distribution": "uniform", "scale": 1.0, "seed": null}, "class_name": "VarianceScaling"}, "activation": "linear", "use_bias": false, "padding": "same", "kernel_constraint": null, "data_format": "channels_last", "bias_constraint": null, "bias_regularizer": null}, "inbound_nodes": [[["activation_212", 0, 0, {}]]], "class_name": "Conv2D"}, {"name": "conv2d_214", "config": {"dilation_rate": [1, 1], "name": "conv2d_214", "kernel_size": [1, 1], "activity_regularizer": null, "filters": 64, "kernel_regularizer": null, "strides": [1, 1], "trainable": false, "bias_initializer": {"config": {}, "class_name": "Zeros"}, "kernel_initializer": {"config": {"mode": "fan_avg", "distribution": "uniform", "scale": 1.0, "seed": null}, "class_name": "VarianceScaling"}, "activation": "linear", "use_bias": false, "padding": "same", "kernel_constraint": null, "data_format": "channels_last", "bias_constraint": null, "bias_regularizer": null}, "inbound_nodes": [[["average_pooling2d_21", 0, 0, {}]]], "class_name": "Conv2D"}, {"name": "batch_normalization_208", "config": {"name": "batch_normalization_208", "beta_constraint": null, "beta_initializer": {"config": {}, "class_name": "Zeros"}, "beta_regularizer": null, "trainable": false, "moving_variance_initializer": {"config": {}, "class_name": "Ones"}, "axis": 3, "epsilon": 0.001, "scale": false, "gamma_constraint": null, "gamma_initializer": {"config": {}, "class_name": "Ones"}, "moving_mean_initializer": {"config": {}, "class_name": "Zeros"}, "center": true, "momentum": 0.99, "gamma_regularizer": null}, "inbound_nodes": [[["conv2d_208", 0, 0, {}]]], "class_name": "BatchNormalization"}, {"name": "batch_normalization_210", "config": {"name": "batch_normalization_210", "beta_constraint": null, "beta_initializer": {"config": {}, "class_name": "Zeros"}, "beta_regularizer": null, "trainable": false, "moving_variance_initializer": {"config": {}, "class_name": "Ones"}, "axis": 3, "epsilon": 0.001, "scale": false, "gamma_constraint": null, "gamma_initializer": {"config": {}, "class_name": "Ones"}, "moving_mean_initializer": {"config": {}, "class_name": "Zeros"}, "center": true, "momentum": 0.99, "gamma_regularizer": null}, "inbound_nodes": [[["conv2d_210", 0, 0, {}]]], "class_name": "BatchNormalization"}, {"name": "batch_normalization_213", "config": {"name": "batch_normalization_213", "beta_constraint": null, "beta_initializer": {"config": {}, "class_name": "Zeros"}, "beta_regularizer": null, "trainable": false, "moving_variance_initializer": {"config": {}, "class_name": "Ones"}, "axis": 3, "epsilon": 0.001, "scale": false, "gamma_constraint": null, "gamma_initializer": {"config": {}, "class_name": "Ones"}, "moving_mean_initializer": {"config": {}, "class_name": "Zeros"}, "center": true, "momentum": 0.99, "gamma_regularizer": null}, "inbound_nodes": [[["conv2d_213", 0, 0, {}]]], "class_name": "BatchNormalization"}, {"name": "batch_normalization_214", "config": {"name": "batch_normalization_214", "beta_constraint": null, "beta_initializer": {"config": {}, "class_name": "Zeros"}, "beta_regularizer": null, "trainable": false, "moving_variance_initializer": {"config": {}, "class_name": "Ones"}, "axis": 3, "epsilon": 0.001, "scale": false, "gamma_constraint": null, "gamma_initializer": {"config": {}, "class_name": "Ones"}, "moving_mean_initializer": {"config": {}, "class_name": "Zeros"}, "center": true, "momentum": 0.99, "gamma_regularizer": null}, "inbound_nodes": [[["conv2d_214", 0, 0, {}]]], "class_name": "BatchNormalization"}, {"name": "activation_208", "config": {"name": "activation_208", "trainable": false, "activation": "relu"}, "inbound_nodes": [[["batch_normalization_208", 0, 0, {}]]], "class_name": "Activation"}, {"name": "activation_210", "config": {"name": "activation_210", "trainable": false, "activation": "relu"}, "inbound_nodes": [[["batch_normalization_210", 0, 0, {}]]], "class_name": "Activation"}, {"name": "activation_213", "config": {"name": "activation_213", "trainable": false, "activation": "relu"}, "inbound_nodes": [[["batch_normalization_213", 0, 0, {}]]], "class_name": "Activation"}, {"name": "activation_214", "config": {"name": "activation_214", "trainable": false, "activation": "relu"}, "inbound_nodes": [[["batch_normalization_214", 0, 0, {}]]], "class_name": "Activation"}, {"name": "mixed2", "config": {"name": "mixed2", "trainable": false, "axis": 3}, "inbound_nodes": [[["activation_208", 0, 0, {}], ["activation_210", 0, 0, {}], ["activation_213", 0, 0, {}], ["activation_214", 0, 0, {}]]], "class_name": "Concatenate"}, {"name": "conv2d_216", "config": {"dilation_rate": [1, 1], "name": "conv2d_216", "kernel_size": [1, 1], "activity_regularizer": null, "filters": 64, "kernel_regularizer": null, "strides": [1, 1], "trainable": false, "bias_initializer": {"config": {}, "class_name": "Zeros"}, "kernel_initializer": {"config": {"mode": "fan_avg", "distribution": "uniform", "scale": 1.0, "seed": null}, "class_name": "VarianceScaling"}, "activation": "linear", "use_bias": false, "padding": "same", "kernel_constraint": null, "data_format": "channels_last", "bias_constraint": null, "bias_regularizer": null}, "inbound_nodes": [[["mixed2", 0, 0, {}]]], "class_name": "Conv2D"}, {"name": "batch_normalization_216", "config": {"name": "batch_normalization_216", "beta_constraint": null, "beta_initializer": {"config": {}, "class_name": "Zeros"}, "beta_regularizer": null, "trainable": false, "moving_variance_initializer": {"config": {}, "class_name": "Ones"}, "axis": 3, "epsilon": 0.001, "scale": false, "gamma_constraint": null, "gamma_initializer": {"config": {}, "class_name": "Ones"}, "moving_mean_initializer": {"config": {}, "class_name": "Zeros"}, "center": true, "momentum": 0.99, "gamma_regularizer": null}, "inbound_nodes": [[["conv2d_216", 0, 0, {}]]], "class_name": "BatchNormalization"}, {"name": "activation_216", "config": {"name": "activation_216", "trainable": false, "activation": "relu"}, "inbound_nodes": [[["batch_normalization_216", 0, 0, {}]]], "class_name": "Activation"}, {"name": "conv2d_217", "config": {"dilation_rate": [1, 1], "name": "conv2d_217", "kernel_size": [3, 3], "activity_regularizer": null, "filters": 96, "kernel_regularizer": null, "strides": [1, 1], "trainable": false, "bias_initializer": {"config": {}, "class_name": "Zeros"}, "kernel_initializer": {"config": {"mode": "fan_avg", "distribution": "uniform", "scale": 1.0, "seed": null}, "class_name": "VarianceScaling"}, "activation": "linear", "use_bias": false, "padding": "same", "kernel_constraint": null, "data_format": "channels_last", "bias_constraint": null, "bias_regularizer": null}, "inbound_nodes": [[["activation_216", 0, 0, {}]]], "class_name": "Conv2D"}, {"name": "batch_normalization_217", "config": {"name": "batch_normalization_217", "beta_constraint": null, "beta_initializer": {"config": {}, "class_name": "Zeros"}, "beta_regularizer": null, "trainable": false, "moving_variance_initializer": {"config": {}, "class_name": "Ones"}, "axis": 3, "epsilon": 0.001, "scale": false, "gamma_constraint": null, "gamma_initializer": {"config": {}, "class_name": "Ones"}, "moving_mean_initializer": {"config": {}, "class_name": "Zeros"}, "center": true, "momentum": 0.99, "gamma_regularizer": null}, "inbound_nodes": [[["conv2d_217", 0, 0, {}]]], "class_name": "BatchNormalization"}, {"name": "activation_217", "config": {"name": "activation_217", "trainable": false, "activation": "relu"}, "inbound_nodes": [[["batch_normalization_217", 0, 0, {}]]], "class_name": "Activation"}, {"name": "conv2d_215", "config": {"dilation_rate": [1, 1], "name": "conv2d_215", "kernel_size": [3, 3], "activity_regularizer": null, "filters": 384, "kernel_regularizer": null, "strides": [2, 2], "trainable": false, "bias_initializer": {"config": {}, "class_name": "Zeros"}, "kernel_initializer": {"config": {"mode": "fan_avg", "distribution": "uniform", "scale": 1.0, "seed": null}, "class_name": "VarianceScaling"}, "activation": "linear", "use_bias": false, "padding": "valid", "kernel_constraint": null, "data_format": "channels_last", "bias_constraint": null, "bias_regularizer": null}, "inbound_nodes": [[["mixed2", 0, 0, {}]]], "class_name": "Conv2D"}, {"name": "conv2d_218", "config": {"dilation_rate": [1, 1], "name": "conv2d_218", "kernel_size": [3, 3], "activity_regularizer": null, "filters": 96, "kernel_regularizer": null, "strides": [2, 2], "trainable": false, "bias_initializer": {"config": {}, "class_name": "Zeros"}, "kernel_initializer": {"config": {"mode": "fan_avg", "distribution": "uniform", "scale": 1.0, "seed": null}, "class_name": "VarianceScaling"}, "activation": "linear", "use_bias": false, "padding": "valid", "kernel_constraint": null, "data_format": "channels_last", "bias_constraint": null, "bias_regularizer": null}, "inbound_nodes": [[["activation_217", 0, 0, {}]]], "class_name": "Conv2D"}, {"name": "batch_normalization_215", "config": {"name": "batch_normalization_215", "beta_constraint": null, "beta_initializer": {"config": {}, "class_name": "Zeros"}, "beta_regularizer": null, "trainable": false, "moving_variance_initializer": {"config": {}, "class_name": "Ones"}, "axis": 3, "epsilon": 0.001, "scale": false, "gamma_constraint": null, "gamma_initializer": {"config": {}, "class_name": "Ones"}, "moving_mean_initializer": {"config": {}, "class_name": "Zeros"}, "center": true, "momentum": 0.99, "gamma_regularizer": null}, "inbound_nodes": [[["conv2d_215", 0, 0, {}]]], "class_name": "BatchNormalization"}, {"name": "batch_normalization_218", "config": {"name": "batch_normalization_218", "beta_constraint": null, "beta_initializer": {"config": {}, "class_name": "Zeros"}, "beta_regularizer": null, "trainable": false, "moving_variance_initializer": {"config": {}, "class_name": "Ones"}, "axis": 3, "epsilon": 0.001, "scale": false, "gamma_constraint": null, "gamma_initializer": {"config": {}, "class_name": "Ones"}, "moving_mean_initializer": {"config": {}, "class_name": "Zeros"}, "center": true, "momentum": 0.99, "gamma_regularizer": null}, "inbound_nodes": [[["conv2d_218", 0, 0, {}]]], "class_name": "BatchNormalization"}, {"name": "activation_215", "config": {"name": "activation_215", "trainable": false, "activation": "relu"}, "inbound_nodes": [[["batch_normalization_215", 0, 0, {}]]], "class_name": "Activation"}, {"name": "activation_218", "config": {"name": "activation_218", "trainable": false, "activation": "relu"}, "inbound_nodes": [[["batch_normalization_218", 0, 0, {}]]], "class_name": "Activation"}, {"name": "max_pooling2d_11", "config": {"name": "max_pooling2d_11", "pool_size": [3, 3], "data_format": "channels_last", "strides": [2, 2], "padding": "valid", "trainable": false}, "inbound_nodes": [[["mixed2", 0, 0, {}]]], "class_name": "MaxPooling2D"}, {"name": "mixed3", "config": {"name": "mixed3", "trainable": false, "axis": 3}, "inbound_nodes": [[["activation_215", 0, 0, {}], ["activation_218", 0, 0, {}], ["max_pooling2d_11", 0, 0, {}]]], "class_name": "Concatenate"}, {"name": "conv2d_223", "config": {"dilation_rate": [1, 1], "name": "conv2d_223", "kernel_size": [1, 1], "activity_regularizer": null, "filters": 128, "kernel_regularizer": null, "strides": [1, 1], "trainable": false, "bias_initializer": {"config": {}, "class_name": "Zeros"}, "kernel_initializer": {"config": {"mode": "fan_avg", "distribution": "uniform", "scale": 1.0, "seed": null}, "class_name": "VarianceScaling"}, "activation": "linear", "use_bias": false, "padding": "same", "kernel_constraint": null, "data_format": "channels_last", "bias_constraint": null, "bias_regularizer": null}, "inbound_nodes": [[["mixed3", 0, 0, {}]]], "class_name": "Conv2D"}, {"name": "batch_normalization_223", "config": {"name": "batch_normalization_223", "beta_constraint": null, "beta_initializer": {"config": {}, "class_name": "Zeros"}, "beta_regularizer": null, "trainable": false, "moving_variance_initializer": {"config": {}, "class_name": "Ones"}, "axis": 3, "epsilon": 0.001, "scale": false, "gamma_constraint": null, "gamma_initializer": {"config": {}, "class_name": "Ones"}, "moving_mean_initializer": {"config": {}, "class_name": "Zeros"}, "center": true, "momentum": 0.99, "gamma_regularizer": null}, "inbound_nodes": [[["conv2d_223", 0, 0, {}]]], "class_name": "BatchNormalization"}, {"name": "activation_223", "config": {"name": "activation_223", "trainable": false, "activation": "relu"}, "inbound_nodes": [[["batch_normalization_223", 0, 0, {}]]], "class_name": "Activation"}, {"name": "conv2d_224", "config": {"dilation_rate": [1, 1], "name": "conv2d_224", "kernel_size": [7, 1], "activity_regularizer": null, "filters": 128, "kernel_regularizer": null, "strides": [1, 1], "trainable": false, "bias_initializer": {"config": {}, "class_name": "Zeros"}, "kernel_initializer": {"config": {"mode": "fan_avg", "distribution": "uniform", "scale": 1.0, "seed": null}, "class_name": "VarianceScaling"}, "activation": "linear", "use_bias": false, "padding": "same", "kernel_constraint": null, "data_format": "channels_last", "bias_constraint": null, "bias_regularizer": null}, "inbound_nodes": [[["activation_223", 0, 0, {}]]], "class_name": "Conv2D"}, {"name": "batch_normalization_224", "config": {"name": "batch_normalization_224", "beta_constraint": null, "beta_initializer": {"config": {}, "class_name": "Zeros"}, "beta_regularizer": null, "trainable": false, "moving_variance_initializer": {"config": {}, "class_name": "Ones"}, "axis": 3, "epsilon": 0.001, "scale": false, "gamma_constraint": null, "gamma_initializer": {"config": {}, "class_name": "Ones"}, "moving_mean_initializer": {"config": {}, "class_name": "Zeros"}, "center": true, "momentum": 0.99, "gamma_regularizer": null}, "inbound_nodes": [[["conv2d_224", 0, 0, {}]]], "class_name": "BatchNormalization"}, {"name": "activation_224", "config": {"name": "activation_224", "trainable": false, "activation": "relu"}, "inbound_nodes": [[["batch_normalization_224", 0, 0, {}]]], "class_name": "Activation"}, {"name": "conv2d_220", "config": {"dilation_rate": [1, 1], "name": "conv2d_220", "kernel_size": [1, 1], "activity_regularizer": null, "filters": 128, "kernel_regularizer": null, "strides": [1, 1], "trainable": false, "bias_initializer": {"config": {}, "class_name": "Zeros"}, "kernel_initializer": {"config": {"mode": "fan_avg", "distribution": "uniform", "scale": 1.0, "seed": null}, "class_name": "VarianceScaling"}, "activation": "linear", "use_bias": false, "padding": "same", "kernel_constraint": null, "data_format": "channels_last", "bias_constraint": null, "bias_regularizer": null}, "inbound_nodes": [[["mixed3", 0, 0, {}]]], "class_name": "Conv2D"}, {"name": "conv2d_225", "config": {"dilation_rate": [1, 1], "name": "conv2d_225", "kernel_size": [1, 7], "activity_regularizer": null, "filters": 128, "kernel_regularizer": null, "strides": [1, 1], "trainable": false, "bias_initializer": {"config": {}, "class_name": "Zeros"}, "kernel_initializer": {"config": {"mode": "fan_avg", "distribution": "uniform", "scale": 1.0, "seed": null}, "class_name": "VarianceScaling"}, "activation": "linear", "use_bias": false, "padding": "same", "kernel_constraint": null, "data_format": "channels_last", "bias_constraint": null, "bias_regularizer": null}, "inbound_nodes": [[["activation_224", 0, 0, {}]]], "class_name": "Conv2D"}, {"name": "batch_normalization_220", "config": {"name": "batch_normalization_220", "beta_constraint": null, "beta_initializer": {"config": {}, "class_name": "Zeros"}, "beta_regularizer": null, "trainable": false, "moving_variance_initializer": {"config": {}, "class_name": "Ones"}, "axis": 3, "epsilon": 0.001, "scale": false, "gamma_constraint": null, "gamma_initializer": {"config": {}, "class_name": "Ones"}, "moving_mean_initializer": {"config": {}, "class_name": "Zeros"}, "center": true, "momentum": 0.99, "gamma_regularizer": null}, "inbound_nodes": [[["conv2d_220", 0, 0, {}]]], "class_name": "BatchNormalization"}, {"name": "batch_normalization_225", "config": {"name": "batch_normalization_225", "beta_constraint": null, "beta_initializer": {"config": {}, "class_name": "Zeros"}, "beta_regularizer": null, "trainable": false, "moving_variance_initializer": {"config": {}, "class_name": "Ones"}, "axis": 3, "epsilon": 0.001, "scale": false, "gamma_constraint": null, "gamma_initializer": {"config": {}, "class_name": "Ones"}, "moving_mean_initializer": {"config": {}, "class_name": "Zeros"}, "center": true, "momentum": 0.99, "gamma_regularizer": null}, "inbound_nodes": [[["conv2d_225", 0, 0, {}]]], "class_name": "BatchNormalization"}, {"name": "activation_220", "config": {"name": "activation_220", "trainable": false, "activation": "relu"}, "inbound_nodes": [[["batch_normalization_220", 0, 0, {}]]], "class_name": "Activation"}, {"name": "activation_225", "config": {"name": "activation_225", "trainable": false, "activation": "relu"}, "inbound_nodes": [[["batch_normalization_225", 0, 0, {}]]], "class_name": "Activation"}, {"name": "conv2d_221", "config": {"dilation_rate": [1, 1], "name": "conv2d_221", "kernel_size": [1, 7], "activity_regularizer": null, "filters": 128, "kernel_regularizer": null, "strides": [1, 1], "trainable": false, "bias_initializer": {"config": {}, "class_name": "Zeros"}, "kernel_initializer": {"config": {"mode": "fan_avg", "distribution": "uniform", "scale": 1.0, "seed": null}, "class_name": "VarianceScaling"}, "activation": "linear", "use_bias": false, "padding": "same", "kernel_constraint": null, "data_format": "channels_last", "bias_constraint": null, "bias_regularizer": null}, "inbound_nodes": [[["activation_220", 0, 0, {}]]], "class_name": "Conv2D"}, {"name": "conv2d_226", "config": {"dilation_rate": [1, 1], "name": "conv2d_226", "kernel_size": [7, 1], "activity_regularizer": null, "filters": 128, "kernel_regularizer": null, "strides": [1, 1], "trainable": false, "bias_initializer": {"config": {}, "class_name": "Zeros"}, "kernel_initializer": {"config": {"mode": "fan_avg", "distribution": "uniform", "scale": 1.0, "seed": null}, "class_name": "VarianceScaling"}, "activation": "linear", "use_bias": false, "padding": "same", "kernel_constraint": null, "data_format": "channels_last", "bias_constraint": null, "bias_regularizer": null}, "inbound_nodes": [[["activation_225", 0, 0, {}]]], "class_name": "Conv2D"}, {"name": "batch_normalization_221", "config": {"name": "batch_normalization_221", "beta_constraint": null, "beta_initializer": {"config": {}, "class_name": "Zeros"}, "beta_regularizer": null, "trainable": false, "moving_variance_initializer": {"config": {}, "class_name": "Ones"}, "axis": 3, "epsilon": 0.001, "scale": false, "gamma_constraint": null, "gamma_initializer": {"config": {}, "class_name": "Ones"}, "moving_mean_initializer": {"config": {}, "class_name": "Zeros"}, "center": true, "momentum": 0.99, "gamma_regularizer": null}, "inbound_nodes": [[["conv2d_221", 0, 0, {}]]], "class_name": "BatchNormalization"}, {"name": "batch_normalization_226", "config": {"name": "batch_normalization_226", "beta_constraint": null, "beta_initializer": {"config": {}, "class_name": "Zeros"}, "beta_regularizer": null, "trainable": false, "moving_variance_initializer": {"config": {}, "class_name": "Ones"}, "axis": 3, "epsilon": 0.001, "scale": false, "gamma_constraint": null, "gamma_initializer": {"config": {}, "class_name": "Ones"}, "moving_mean_initializer": {"config": {}, "class_name": "Zeros"}, "center": true, "momentum": 0.99, "gamma_regularizer": null}, "inbound_nodes": [[["conv2d_226", 0, 0, {}]]], "class_name": "BatchNormalization"}, {"name": "activation_221", "config": {"name": "activation_221", "trainable": false, "activation": "relu"}, "inbound_nodes": [[["batch_normalization_221", 0, 0, {}]]], "class_name": "Activation"}, {"name": "activation_226", "config": {"name": "activation_226", "trainable": false, "activation": "relu"}, "inbound_nodes": [[["batch_normalization_226", 0, 0, {}]]], "class_name": "Activation"}, {"name": "average_pooling2d_22", "config": {"name": "average_pooling2d_22", "pool_size": [3, 3], "data_format": "channels_last", "strides": [1, 1], "padding": "same", "trainable": false}, "inbound_nodes": [[["mixed3", 0, 0, {}]]], "class_name": "AveragePooling2D"}, {"name": "conv2d_219", "config": {"dilation_rate": [1, 1], "name": "conv2d_219", "kernel_size": [1, 1], "activity_regularizer": null, "filters": 192, "kernel_regularizer": null, "strides": [1, 1], "trainable": false, "bias_initializer": {"config": {}, "class_name": "Zeros"}, "kernel_initializer": {"config": {"mode": "fan_avg", "distribution": "uniform", "scale": 1.0, "seed": null}, "class_name": "VarianceScaling"}, "activation": "linear", "use_bias": false, "padding": "same", "kernel_constraint": null, "data_format": "channels_last", "bias_constraint": null, "bias_regularizer": null}, "inbound_nodes": [[["mixed3", 0, 0, {}]]], "class_name": "Conv2D"}, {"name": "conv2d_222", "config": {"dilation_rate": [1, 1], "name": "conv2d_222", "kernel_size": [7, 1], "activity_regularizer": null, "filters": 192, "kernel_regularizer": null, "strides": [1, 1], "trainable": false, "bias_initializer": {"config": {}, "class_name": "Zeros"}, "kernel_initializer": {"config": {"mode": "fan_avg", "distribution": "uniform", "scale": 1.0, "seed": null}, "class_name": "VarianceScaling"}, "activation": "linear", "use_bias": false, "padding": "same", "kernel_constraint": null, "data_format": "channels_last", "bias_constraint": null, "bias_regularizer": null}, "inbound_nodes": [[["activation_221", 0, 0, {}]]], "class_name": "Conv2D"}, {"name": "conv2d_227", "config": {"dilation_rate": [1, 1], "name": "conv2d_227", "kernel_size": [1, 7], "activity_regularizer": null, "filters": 192, "kernel_regularizer": null, "strides": [1, 1], "trainable": false, "bias_initializer": {"config": {}, "class_name": "Zeros"}, "kernel_initializer": {"config": {"mode": "fan_avg", "distribution": "uniform", "scale": 1.0, "seed": null}, "class_name": "VarianceScaling"}, "activation": "linear", "use_bias": false, "padding": "same", "kernel_constraint": null, "data_format": "channels_last", "bias_constraint": null, "bias_regularizer": null}, "inbound_nodes": [[["activation_226", 0, 0, {}]]], "class_name": "Conv2D"}, {"name": "conv2d_228", "config": {"dilation_rate": [1, 1], "name": "conv2d_228", "kernel_size": [1, 1], "activity_regularizer": null, "filters": 192, "kernel_regularizer": null, "strides": [1, 1], "trainable": false, "bias_initializer": {"config": {}, "class_name": "Zeros"}, "kernel_initializer": {"config": {"mode": "fan_avg", "distribution": "uniform", "scale": 1.0, "seed": null}, "class_name": "VarianceScaling"}, "activation": "linear", "use_bias": false, "padding": "same", "kernel_constraint": null, "data_format": "channels_last", "bias_constraint": null, "bias_regularizer": null}, "inbound_nodes": [[["average_pooling2d_22", 0, 0, {}]]], "class_name": "Conv2D"}, {"name": "batch_normalization_219", "config": {"name": "batch_normalization_219", "beta_constraint": null, "beta_initializer": {"config": {}, "class_name": "Zeros"}, "beta_regularizer": null, "trainable": false, "moving_variance_initializer": {"config": {}, "class_name": "Ones"}, "axis": 3, "epsilon": 0.001, "scale": false, "gamma_constraint": null, "gamma_initializer": {"config": {}, "class_name": "Ones"}, "moving_mean_initializer": {"config": {}, "class_name": "Zeros"}, "center": true, "momentum": 0.99, "gamma_regularizer": null}, "inbound_nodes": [[["conv2d_219", 0, 0, {}]]], "class_name": "BatchNormalization"}, {"name": "batch_normalization_222", "config": {"name": "batch_normalization_222", "beta_constraint": null, "beta_initializer": {"config": {}, "class_name": "Zeros"}, "beta_regularizer": null, "trainable": false, "moving_variance_initializer": {"config": {}, "class_name": "Ones"}, "axis": 3, "epsilon": 0.001, "scale": false, "gamma_constraint": null, "gamma_initializer": {"config": {}, "class_name": "Ones"}, "moving_mean_initializer": {"config": {}, "class_name": "Zeros"}, "center": true, "momentum": 0.99, "gamma_regularizer": null}, "inbound_nodes": [[["conv2d_222", 0, 0, {}]]], "class_name": "BatchNormalization"}, {"name": "batch_normalization_227", "config": {"name": "batch_normalization_227", "beta_constraint": null, "beta_initializer": {"config": {}, "class_name": "Zeros"}, "beta_regularizer": null, "trainable": false, "moving_variance_initializer": {"config": {}, "class_name": "Ones"}, "axis": 3, "epsilon": 0.001, "scale": false, "gamma_constraint": null, "gamma_initializer": {"config": {}, "class_name": "Ones"}, "moving_mean_initializer": {"config": {}, "class_name": "Zeros"}, "center": true, "momentum": 0.99, "gamma_regularizer": null}, "inbound_nodes": [[["conv2d_227", 0, 0, {}]]], "class_name": "BatchNormalization"}, {"name": "batch_normalization_228", "config": {"name": "batch_normalization_228", "beta_constraint": null, "beta_initializer": {"config": {}, "class_name": "Zeros"}, "beta_regularizer": null, "trainable": false, "moving_variance_initializer": {"config": {}, "class_name": "Ones"}, "axis": 3, "epsilon": 0.001, "scale": false, "gamma_constraint": null, "gamma_initializer": {"config": {}, "class_name": "Ones"}, "moving_mean_initializer": {"config": {}, "class_name": "Zeros"}, "center": true, "momentum": 0.99, "gamma_regularizer": null}, "inbound_nodes": [[["conv2d_228", 0, 0, {}]]], "class_name": "BatchNormalization"}, {"name": "activation_219", "config": {"name": "activation_219", "trainable": false, "activation": "relu"}, "inbound_nodes": [[["batch_normalization_219", 0, 0, {}]]], "class_name": "Activation"}, {"name": "activation_222", "config": {"name": "activation_222", "trainable": false, "activation": "relu"}, "inbound_nodes": [[["batch_normalization_222", 0, 0, {}]]], "class_name": "Activation"}, {"name": "activation_227", "config": {"name": "activation_227", "trainable": false, "activation": "relu"}, "inbound_nodes": [[["batch_normalization_227", 0, 0, {}]]], "class_name": "Activation"}, {"name": "activation_228", "config": {"name": "activation_228", "trainable": false, "activation": "relu"}, "inbound_nodes": [[["batch_normalization_228", 0, 0, {}]]], "class_name": "Activation"}, {"name": "mixed4", "config": {"name": "mixed4", "trainable": false, "axis": 3}, "inbound_nodes": [[["activation_219", 0, 0, {}], ["activation_222", 0, 0, {}], ["activation_227", 0, 0, {}], ["activation_228", 0, 0, {}]]], "class_name": "Concatenate"}, {"name": "conv2d_233", "config": {"dilation_rate": [1, 1], "name": "conv2d_233", "kernel_size": [1, 1], "activity_regularizer": null, "filters": 160, "kernel_regularizer": null, "strides": [1, 1], "trainable": false, "bias_initializer": {"config": {}, "class_name": "Zeros"}, "kernel_initializer": {"config": {"mode": "fan_avg", "distribution": "uniform", "scale": 1.0, "seed": null}, "class_name": "VarianceScaling"}, "activation": "linear", "use_bias": false, "padding": "same", "kernel_constraint": null, "data_format": "channels_last", "bias_constraint": null, "bias_regularizer": null}, "inbound_nodes": [[["mixed4", 0, 0, {}]]], "class_name": "Conv2D"}, {"name": "batch_normalization_233", "config": {"name": "batch_normalization_233", "beta_constraint": null, "beta_initializer": {"config": {}, "class_name": "Zeros"}, "beta_regularizer": null, "trainable": false, "moving_variance_initializer": {"config": {}, "class_name": "Ones"}, "axis": 3, "epsilon": 0.001, "scale": false, "gamma_constraint": null, "gamma_initializer": {"config": {}, "class_name": "Ones"}, "moving_mean_initializer": {"config": {}, "class_name": "Zeros"}, "center": true, "momentum": 0.99, "gamma_regularizer": null}, "inbound_nodes": [[["conv2d_233", 0, 0, {}]]], "class_name": "BatchNormalization"}, {"name": "activation_233", "config": {"name": "activation_233", "trainable": false, "activation": "relu"}, "inbound_nodes": [[["batch_normalization_233", 0, 0, {}]]], "class_name": "Activation"}, {"name": "conv2d_234", "config": {"dilation_rate": [1, 1], "name": "conv2d_234", "kernel_size": [7, 1], "activity_regularizer": null, "filters": 160, "kernel_regularizer": null, "strides": [1, 1], "trainable": false, "bias_initializer": {"config": {}, "class_name": "Zeros"}, "kernel_initializer": {"config": {"mode": "fan_avg", "distribution": "uniform", "scale": 1.0, "seed": null}, "class_name": "VarianceScaling"}, "activation": "linear", "use_bias": false, "padding": "same", "kernel_constraint": null, "data_format": "channels_last", "bias_constraint": null, "bias_regularizer": null}, "inbound_nodes": [[["activation_233", 0, 0, {}]]], "class_name": "Conv2D"}, {"name": "batch_normalization_234", "config": {"name": "batch_normalization_234", "beta_constraint": null, "beta_initializer": {"config": {}, "class_name": "Zeros"}, "beta_regularizer": null, "trainable": false, "moving_variance_initializer": {"config": {}, "class_name": "Ones"}, "axis": 3, "epsilon": 0.001, "scale": false, "gamma_constraint": null, "gamma_initializer": {"config": {}, "class_name": "Ones"}, "moving_mean_initializer": {"config": {}, "class_name": "Zeros"}, "center": true, "momentum": 0.99, "gamma_regularizer": null}, "inbound_nodes": [[["conv2d_234", 0, 0, {}]]], "class_name": "BatchNormalization"}, {"name": "activation_234", "config": {"name": "activation_234", "trainable": false, "activation": "relu"}, "inbound_nodes": [[["batch_normalization_234", 0, 0, {}]]], "class_name": "Activation"}, {"name": "conv2d_230", "config": {"dilation_rate": [1, 1], "name": "conv2d_230", "kernel_size": [1, 1], "activity_regularizer": null, "filters": 160, "kernel_regularizer": null, "strides": [1, 1], "trainable": false, "bias_initializer": {"config": {}, "class_name": "Zeros"}, "kernel_initializer": {"config": {"mode": "fan_avg", "distribution": "uniform", "scale": 1.0, "seed": null}, "class_name": "VarianceScaling"}, "activation": "linear", "use_bias": false, "padding": "same", "kernel_constraint": null, "data_format": "channels_last", "bias_constraint": null, "bias_regularizer": null}, "inbound_nodes": [[["mixed4", 0, 0, {}]]], "class_name": "Conv2D"}, {"name": "conv2d_235", "config": {"dilation_rate": [1, 1], "name": "conv2d_235", "kernel_size": [1, 7], "activity_regularizer": null, "filters": 160, "kernel_regularizer": null, "strides": [1, 1], "trainable": false, "bias_initializer": {"config": {}, "class_name": "Zeros"}, "kernel_initializer": {"config": {"mode": "fan_avg", "distribution": "uniform", "scale": 1.0, "seed": null}, "class_name": "VarianceScaling"}, "activation": "linear", "use_bias": false, "padding": "same", "kernel_constraint": null, "data_format": "channels_last", "bias_constraint": null, "bias_regularizer": null}, "inbound_nodes": [[["activation_234", 0, 0, {}]]], "class_name": "Conv2D"}, {"name": "batch_normalization_230", "config": {"name": "batch_normalization_230", "beta_constraint": null, "beta_initializer": {"config": {}, "class_name": "Zeros"}, "beta_regularizer": null, "trainable": false, "moving_variance_initializer": {"config": {}, "class_name": "Ones"}, "axis": 3, "epsilon": 0.001, "scale": false, "gamma_constraint": null, "gamma_initializer": {"config": {}, "class_name": "Ones"}, "moving_mean_initializer": {"config": {}, "class_name": "Zeros"}, "center": true, "momentum": 0.99, "gamma_regularizer": null}, "inbound_nodes": [[["conv2d_230", 0, 0, {}]]], "class_name": "BatchNormalization"}, {"name": "batch_normalization_235", "config": {"name": "batch_normalization_235", "beta_constraint": null, "beta_initializer": {"config": {}, "class_name": "Zeros"}, "beta_regularizer": null, "trainable": false, "moving_variance_initializer": {"config": {}, "class_name": "Ones"}, "axis": 3, "epsilon": 0.001, "scale": false, "gamma_constraint": null, "gamma_initializer": {"config": {}, "class_name": "Ones"}, "moving_mean_initializer": {"config": {}, "class_name": "Zeros"}, "center": true, "momentum": 0.99, "gamma_regularizer": null}, "inbound_nodes": [[["conv2d_235", 0, 0, {}]]], "class_name": "BatchNormalization"}, {"name": "activation_230", "config": {"name": "activation_230", "trainable": false, "activation": "relu"}, "inbound_nodes": [[["batch_normalization_230", 0, 0, {}]]], "class_name": "Activation"}, {"name": "activation_235", "config": {"name": "activation_235", "trainable": false, "activation": "relu"}, "inbound_nodes": [[["batch_normalization_235", 0, 0, {}]]], "class_name": "Activation"}, {"name": "conv2d_231", "config": {"dilation_rate": [1, 1], "name": "conv2d_231", "kernel_size": [1, 7], "activity_regularizer": null, "filters": 160, "kernel_regularizer": null, "strides": [1, 1], "trainable": false, "bias_initializer": {"config": {}, "class_name": "Zeros"}, "kernel_initializer": {"config": {"mode": "fan_avg", "distribution": "uniform", "scale": 1.0, "seed": null}, "class_name": "VarianceScaling"}, "activation": "linear", "use_bias": false, "padding": "same", "kernel_constraint": null, "data_format": "channels_last", "bias_constraint": null, "bias_regularizer": null}, "inbound_nodes": [[["activation_230", 0, 0, {}]]], "class_name": "Conv2D"}, {"name": "conv2d_236", "config": {"dilation_rate": [1, 1], "name": "conv2d_236", "kernel_size": [7, 1], "activity_regularizer": null, "filters": 160, "kernel_regularizer": null, "strides": [1, 1], "trainable": false, "bias_initializer": {"config": {}, "class_name": "Zeros"}, "kernel_initializer": {"config": {"mode": "fan_avg", "distribution": "uniform", "scale": 1.0, "seed": null}, "class_name": "VarianceScaling"}, "activation": "linear", "use_bias": false, "padding": "same", "kernel_constraint": null, "data_format": "channels_last", "bias_constraint": null, "bias_regularizer": null}, "inbound_nodes": [[["activation_235", 0, 0, {}]]], "class_name": "Conv2D"}, {"name": "batch_normalization_231", "config": {"name": "batch_normalization_231", "beta_constraint": null, "beta_initializer": {"config": {}, "class_name": "Zeros"}, "beta_regularizer": null, "trainable": false, "moving_variance_initializer": {"config": {}, "class_name": "Ones"}, "axis": 3, "epsilon": 0.001, "scale": false, "gamma_constraint": null, "gamma_initializer": {"config": {}, "class_name": "Ones"}, "moving_mean_initializer": {"config": {}, "class_name": "Zeros"}, "center": true, "momentum": 0.99, "gamma_regularizer": null}, "inbound_nodes": [[["conv2d_231", 0, 0, {}]]], "class_name": "BatchNormalization"}, {"name": "batch_normalization_236", "config": {"name": "batch_normalization_236", "beta_constraint": null, "beta_initializer": {"config": {}, "class_name": "Zeros"}, "beta_regularizer": null, "trainable": false, "moving_variance_initializer": {"config": {}, "class_name": "Ones"}, "axis": 3, "epsilon": 0.001, "scale": false, "gamma_constraint": null, "gamma_initializer": {"config": {}, "class_name": "Ones"}, "moving_mean_initializer": {"config": {}, "class_name": "Zeros"}, "center": true, "momentum": 0.99, "gamma_regularizer": null}, "inbound_nodes": [[["conv2d_236", 0, 0, {}]]], "class_name": "BatchNormalization"}, {"name": "activation_231", "config": {"name": "activation_231", "trainable": false, "activation": "relu"}, "inbound_nodes": [[["batch_normalization_231", 0, 0, {}]]], "class_name": "Activation"}, {"name": "activation_236", "config": {"name": "activation_236", "trainable": false, "activation": "relu"}, "inbound_nodes": [[["batch_normalization_236", 0, 0, {}]]], "class_name": "Activation"}, {"name": "average_pooling2d_23", "config": {"name": "average_pooling2d_23", "pool_size": [3, 3], "data_format": "channels_last", "strides": [1, 1], "padding": "same", "trainable": false}, "inbound_nodes": [[["mixed4", 0, 0, {}]]], "class_name": "AveragePooling2D"}, {"name": "conv2d_229", "config": {"dilation_rate": [1, 1], "name": "conv2d_229", "kernel_size": [1, 1], "activity_regularizer": null, "filters": 192, "kernel_regularizer": null, "strides": [1, 1], "trainable": false, "bias_initializer": {"config": {}, "class_name": "Zeros"}, "kernel_initializer": {"config": {"mode": "fan_avg", "distribution": "uniform", "scale": 1.0, "seed": null}, "class_name": "VarianceScaling"}, "activation": "linear", "use_bias": false, "padding": "same", "kernel_constraint": null, "data_format": "channels_last", "bias_constraint": null, "bias_regularizer": null}, "inbound_nodes": [[["mixed4", 0, 0, {}]]], "class_name": "Conv2D"}, {"name": "conv2d_232", "config": {"dilation_rate": [1, 1], "name": "conv2d_232", "kernel_size": [7, 1], "activity_regularizer": null, "filters": 192, "kernel_regularizer": null, "strides": [1, 1], "trainable": false, "bias_initializer": {"config": {}, "class_name": "Zeros"}, "kernel_initializer": {"config": {"mode": "fan_avg", "distribution": "uniform", "scale": 1.0, "seed": null}, "class_name": "VarianceScaling"}, "activation": "linear", "use_bias": false, "padding": "same", "kernel_constraint": null, "data_format": "channels_last", "bias_constraint": null, "bias_regularizer": null}, "inbound_nodes": [[["activation_231", 0, 0, {}]]], "class_name": "Conv2D"}, {"name": "conv2d_237", "config": {"dilation_rate": [1, 1], "name": "conv2d_237", "kernel_size": [1, 7], "activity_regularizer": null, "filters": 192, "kernel_regularizer": null, "strides": [1, 1], "trainable": false, "bias_initializer": {"config": {}, "class_name": "Zeros"}, "kernel_initializer": {"config": {"mode": "fan_avg", "distribution": "uniform", "scale": 1.0, "seed": null}, "class_name": "VarianceScaling"}, "activation": "linear", "use_bias": false, "padding": "same", "kernel_constraint": null, "data_format": "channels_last", "bias_constraint": null, "bias_regularizer": null}, "inbound_nodes": [[["activation_236", 0, 0, {}]]], "class_name": "Conv2D"}, {"name": "conv2d_238", "config": {"dilation_rate": [1, 1], "name": "conv2d_238", "kernel_size": [1, 1], "activity_regularizer": null, "filters": 192, "kernel_regularizer": null, "strides": [1, 1], "trainable": false, "bias_initializer": {"config": {}, "class_name": "Zeros"}, "kernel_initializer": {"config": {"mode": "fan_avg", "distribution": "uniform", "scale": 1.0, "seed": null}, "class_name": "VarianceScaling"}, "activation": "linear", "use_bias": false, "padding": "same", "kernel_constraint": null, "data_format": "channels_last", "bias_constraint": null, "bias_regularizer": null}, "inbound_nodes": [[["average_pooling2d_23", 0, 0, {}]]], "class_name": "Conv2D"}, {"name": "batch_normalization_229", "config": {"name": "batch_normalization_229", "beta_constraint": null, "beta_initializer": {"config": {}, "class_name": "Zeros"}, "beta_regularizer": null, "trainable": false, "moving_variance_initializer": {"config": {}, "class_name": "Ones"}, "axis": 3, "epsilon": 0.001, "scale": false, "gamma_constraint": null, "gamma_initializer": {"config": {}, "class_name": "Ones"}, "moving_mean_initializer": {"config": {}, "class_name": "Zeros"}, "center": true, "momentum": 0.99, "gamma_regularizer": null}, "inbound_nodes": [[["conv2d_229", 0, 0, {}]]], "class_name": "BatchNormalization"}, {"name": "batch_normalization_232", "config": {"name": "batch_normalization_232", "beta_constraint": null, "beta_initializer": {"config": {}, "class_name": "Zeros"}, "beta_regularizer": null, "trainable": false, "moving_variance_initializer": {"config": {}, "class_name": "Ones"}, "axis": 3, "epsilon": 0.001, "scale": false, "gamma_constraint": null, "gamma_initializer": {"config": {}, "class_name": "Ones"}, "moving_mean_initializer": {"config": {}, "class_name": "Zeros"}, "center": true, "momentum": 0.99, "gamma_regularizer": null}, "inbound_nodes": [[["conv2d_232", 0, 0, {}]]], "class_name": "BatchNormalization"}, {"name": "batch_normalization_237", "config": {"name": "batch_normalization_237", "beta_constraint": null, "beta_initializer": {"config": {}, "class_name": "Zeros"}, "beta_regularizer": null, "trainable": false, "moving_variance_initializer": {"config": {}, "class_name": "Ones"}, "axis": 3, "epsilon": 0.001, "scale": false, "gamma_constraint": null, "gamma_initializer": {"config": {}, "class_name": "Ones"}, "moving_mean_initializer": {"config": {}, "class_name": "Zeros"}, "center": true, "momentum": 0.99, "gamma_regularizer": null}, "inbound_nodes": [[["conv2d_237", 0, 0, {}]]], "class_name": "BatchNormalization"}, {"name": "batch_normalization_238", "config": {"name": "batch_normalization_238", "beta_constraint": null, "beta_initializer": {"config": {}, "class_name": "Zeros"}, "beta_regularizer": null, "trainable": false, "moving_variance_initializer": {"config": {}, "class_name": "Ones"}, "axis": 3, "epsilon": 0.001, "scale": false, "gamma_constraint": null, "gamma_initializer": {"config": {}, "class_name": "Ones"}, "moving_mean_initializer": {"config": {}, "class_name": "Zeros"}, "center": true, "momentum": 0.99, "gamma_regularizer": null}, "inbound_nodes": [[["conv2d_238", 0, 0, {}]]], "class_name": "BatchNormalization"}, {"name": "activation_229", "config": {"name": "activation_229", "trainable": false, "activation": "relu"}, "inbound_nodes": [[["batch_normalization_229", 0, 0, {}]]], "class_name": "Activation"}, {"name": "activation_232", "config": {"name": "activation_232", "trainable": false, "activation": "relu"}, "inbound_nodes": [[["batch_normalization_232", 0, 0, {}]]], "class_name": "Activation"}, {"name": "activation_237", "config": {"name": "activation_237", "trainable": false, "activation": "relu"}, "inbound_nodes": [[["batch_normalization_237", 0, 0, {}]]], "class_name": "Activation"}, {"name": "activation_238", "config": {"name": "activation_238", "trainable": false, "activation": "relu"}, "inbound_nodes": [[["batch_normalization_238", 0, 0, {}]]], "class_name": "Activation"}, {"name": "mixed5", "config": {"name": "mixed5", "trainable": false, "axis": 3}, "inbound_nodes": [[["activation_229", 0, 0, {}], ["activation_232", 0, 0, {}], ["activation_237", 0, 0, {}], ["activation_238", 0, 0, {}]]], "class_name": "Concatenate"}, {"name": "conv2d_243", "config": {"dilation_rate": [1, 1], "name": "conv2d_243", "kernel_size": [1, 1], "activity_regularizer": null, "filters": 160, "kernel_regularizer": null, "strides": [1, 1], "trainable": false, "bias_initializer": {"config": {}, "class_name": "Zeros"}, "kernel_initializer": {"config": {"mode": "fan_avg", "distribution": "uniform", "scale": 1.0, "seed": null}, "class_name": "VarianceScaling"}, "activation": "linear", "use_bias": false, "padding": "same", "kernel_constraint": null, "data_format": "channels_last", "bias_constraint": null, "bias_regularizer": null}, "inbound_nodes": [[["mixed5", 0, 0, {}]]], "class_name": "Conv2D"}, {"name": "batch_normalization_243", "config": {"name": "batch_normalization_243", "beta_constraint": null, "beta_initializer": {"config": {}, "class_name": "Zeros"}, "beta_regularizer": null, "trainable": false, "moving_variance_initializer": {"config": {}, "class_name": "Ones"}, "axis": 3, "epsilon": 0.001, "scale": false, "gamma_constraint": null, "gamma_initializer": {"config": {}, "class_name": "Ones"}, "moving_mean_initializer": {"config": {}, "class_name": "Zeros"}, "center": true, "momentum": 0.99, "gamma_regularizer": null}, "inbound_nodes": [[["conv2d_243", 0, 0, {}]]], "class_name": "BatchNormalization"}, {"name": "activation_243", "config": {"name": "activation_243", "trainable": false, "activation": "relu"}, "inbound_nodes": [[["batch_normalization_243", 0, 0, {}]]], "class_name": "Activation"}, {"name": "conv2d_244", "config": {"dilation_rate": [1, 1], "name": "conv2d_244", "kernel_size": [7, 1], "activity_regularizer": null, "filters": 160, "kernel_regularizer": null, "strides": [1, 1], "trainable": false, "bias_initializer": {"config": {}, "class_name": "Zeros"}, "kernel_initializer": {"config": {"mode": "fan_avg", "distribution": "uniform", "scale": 1.0, "seed": null}, "class_name": "VarianceScaling"}, "activation": "linear", "use_bias": false, "padding": "same", "kernel_constraint": null, "data_format": "channels_last", "bias_constraint": null, "bias_regularizer": null}, "inbound_nodes": [[["activation_243", 0, 0, {}]]], "class_name": "Conv2D"}, {"name": "batch_normalization_244", "config": {"name": "batch_normalization_244", "beta_constraint": null, "beta_initializer": {"config": {}, "class_name": "Zeros"}, "beta_regularizer": null, "trainable": false, "moving_variance_initializer": {"config": {}, "class_name": "Ones"}, "axis": 3, "epsilon": 0.001, "scale": false, "gamma_constraint": null, "gamma_initializer": {"config": {}, "class_name": "Ones"}, "moving_mean_initializer": {"config": {}, "class_name": "Zeros"}, "center": true, "momentum": 0.99, "gamma_regularizer": null}, "inbound_nodes": [[["conv2d_244", 0, 0, {}]]], "class_name": "BatchNormalization"}, {"name": "activation_244", "config": {"name": "activation_244", "trainable": false, "activation": "relu"}, "inbound_nodes": [[["batch_normalization_244", 0, 0, {}]]], "class_name": "Activation"}, {"name": "conv2d_240", "config": {"dilation_rate": [1, 1], "name": "conv2d_240", "kernel_size": [1, 1], "activity_regularizer": null, "filters": 160, "kernel_regularizer": null, "strides": [1, 1], "trainable": false, "bias_initializer": {"config": {}, "class_name": "Zeros"}, "kernel_initializer": {"config": {"mode": "fan_avg", "distribution": "uniform", "scale": 1.0, "seed": null}, "class_name": "VarianceScaling"}, "activation": "linear", "use_bias": false, "padding": "same", "kernel_constraint": null, "data_format": "channels_last", "bias_constraint": null, "bias_regularizer": null}, "inbound_nodes": [[["mixed5", 0, 0, {}]]], "class_name": "Conv2D"}, {"name": "conv2d_245", "config": {"dilation_rate": [1, 1], "name": "conv2d_245", "kernel_size": [1, 7], "activity_regularizer": null, "filters": 160, "kernel_regularizer": null, "strides": [1, 1], "trainable": true, "bias_initializer": {"config": {}, "class_name": "Zeros"}, "kernel_initializer": {"config": {"mode": "fan_avg", "distribution": "uniform", "scale": 1.0, "seed": null}, "class_name": "VarianceScaling"}, "activation": "linear", "use_bias": false, "padding": "same", "kernel_constraint": null, "data_format": "channels_last", "bias_constraint": null, "bias_regularizer": null}, "inbound_nodes": [[["activation_244", 0, 0, {}]]], "class_name": "Conv2D"}, {"name": "batch_normalization_240", "config": {"name": "batch_normalization_240", "beta_constraint": null, "beta_initializer": {"config": {}, "class_name": "Zeros"}, "beta_regularizer": null, "trainable": true, "moving_variance_initializer": {"config": {}, "class_name": "Ones"}, "axis": 3, "epsilon": 0.001, "scale": false, "gamma_constraint": null, "gamma_initializer": {"config": {}, "class_name": "Ones"}, "moving_mean_initializer": {"config": {}, "class_name": "Zeros"}, "center": true, "momentum": 0.99, "gamma_regularizer": null}, "inbound_nodes": [[["conv2d_240", 0, 0, {}]]], "class_name": "BatchNormalization"}, {"name": "batch_normalization_245", "config": {"name": "batch_normalization_245", "beta_constraint": null, "beta_initializer": {"config": {}, "class_name": "Zeros"}, "beta_regularizer": null, "trainable": true, "moving_variance_initializer": {"config": {}, "class_name": "Ones"}, "axis": 3, "epsilon": 0.001, "scale": false, "gamma_constraint": null, "gamma_initializer": {"config": {}, "class_name": "Ones"}, "moving_mean_initializer": {"config": {}, "class_name": "Zeros"}, "center": true, "momentum": 0.99, "gamma_regularizer": null}, "inbound_nodes": [[["conv2d_245", 0, 0, {}]]], "class_name": "BatchNormalization"}, {"name": "activation_240", "config": {"name": "activation_240", "trainable": true, "activation": "relu"}, "inbound_nodes": [[["batch_normalization_240", 0, 0, {}]]], "class_name": "Activation"}, {"name": "activation_245", "config": {"name": "activation_245", "trainable": true, "activation": "relu"}, "inbound_nodes": [[["batch_normalization_245", 0, 0, {}]]], "class_name": "Activation"}, {"name": "conv2d_241", "config": {"dilation_rate": [1, 1], "name": "conv2d_241", "kernel_size": [1, 7], "activity_regularizer": null, "filters": 160, "kernel_regularizer": null, "strides": [1, 1], "trainable": true, "bias_initializer": {"config": {}, "class_name": "Zeros"}, "kernel_initializer": {"config": {"mode": "fan_avg", "distribution": "uniform", "scale": 1.0, "seed": null}, "class_name": "VarianceScaling"}, "activation": "linear", "use_bias": false, "padding": "same", "kernel_constraint": null, "data_format": "channels_last", "bias_constraint": null, "bias_regularizer": null}, "inbound_nodes": [[["activation_240", 0, 0, {}]]], "class_name": "Conv2D"}, {"name": "conv2d_246", "config": {"dilation_rate": [1, 1], "name": "conv2d_246", "kernel_size": [7, 1], "activity_regularizer": null, "filters": 160, "kernel_regularizer": null, "strides": [1, 1], "trainable": true, "bias_initializer": {"config": {}, "class_name": "Zeros"}, "kernel_initializer": {"config": {"mode": "fan_avg", "distribution": "uniform", "scale": 1.0, "seed": null}, "class_name": "VarianceScaling"}, "activation": "linear", "use_bias": false, "padding": "same", "kernel_constraint": null, "data_format": "channels_last", "bias_constraint": null, "bias_regularizer": null}, "inbound_nodes": [[["activation_245", 0, 0, {}]]], "class_name": "Conv2D"}, {"name": "batch_normalization_241", "config": {"name": "batch_normalization_241", "beta_constraint": null, "beta_initializer": {"config": {}, "class_name": "Zeros"}, "beta_regularizer": null, "trainable": true, "moving_variance_initializer": {"config": {}, "class_name": "Ones"}, "axis": 3, "epsilon": 0.001, "scale": false, "gamma_constraint": null, "gamma_initializer": {"config": {}, "class_name": "Ones"}, "moving_mean_initializer": {"config": {}, "class_name": "Zeros"}, "center": true, "momentum": 0.99, "gamma_regularizer": null}, "inbound_nodes": [[["conv2d_241", 0, 0, {}]]], "class_name": "BatchNormalization"}, {"name": "batch_normalization_246", "config": {"name": "batch_normalization_246", "beta_constraint": null, "beta_initializer": {"config": {}, "class_name": "Zeros"}, "beta_regularizer": null, "trainable": true, "moving_variance_initializer": {"config": {}, "class_name": "Ones"}, "axis": 3, "epsilon": 0.001, "scale": false, "gamma_constraint": null, "gamma_initializer": {"config": {}, "class_name": "Ones"}, "moving_mean_initializer": {"config": {}, "class_name": "Zeros"}, "center": true, "momentum": 0.99, "gamma_regularizer": null}, "inbound_nodes": [[["conv2d_246", 0, 0, {}]]], "class_name": "BatchNormalization"}, {"name": "activation_241", "config": {"name": "activation_241", "trainable": true, "activation": "relu"}, "inbound_nodes": [[["batch_normalization_241", 0, 0, {}]]], "class_name": "Activation"}, {"name": "activation_246", "config": {"name": "activation_246", "trainable": true, "activation": "relu"}, "inbound_nodes": [[["batch_normalization_246", 0, 0, {}]]], "class_name": "Activation"}, {"name": "average_pooling2d_24", "config": {"name": "average_pooling2d_24", "pool_size": [3, 3], "data_format": "channels_last", "strides": [1, 1], "padding": "same", "trainable": true}, "inbound_nodes": [[["mixed5", 0, 0, {}]]], "class_name": "AveragePooling2D"}, {"name": "conv2d_239", "config": {"dilation_rate": [1, 1], "name": "conv2d_239", "kernel_size": [1, 1], "activity_regularizer": null, "filters": 192, "kernel_regularizer": null, "strides": [1, 1], "trainable": true, "bias_initializer": {"config": {}, "class_name": "Zeros"}, "kernel_initializer": {"config": {"mode": "fan_avg", "distribution": "uniform", "scale": 1.0, "seed": null}, "class_name": "VarianceScaling"}, "activation": "linear", "use_bias": false, "padding": "same", "kernel_constraint": null, "data_format": "channels_last", "bias_constraint": null, "bias_regularizer": null}, "inbound_nodes": [[["mixed5", 0, 0, {}]]], "class_name": "Conv2D"}, {"name": "conv2d_242", "config": {"dilation_rate": [1, 1], "name": "conv2d_242", "kernel_size": [7, 1], "activity_regularizer": null, "filters": 192, "kernel_regularizer": null, "strides": [1, 1], "trainable": true, "bias_initializer": {"config": {}, "class_name": "Zeros"}, "kernel_initializer": {"config": {"mode": "fan_avg", "distribution": "uniform", "scale": 1.0, "seed": null}, "class_name": "VarianceScaling"}, "activation": "linear", "use_bias": false, "padding": "same", "kernel_constraint": null, "data_format": "channels_last", "bias_constraint": null, "bias_regularizer": null}, "inbound_nodes": [[["activation_241", 0, 0, {}]]], "class_name": "Conv2D"}, {"name": "conv2d_247", "config": {"dilation_rate": [1, 1], "name": "conv2d_247", "kernel_size": [1, 7], "activity_regularizer": null, "filters": 192, "kernel_regularizer": null, "strides": [1, 1], "trainable": true, "bias_initializer": {"config": {}, "class_name": "Zeros"}, "kernel_initializer": {"config": {"mode": "fan_avg", "distribution": "uniform", "scale": 1.0, "seed": null}, "class_name": "VarianceScaling"}, "activation": "linear", "use_bias": false, "padding": "same", "kernel_constraint": null, "data_format": "channels_last", "bias_constraint": null, "bias_regularizer": null}, "inbound_nodes": [[["activation_246", 0, 0, {}]]], "class_name": "Conv2D"}, {"name": "conv2d_248", "config": {"dilation_rate": [1, 1], "name": "conv2d_248", "kernel_size": [1, 1], "activity_regularizer": null, "filters": 192, "kernel_regularizer": null, "strides": [1, 1], "trainable": true, "bias_initializer": {"config": {}, "class_name": "Zeros"}, "kernel_initializer": {"config": {"mode": "fan_avg", "distribution": "uniform", "scale": 1.0, "seed": null}, "class_name": "VarianceScaling"}, "activation": "linear", "use_bias": false, "padding": "same", "kernel_constraint": null, "data_format": "channels_last", "bias_constraint": null, "bias_regularizer": null}, "inbound_nodes": [[["average_pooling2d_24", 0, 0, {}]]], "class_name": "Conv2D"}, {"name": "batch_normalization_239", "config": {"name": "batch_normalization_239", "beta_constraint": null, "beta_initializer": {"config": {}, "class_name": "Zeros"}, "beta_regularizer": null, "trainable": true, "moving_variance_initializer": {"config": {}, "class_name": "Ones"}, "axis": 3, "epsilon": 0.001, "scale": false, "gamma_constraint": null, "gamma_initializer": {"config": {}, "class_name": "Ones"}, "moving_mean_initializer": {"config": {}, "class_name": "Zeros"}, "center": true, "momentum": 0.99, "gamma_regularizer": null}, "inbound_nodes": [[["conv2d_239", 0, 0, {}]]], "class_name": "BatchNormalization"}, {"name": "batch_normalization_242", "config": {"name": "batch_normalization_242", "beta_constraint": null, "beta_initializer": {"config": {}, "class_name": "Zeros"}, "beta_regularizer": null, "trainable": true, "moving_variance_initializer": {"config": {}, "class_name": "Ones"}, "axis": 3, "epsilon": 0.001, "scale": false, "gamma_constraint": null, "gamma_initializer": {"config": {}, "class_name": "Ones"}, "moving_mean_initializer": {"config": {}, "class_name": "Zeros"}, "center": true, "momentum": 0.99, "gamma_regularizer": null}, "inbound_nodes": [[["conv2d_242", 0, 0, {}]]], "class_name": "BatchNormalization"}, {"name": "batch_normalization_247", "config": {"name": "batch_normalization_247", "beta_constraint": null, "beta_initializer": {"config": {}, "class_name": "Zeros"}, "beta_regularizer": null, "trainable": true, "moving_variance_initializer": {"config": {}, "class_name": "Ones"}, "axis": 3, "epsilon": 0.001, "scale": false, "gamma_constraint": null, "gamma_initializer": {"config": {}, "class_name": "Ones"}, "moving_mean_initializer": {"config": {}, "class_name": "Zeros"}, "center": true, "momentum": 0.99, "gamma_regularizer": null}, "inbound_nodes": [[["conv2d_247", 0, 0, {}]]], "class_name": "BatchNormalization"}, {"name": "batch_normalization_248", "config": {"name": "batch_normalization_248", "beta_constraint": null, "beta_initializer": {"config": {}, "class_name": "Zeros"}, "beta_regularizer": null, "trainable": true, "moving_variance_initializer": {"config": {}, "class_name": "Ones"}, "axis": 3, "epsilon": 0.001, "scale": false, "gamma_constraint": null, "gamma_initializer": {"config": {}, "class_name": "Ones"}, "moving_mean_initializer": {"config": {}, "class_name": "Zeros"}, "center": true, "momentum": 0.99, "gamma_regularizer": null}, "inbound_nodes": [[["conv2d_248", 0, 0, {}]]], "class_name": "BatchNormalization"}, {"name": "activation_239", "config": {"name": "activation_239", "trainable": true, "activation": "relu"}, "inbound_nodes": [[["batch_normalization_239", 0, 0, {}]]], "class_name": "Activation"}, {"name": "activation_242", "config": {"name": "activation_242", "trainable": true, "activation": "relu"}, "inbound_nodes": [[["batch_normalization_242", 0, 0, {}]]], "class_name": "Activation"}, {"name": "activation_247", "config": {"name": "activation_247", "trainable": true, "activation": "relu"}, "inbound_nodes": [[["batch_normalization_247", 0, 0, {}]]], "class_name": "Activation"}, {"name": "activation_248", "config": {"name": "activation_248", "trainable": true, "activation": "relu"}, "inbound_nodes": [[["batch_normalization_248", 0, 0, {}]]], "class_name": "Activation"}, {"name": "mixed6", "config": {"name": "mixed6", "trainable": true, "axis": 3}, "inbound_nodes": [[["activation_239", 0, 0, {}], ["activation_242", 0, 0, {}], ["activation_247", 0, 0, {}], ["activation_248", 0, 0, {}]]], "class_name": "Concatenate"}, {"name": "conv2d_253", "config": {"dilation_rate": [1, 1], "name": "conv2d_253", "kernel_size": [1, 1], "activity_regularizer": null, "filters": 192, "kernel_regularizer": null, "strides": [1, 1], "trainable": true, "bias_initializer": {"config": {}, "class_name": "Zeros"}, "kernel_initializer": {"config": {"mode": "fan_avg", "distribution": "uniform", "scale": 1.0, "seed": null}, "class_name": "VarianceScaling"}, "activation": "linear", "use_bias": false, "padding": "same", "kernel_constraint": null, "data_format": "channels_last", "bias_constraint": null, "bias_regularizer": null}, "inbound_nodes": [[["mixed6", 0, 0, {}]]], "class_name": "Conv2D"}, {"name": "batch_normalization_253", "config": {"name": "batch_normalization_253", "beta_constraint": null, "beta_initializer": {"config": {}, "class_name": "Zeros"}, "beta_regularizer": null, "trainable": true, "moving_variance_initializer": {"config": {}, "class_name": "Ones"}, "axis": 3, "epsilon": 0.001, "scale": false, "gamma_constraint": null, "gamma_initializer": {"config": {}, "class_name": "Ones"}, "moving_mean_initializer": {"config": {}, "class_name": "Zeros"}, "center": true, "momentum": 0.99, "gamma_regularizer": null}, "inbound_nodes": [[["conv2d_253", 0, 0, {}]]], "class_name": "BatchNormalization"}, {"name": "activation_253", "config": {"name": "activation_253", "trainable": true, "activation": "relu"}, "inbound_nodes": [[["batch_normalization_253", 0, 0, {}]]], "class_name": "Activation"}, {"name": "conv2d_254", "config": {"dilation_rate": [1, 1], "name": "conv2d_254", "kernel_size": [7, 1], "activity_regularizer": null, "filters": 192, "kernel_regularizer": null, "strides": [1, 1], "trainable": true, "bias_initializer": {"config": {}, "class_name": "Zeros"}, "kernel_initializer": {"config": {"mode": "fan_avg", "distribution": "uniform", "scale": 1.0, "seed": null}, "class_name": "VarianceScaling"}, "activation": "linear", "use_bias": false, "padding": "same", "kernel_constraint": null, "data_format": "channels_last", "bias_constraint": null, "bias_regularizer": null}, "inbound_nodes": [[["activation_253", 0, 0, {}]]], "class_name": "Conv2D"}, {"name": "batch_normalization_254", "config": {"name": "batch_normalization_254", "beta_constraint": null, "beta_initializer": {"config": {}, "class_name": "Zeros"}, "beta_regularizer": null, "trainable": true, "moving_variance_initializer": {"config": {}, "class_name": "Ones"}, "axis": 3, "epsilon": 0.001, "scale": false, "gamma_constraint": null, "gamma_initializer": {"config": {}, "class_name": "Ones"}, "moving_mean_initializer": {"config": {}, "class_name": "Zeros"}, "center": true, "momentum": 0.99, "gamma_regularizer": null}, "inbound_nodes": [[["conv2d_254", 0, 0, {}]]], "class_name": "BatchNormalization"}, {"name": "activation_254", "config": {"name": "activation_254", "trainable": true, "activation": "relu"}, "inbound_nodes": [[["batch_normalization_254", 0, 0, {}]]], "class_name": "Activation"}, {"name": "conv2d_250", "config": {"dilation_rate": [1, 1], "name": "conv2d_250", "kernel_size": [1, 1], "activity_regularizer": null, "filters": 192, "kernel_regularizer": null, "strides": [1, 1], "trainable": true, "bias_initializer": {"config": {}, "class_name": "Zeros"}, "kernel_initializer": {"config": {"mode": "fan_avg", "distribution": "uniform", "scale": 1.0, "seed": null}, "class_name": "VarianceScaling"}, "activation": "linear", "use_bias": false, "padding": "same", "kernel_constraint": null, "data_format": "channels_last", "bias_constraint": null, "bias_regularizer": null}, "inbound_nodes": [[["mixed6", 0, 0, {}]]], "class_name": "Conv2D"}, {"name": "conv2d_255", "config": {"dilation_rate": [1, 1], "name": "conv2d_255", "kernel_size": [1, 7], "activity_regularizer": null, "filters": 192, "kernel_regularizer": null, "strides": [1, 1], "trainable": true, "bias_initializer": {"config": {}, "class_name": "Zeros"}, "kernel_initializer": {"config": {"mode": "fan_avg", "distribution": "uniform", "scale": 1.0, "seed": null}, "class_name": "VarianceScaling"}, "activation": "linear", "use_bias": false, "padding": "same", "kernel_constraint": null, "data_format": "channels_last", "bias_constraint": null, "bias_regularizer": null}, "inbound_nodes": [[["activation_254", 0, 0, {}]]], "class_name": "Conv2D"}, {"name": "batch_normalization_250", "config": {"name": "batch_normalization_250", "beta_constraint": null, "beta_initializer": {"config": {}, "class_name": "Zeros"}, "beta_regularizer": null, "trainable": true, "moving_variance_initializer": {"config": {}, "class_name": "Ones"}, "axis": 3, "epsilon": 0.001, "scale": false, "gamma_constraint": null, "gamma_initializer": {"config": {}, "class_name": "Ones"}, "moving_mean_initializer": {"config": {}, "class_name": "Zeros"}, "center": true, "momentum": 0.99, "gamma_regularizer": null}, "inbound_nodes": [[["conv2d_250", 0, 0, {}]]], "class_name": "BatchNormalization"}, {"name": "batch_normalization_255", "config": {"name": "batch_normalization_255", "beta_constraint": null, "beta_initializer": {"config": {}, "class_name": "Zeros"}, "beta_regularizer": null, "trainable": true, "moving_variance_initializer": {"config": {}, "class_name": "Ones"}, "axis": 3, "epsilon": 0.001, "scale": false, "gamma_constraint": null, "gamma_initializer": {"config": {}, "class_name": "Ones"}, "moving_mean_initializer": {"config": {}, "class_name": "Zeros"}, "center": true, "momentum": 0.99, "gamma_regularizer": null}, "inbound_nodes": [[["conv2d_255", 0, 0, {}]]], "class_name": "BatchNormalization"}, {"name": "activation_250", "config": {"name": "activation_250", "trainable": true, "activation": "relu"}, "inbound_nodes": [[["batch_normalization_250", 0, 0, {}]]], "class_name": "Activation"}, {"name": "activation_255", "config": {"name": "activation_255", "trainable": true, "activation": "relu"}, "inbound_nodes": [[["batch_normalization_255", 0, 0, {}]]], "class_name": "Activation"}, {"name": "conv2d_251", "config": {"dilation_rate": [1, 1], "name": "conv2d_251", "kernel_size": [1, 7], "activity_regularizer": null, "filters": 192, "kernel_regularizer": null, "strides": [1, 1], "trainable": true, "bias_initializer": {"config": {}, "class_name": "Zeros"}, "kernel_initializer": {"config": {"mode": "fan_avg", "distribution": "uniform", "scale": 1.0, "seed": null}, "class_name": "VarianceScaling"}, "activation": "linear", "use_bias": false, "padding": "same", "kernel_constraint": null, "data_format": "channels_last", "bias_constraint": null, "bias_regularizer": null}, "inbound_nodes": [[["activation_250", 0, 0, {}]]], "class_name": "Conv2D"}, {"name": "conv2d_256", "config": {"dilation_rate": [1, 1], "name": "conv2d_256", "kernel_size": [7, 1], "activity_regularizer": null, "filters": 192, "kernel_regularizer": null, "strides": [1, 1], "trainable": true, "bias_initializer": {"config": {}, "class_name": "Zeros"}, "kernel_initializer": {"config": {"mode": "fan_avg", "distribution": "uniform", "scale": 1.0, "seed": null}, "class_name": "VarianceScaling"}, "activation": "linear", "use_bias": false, "padding": "same", "kernel_constraint": null, "data_format": "channels_last", "bias_constraint": null, "bias_regularizer": null}, "inbound_nodes": [[["activation_255", 0, 0, {}]]], "class_name": "Conv2D"}, {"name": "batch_normalization_251", "config": {"name": "batch_normalization_251", "beta_constraint": null, "beta_initializer": {"config": {}, "class_name": "Zeros"}, "beta_regularizer": null, "trainable": true, "moving_variance_initializer": {"config": {}, "class_name": "Ones"}, "axis": 3, "epsilon": 0.001, "scale": false, "gamma_constraint": null, "gamma_initializer": {"config": {}, "class_name": "Ones"}, "moving_mean_initializer": {"config": {}, "class_name": "Zeros"}, "center": true, "momentum": 0.99, "gamma_regularizer": null}, "inbound_nodes": [[["conv2d_251", 0, 0, {}]]], "class_name": "BatchNormalization"}, {"name": "batch_normalization_256", "config": {"name": "batch_normalization_256", "beta_constraint": null, "beta_initializer": {"config": {}, "class_name": "Zeros"}, "beta_regularizer": null, "trainable": true, "moving_variance_initializer": {"config": {}, "class_name": "Ones"}, "axis": 3, "epsilon": 0.001, "scale": false, "gamma_constraint": null, "gamma_initializer": {"config": {}, "class_name": "Ones"}, "moving_mean_initializer": {"config": {}, "class_name": "Zeros"}, "center": true, "momentum": 0.99, "gamma_regularizer": null}, "inbound_nodes": [[["conv2d_256", 0, 0, {}]]], "class_name": "BatchNormalization"}, {"name": "activation_251", "config": {"name": "activation_251", "trainable": true, "activation": "relu"}, "inbound_nodes": [[["batch_normalization_251", 0, 0, {}]]], "class_name": "Activation"}, {"name": "activation_256", "config": {"name": "activation_256", "trainable": true, "activation": "relu"}, "inbound_nodes": [[["batch_normalization_256", 0, 0, {}]]], "class_name": "Activation"}, {"name": "average_pooling2d_25", "config": {"name": "average_pooling2d_25", "pool_size": [3, 3], "data_format": "channels_last", "strides": [1, 1], "padding": "same", "trainable": true}, "inbound_nodes": [[["mixed6", 0, 0, {}]]], "class_name": "AveragePooling2D"}, {"name": "conv2d_249", "config": {"dilation_rate": [1, 1], "name": "conv2d_249", "kernel_size": [1, 1], "activity_regularizer": null, "filters": 192, "kernel_regularizer": null, "strides": [1, 1], "trainable": true, "bias_initializer": {"config": {}, "class_name": "Zeros"}, "kernel_initializer": {"config": {"mode": "fan_avg", "distribution": "uniform", "scale": 1.0, "seed": null}, "class_name": "VarianceScaling"}, "activation": "linear", "use_bias": false, "padding": "same", "kernel_constraint": null, "data_format": "channels_last", "bias_constraint": null, "bias_regularizer": null}, "inbound_nodes": [[["mixed6", 0, 0, {}]]], "class_name": "Conv2D"}, {"name": "conv2d_252", "config": {"dilation_rate": [1, 1], "name": "conv2d_252", "kernel_size": [7, 1], "activity_regularizer": null, "filters": 192, "kernel_regularizer": null, "strides": [1, 1], "trainable": true, "bias_initializer": {"config": {}, "class_name": "Zeros"}, "kernel_initializer": {"config": {"mode": "fan_avg", "distribution": "uniform", "scale": 1.0, "seed": null}, "class_name": "VarianceScaling"}, "activation": "linear", "use_bias": false, "padding": "same", "kernel_constraint": null, "data_format": "channels_last", "bias_constraint": null, "bias_regularizer": null}, "inbound_nodes": [[["activation_251", 0, 0, {}]]], "class_name": "Conv2D"}, {"name": "conv2d_257", "config": {"dilation_rate": [1, 1], "name": "conv2d_257", "kernel_size": [1, 7], "activity_regularizer": null, "filters": 192, "kernel_regularizer": null, "strides": [1, 1], "trainable": true, "bias_initializer": {"config": {}, "class_name": "Zeros"}, "kernel_initializer": {"config": {"mode": "fan_avg", "distribution": "uniform", "scale": 1.0, "seed": null}, "class_name": "VarianceScaling"}, "activation": "linear", "use_bias": false, "padding": "same", "kernel_constraint": null, "data_format": "channels_last", "bias_constraint": null, "bias_regularizer": null}, "inbound_nodes": [[["activation_256", 0, 0, {}]]], "class_name": "Conv2D"}, {"name": "conv2d_258", "config": {"dilation_rate": [1, 1], "name": "conv2d_258", "kernel_size": [1, 1], "activity_regularizer": null, "filters": 192, "kernel_regularizer": null, "strides": [1, 1], "trainable": true, "bias_initializer": {"config": {}, "class_name": "Zeros"}, "kernel_initializer": {"config": {"mode": "fan_avg", "distribution": "uniform", "scale": 1.0, "seed": null}, "class_name": "VarianceScaling"}, "activation": "linear", "use_bias": false, "padding": "same", "kernel_constraint": null, "data_format": "channels_last", "bias_constraint": null, "bias_regularizer": null}, "inbound_nodes": [[["average_pooling2d_25", 0, 0, {}]]], "class_name": "Conv2D"}, {"name": "batch_normalization_249", "config": {"name": "batch_normalization_249", "beta_constraint": null, "beta_initializer": {"config": {}, "class_name": "Zeros"}, "beta_regularizer": null, "trainable": true, "moving_variance_initializer": {"config": {}, "class_name": "Ones"}, "axis": 3, "epsilon": 0.001, "scale": false, "gamma_constraint": null, "gamma_initializer": {"config": {}, "class_name": "Ones"}, "moving_mean_initializer": {"config": {}, "class_name": "Zeros"}, "center": true, "momentum": 0.99, "gamma_regularizer": null}, "inbound_nodes": [[["conv2d_249", 0, 0, {}]]], "class_name": "BatchNormalization"}, {"name": "batch_normalization_252", "config": {"name": "batch_normalization_252", "beta_constraint": null, "beta_initializer": {"config": {}, "class_name": "Zeros"}, "beta_regularizer": null, "trainable": true, "moving_variance_initializer": {"config": {}, "class_name": "Ones"}, "axis": 3, "epsilon": 0.001, "scale": false, "gamma_constraint": null, "gamma_initializer": {"config": {}, "class_name": "Ones"}, "moving_mean_initializer": {"config": {}, "class_name": "Zeros"}, "center": true, "momentum": 0.99, "gamma_regularizer": null}, "inbound_nodes": [[["conv2d_252", 0, 0, {}]]], "class_name": "BatchNormalization"}, {"name": "batch_normalization_257", "config": {"name": "batch_normalization_257", "beta_constraint": null, "beta_initializer": {"config": {}, "class_name": "Zeros"}, "beta_regularizer": null, "trainable": true, "moving_variance_initializer": {"config": {}, "class_name": "Ones"}, "axis": 3, "epsilon": 0.001, "scale": false, "gamma_constraint": null, "gamma_initializer": {"config": {}, "class_name": "Ones"}, "moving_mean_initializer": {"config": {}, "class_name": "Zeros"}, "center": true, "momentum": 0.99, "gamma_regularizer": null}, "inbound_nodes": [[["conv2d_257", 0, 0, {}]]], "class_name": "BatchNormalization"}, {"name": "batch_normalization_258", "config": {"name": "batch_normalization_258", "beta_constraint": null, "beta_initializer": {"config": {}, "class_name": "Zeros"}, "beta_regularizer": null, "trainable": true, "moving_variance_initializer": {"config": {}, "class_name": "Ones"}, "axis": 3, "epsilon": 0.001, "scale": false, "gamma_constraint": null, "gamma_initializer": {"config": {}, "class_name": "Ones"}, "moving_mean_initializer": {"config": {}, "class_name": "Zeros"}, "center": true, "momentum": 0.99, "gamma_regularizer": null}, "inbound_nodes": [[["conv2d_258", 0, 0, {}]]], "class_name": "BatchNormalization"}, {"name": "activation_249", "config": {"name": "activation_249", "trainable": true, "activation": "relu"}, "inbound_nodes": [[["batch_normalization_249", 0, 0, {}]]], "class_name": "Activation"}, {"name": "activation_252", "config": {"name": "activation_252", "trainable": true, "activation": "relu"}, "inbound_nodes": [[["batch_normalization_252", 0, 0, {}]]], "class_name": "Activation"}, {"name": "activation_257", "config": {"name": "activation_257", "trainable": true, "activation": "relu"}, "inbound_nodes": [[["batch_normalization_257", 0, 0, {}]]], "class_name": "Activation"}, {"name": "activation_258", "config": {"name": "activation_258", "trainable": true, "activation": "relu"}, "inbound_nodes": [[["batch_normalization_258", 0, 0, {}]]], "class_name": "Activation"}, {"name": "mixed7", "config": {"name": "mixed7", "trainable": true, "axis": 3}, "inbound_nodes": [[["activation_249", 0, 0, {}], ["activation_252", 0, 0, {}], ["activation_257", 0, 0, {}], ["activation_258", 0, 0, {}]]], "class_name": "Concatenate"}, {"name": "conv2d_261", "config": {"dilation_rate": [1, 1], "name": "conv2d_261", "kernel_size": [1, 1], "activity_regularizer": null, "filters": 192, "kernel_regularizer": null, "strides": [1, 1], "trainable": true, "bias_initializer": {"config": {}, "class_name": "Zeros"}, "kernel_initializer": {"config": {"mode": "fan_avg", "distribution": "uniform", "scale": 1.0, "seed": null}, "class_name": "VarianceScaling"}, "activation": "linear", "use_bias": false, "padding": "same", "kernel_constraint": null, "data_format": "channels_last", "bias_constraint": null, "bias_regularizer": null}, "inbound_nodes": [[["mixed7", 0, 0, {}]]], "class_name": "Conv2D"}, {"name": "batch_normalization_261", "config": {"name": "batch_normalization_261", "beta_constraint": null, "beta_initializer": {"config": {}, "class_name": "Zeros"}, "beta_regularizer": null, "trainable": true, "moving_variance_initializer": {"config": {}, "class_name": "Ones"}, "axis": 3, "epsilon": 0.001, "scale": false, "gamma_constraint": null, "gamma_initializer": {"config": {}, "class_name": "Ones"}, "moving_mean_initializer": {"config": {}, "class_name": "Zeros"}, "center": true, "momentum": 0.99, "gamma_regularizer": null}, "inbound_nodes": [[["conv2d_261", 0, 0, {}]]], "class_name": "BatchNormalization"}, {"name": "activation_261", "config": {"name": "activation_261", "trainable": true, "activation": "relu"}, "inbound_nodes": [[["batch_normalization_261", 0, 0, {}]]], "class_name": "Activation"}, {"name": "conv2d_262", "config": {"dilation_rate": [1, 1], "name": "conv2d_262", "kernel_size": [1, 7], "activity_regularizer": null, "filters": 192, "kernel_regularizer": null, "strides": [1, 1], "trainable": true, "bias_initializer": {"config": {}, "class_name": "Zeros"}, "kernel_initializer": {"config": {"mode": "fan_avg", "distribution": "uniform", "scale": 1.0, "seed": null}, "class_name": "VarianceScaling"}, "activation": "linear", "use_bias": false, "padding": "same", "kernel_constraint": null, "data_format": "channels_last", "bias_constraint": null, "bias_regularizer": null}, "inbound_nodes": [[["activation_261", 0, 0, {}]]], "class_name": "Conv2D"}, {"name": "batch_normalization_262", "config": {"name": "batch_normalization_262", "beta_constraint": null, "beta_initializer": {"config": {}, "class_name": "Zeros"}, "beta_regularizer": null, "trainable": true, "moving_variance_initializer": {"config": {}, "class_name": "Ones"}, "axis": 3, "epsilon": 0.001, "scale": false, "gamma_constraint": null, "gamma_initializer": {"config": {}, "class_name": "Ones"}, "moving_mean_initializer": {"config": {}, "class_name": "Zeros"}, "center": true, "momentum": 0.99, "gamma_regularizer": null}, "inbound_nodes": [[["conv2d_262", 0, 0, {}]]], "class_name": "BatchNormalization"}, {"name": "activation_262", "config": {"name": "activation_262", "trainable": true, "activation": "relu"}, "inbound_nodes": [[["batch_normalization_262", 0, 0, {}]]], "class_name": "Activation"}, {"name": "conv2d_259", "config": {"dilation_rate": [1, 1], "name": "conv2d_259", "kernel_size": [1, 1], "activity_regularizer": null, "filters": 192, "kernel_regularizer": null, "strides": [1, 1], "trainable": true, "bias_initializer": {"config": {}, "class_name": "Zeros"}, "kernel_initializer": {"config": {"mode": "fan_avg", "distribution": "uniform", "scale": 1.0, "seed": null}, "class_name": "VarianceScaling"}, "activation": "linear", "use_bias": false, "padding": "same", "kernel_constraint": null, "data_format": "channels_last", "bias_constraint": null, "bias_regularizer": null}, "inbound_nodes": [[["mixed7", 0, 0, {}]]], "class_name": "Conv2D"}, {"name": "conv2d_263", "config": {"dilation_rate": [1, 1], "name": "conv2d_263", "kernel_size": [7, 1], "activity_regularizer": null, "filters": 192, "kernel_regularizer": null, "strides": [1, 1], "trainable": true, "bias_initializer": {"config": {}, "class_name": "Zeros"}, "kernel_initializer": {"config": {"mode": "fan_avg", "distribution": "uniform", "scale": 1.0, "seed": null}, "class_name": "VarianceScaling"}, "activation": "linear", "use_bias": false, "padding": "same", "kernel_constraint": null, "data_format": "channels_last", "bias_constraint": null, "bias_regularizer": null}, "inbound_nodes": [[["activation_262", 0, 0, {}]]], "class_name": "Conv2D"}, {"name": "batch_normalization_259", "config": {"name": "batch_normalization_259", "beta_constraint": null, "beta_initializer": {"config": {}, "class_name": "Zeros"}, "beta_regularizer": null, "trainable": true, "moving_variance_initializer": {"config": {}, "class_name": "Ones"}, "axis": 3, "epsilon": 0.001, "scale": false, "gamma_constraint": null, "gamma_initializer": {"config": {}, "class_name": "Ones"}, "moving_mean_initializer": {"config": {}, "class_name": "Zeros"}, "center": true, "momentum": 0.99, "gamma_regularizer": null}, "inbound_nodes": [[["conv2d_259", 0, 0, {}]]], "class_name": "BatchNormalization"}, {"name": "batch_normalization_263", "config": {"name": "batch_normalization_263", "beta_constraint": null, "beta_initializer": {"config": {}, "class_name": "Zeros"}, "beta_regularizer": null, "trainable": true, "moving_variance_initializer": {"config": {}, "class_name": "Ones"}, "axis": 3, "epsilon": 0.001, "scale": false, "gamma_constraint": null, "gamma_initializer": {"config": {}, "class_name": "Ones"}, "moving_mean_initializer": {"config": {}, "class_name": "Zeros"}, "center": true, "momentum": 0.99, "gamma_regularizer": null}, "inbound_nodes": [[["conv2d_263", 0, 0, {}]]], "class_name": "BatchNormalization"}, {"name": "activation_259", "config": {"name": "activation_259", "trainable": true, "activation": "relu"}, "inbound_nodes": [[["batch_normalization_259", 0, 0, {}]]], "class_name": "Activation"}, {"name": "activation_263", "config": {"name": "activation_263", "trainable": true, "activation": "relu"}, "inbound_nodes": [[["batch_normalization_263", 0, 0, {}]]], "class_name": "Activation"}, {"name": "conv2d_260", "config": {"dilation_rate": [1, 1], "name": "conv2d_260", "kernel_size": [3, 3], "activity_regularizer": null, "filters": 320, "kernel_regularizer": null, "strides": [2, 2], "trainable": true, "bias_initializer": {"config": {}, "class_name": "Zeros"}, "kernel_initializer": {"config": {"mode": "fan_avg", "distribution": "uniform", "scale": 1.0, "seed": null}, "class_name": "VarianceScaling"}, "activation": "linear", "use_bias": false, "padding": "valid", "kernel_constraint": null, "data_format": "channels_last", "bias_constraint": null, "bias_regularizer": null}, "inbound_nodes": [[["activation_259", 0, 0, {}]]], "class_name": "Conv2D"}, {"name": "conv2d_264", "config": {"dilation_rate": [1, 1], "name": "conv2d_264", "kernel_size": [3, 3], "activity_regularizer": null, "filters": 192, "kernel_regularizer": null, "strides": [2, 2], "trainable": true, "bias_initializer": {"config": {}, "class_name": "Zeros"}, "kernel_initializer": {"config": {"mode": "fan_avg", "distribution": "uniform", "scale": 1.0, "seed": null}, "class_name": "VarianceScaling"}, "activation": "linear", "use_bias": false, "padding": "valid", "kernel_constraint": null, "data_format": "channels_last", "bias_constraint": null, "bias_regularizer": null}, "inbound_nodes": [[["activation_263", 0, 0, {}]]], "class_name": "Conv2D"}, {"name": "batch_normalization_260", "config": {"name": "batch_normalization_260", "beta_constraint": null, "beta_initializer": {"config": {}, "class_name": "Zeros"}, "beta_regularizer": null, "trainable": true, "moving_variance_initializer": {"config": {}, "class_name": "Ones"}, "axis": 3, "epsilon": 0.001, "scale": false, "gamma_constraint": null, "gamma_initializer": {"config": {}, "class_name": "Ones"}, "moving_mean_initializer": {"config": {}, "class_name": "Zeros"}, "center": true, "momentum": 0.99, "gamma_regularizer": null}, "inbound_nodes": [[["conv2d_260", 0, 0, {}]]], "class_name": "BatchNormalization"}, {"name": "batch_normalization_264", "config": {"name": "batch_normalization_264", "beta_constraint": null, "beta_initializer": {"config": {}, "class_name": "Zeros"}, "beta_regularizer": null, "trainable": true, "moving_variance_initializer": {"config": {}, "class_name": "Ones"}, "axis": 3, "epsilon": 0.001, "scale": false, "gamma_constraint": null, "gamma_initializer": {"config": {}, "class_name": "Ones"}, "moving_mean_initializer": {"config": {}, "class_name": "Zeros"}, "center": true, "momentum": 0.99, "gamma_regularizer": null}, "inbound_nodes": [[["conv2d_264", 0, 0, {}]]], "class_name": "BatchNormalization"}, {"name": "activation_260", "config": {"name": "activation_260", "trainable": true, "activation": "relu"}, "inbound_nodes": [[["batch_normalization_260", 0, 0, {}]]], "class_name": "Activation"}, {"name": "activation_264", "config": {"name": "activation_264", "trainable": true, "activation": "relu"}, "inbound_nodes": [[["batch_normalization_264", 0, 0, {}]]], "class_name": "Activation"}, {"name": "max_pooling2d_12", "config": {"name": "max_pooling2d_12", "pool_size": [3, 3], "data_format": "channels_last", "strides": [2, 2], "padding": "valid", "trainable": true}, "inbound_nodes": [[["mixed7", 0, 0, {}]]], "class_name": "MaxPooling2D"}, {"name": "mixed8", "config": {"name": "mixed8", "trainable": true, "axis": 3}, "inbound_nodes": [[["activation_260", 0, 0, {}], ["activation_264", 0, 0, {}], ["max_pooling2d_12", 0, 0, {}]]], "class_name": "Concatenate"}, {"name": "conv2d_269", "config": {"dilation_rate": [1, 1], "name": "conv2d_269", "kernel_size": [1, 1], "activity_regularizer": null, "filters": 448, "kernel_regularizer": null, "strides": [1, 1], "trainable": true, "bias_initializer": {"config": {}, "class_name": "Zeros"}, "kernel_initializer": {"config": {"mode": "fan_avg", "distribution": "uniform", "scale": 1.0, "seed": null}, "class_name": "VarianceScaling"}, "activation": "linear", "use_bias": false, "padding": "same", "kernel_constraint": null, "data_format": "channels_last", "bias_constraint": null, "bias_regularizer": null}, "inbound_nodes": [[["mixed8", 0, 0, {}]]], "class_name": "Conv2D"}, {"name": "batch_normalization_269", "config": {"name": "batch_normalization_269", "beta_constraint": null, "beta_initializer": {"config": {}, "class_name": "Zeros"}, "beta_regularizer": null, "trainable": true, "moving_variance_initializer": {"config": {}, "class_name": "Ones"}, "axis": 3, "epsilon": 0.001, "scale": false, "gamma_constraint": null, "gamma_initializer": {"config": {}, "class_name": "Ones"}, "moving_mean_initializer": {"config": {}, "class_name": "Zeros"}, "center": true, "momentum": 0.99, "gamma_regularizer": null}, "inbound_nodes": [[["conv2d_269", 0, 0, {}]]], "class_name": "BatchNormalization"}, {"name": "activation_269", "config": {"name": "activation_269", "trainable": true, "activation": "relu"}, "inbound_nodes": [[["batch_normalization_269", 0, 0, {}]]], "class_name": "Activation"}, {"name": "conv2d_266", "config": {"dilation_rate": [1, 1], "name": "conv2d_266", "kernel_size": [1, 1], "activity_regularizer": null, "filters": 384, "kernel_regularizer": null, "strides": [1, 1], "trainable": true, "bias_initializer": {"config": {}, "class_name": "Zeros"}, "kernel_initializer": {"config": {"mode": "fan_avg", "distribution": "uniform", "scale": 1.0, "seed": null}, "class_name": "VarianceScaling"}, "activation": "linear", "use_bias": false, "padding": "same", "kernel_constraint": null, "data_format": "channels_last", "bias_constraint": null, "bias_regularizer": null}, "inbound_nodes": [[["mixed8", 0, 0, {}]]], "class_name": "Conv2D"}, {"name": "conv2d_270", "config": {"dilation_rate": [1, 1], "name": "conv2d_270", "kernel_size": [3, 3], "activity_regularizer": null, "filters": 384, "kernel_regularizer": null, "strides": [1, 1], "trainable": true, "bias_initializer": {"config": {}, "class_name": "Zeros"}, "kernel_initializer": {"config": {"mode": "fan_avg", "distribution": "uniform", "scale": 1.0, "seed": null}, "class_name": "VarianceScaling"}, "activation": "linear", "use_bias": false, "padding": "same", "kernel_constraint": null, "data_format": "channels_last", "bias_constraint": null, "bias_regularizer": null}, "inbound_nodes": [[["activation_269", 0, 0, {}]]], "class_name": "Conv2D"}, {"name": "batch_normalization_266", "config": {"name": "batch_normalization_266", "beta_constraint": null, "beta_initializer": {"config": {}, "class_name": "Zeros"}, "beta_regularizer": null, "trainable": true, "moving_variance_initializer": {"config": {}, "class_name": "Ones"}, "axis": 3, "epsilon": 0.001, "scale": false, "gamma_constraint": null, "gamma_initializer": {"config": {}, "class_name": "Ones"}, "moving_mean_initializer": {"config": {}, "class_name": "Zeros"}, "center": true, "momentum": 0.99, "gamma_regularizer": null}, "inbound_nodes": [[["conv2d_266", 0, 0, {}]]], "class_name": "BatchNormalization"}, {"name": "batch_normalization_270", "config": {"name": "batch_normalization_270", "beta_constraint": null, "beta_initializer": {"config": {}, "class_name": "Zeros"}, "beta_regularizer": null, "trainable": true, "moving_variance_initializer": {"config": {}, "class_name": "Ones"}, "axis": 3, "epsilon": 0.001, "scale": false, "gamma_constraint": null, "gamma_initializer": {"config": {}, "class_name": "Ones"}, "moving_mean_initializer": {"config": {}, "class_name": "Zeros"}, "center": true, "momentum": 0.99, "gamma_regularizer": null}, "inbound_nodes": [[["conv2d_270", 0, 0, {}]]], "class_name": "BatchNormalization"}, {"name": "activation_266", "config": {"name": "activation_266", "trainable": true, "activation": "relu"}, "inbound_nodes": [[["batch_normalization_266", 0, 0, {}]]], "class_name": "Activation"}, {"name": "activation_270", "config": {"name": "activation_270", "trainable": true, "activation": "relu"}, "inbound_nodes": [[["batch_normalization_270", 0, 0, {}]]], "class_name": "Activation"}, {"name": "conv2d_267", "config": {"dilation_rate": [1, 1], "name": "conv2d_267", "kernel_size": [1, 3], "activity_regularizer": null, "filters": 384, "kernel_regularizer": null, "strides": [1, 1], "trainable": true, "bias_initializer": {"config": {}, "class_name": "Zeros"}, "kernel_initializer": {"config": {"mode": "fan_avg", "distribution": "uniform", "scale": 1.0, "seed": null}, "class_name": "VarianceScaling"}, "activation": "linear", "use_bias": false, "padding": "same", "kernel_constraint": null, "data_format": "channels_last", "bias_constraint": null, "bias_regularizer": null}, "inbound_nodes": [[["activation_266", 0, 0, {}]]], "class_name": "Conv2D"}, {"name": "conv2d_268", "config": {"dilation_rate": [1, 1], "name": "conv2d_268", "kernel_size": [3, 1], "activity_regularizer": null, "filters": 384, "kernel_regularizer": null, "strides": [1, 1], "trainable": true, "bias_initializer": {"config": {}, "class_name": "Zeros"}, "kernel_initializer": {"config": {"mode": "fan_avg", "distribution": "uniform", "scale": 1.0, "seed": null}, "class_name": "VarianceScaling"}, "activation": "linear", "use_bias": false, "padding": "same", "kernel_constraint": null, "data_format": "channels_last", "bias_constraint": null, "bias_regularizer": null}, "inbound_nodes": [[["activation_266", 0, 0, {}]]], "class_name": "Conv2D"}, {"name": "conv2d_271", "config": {"dilation_rate": [1, 1], "name": "conv2d_271", "kernel_size": [1, 3], "activity_regularizer": null, "filters": 384, "kernel_regularizer": null, "strides": [1, 1], "trainable": true, "bias_initializer": {"config": {}, "class_name": "Zeros"}, "kernel_initializer": {"config": {"mode": "fan_avg", "distribution": "uniform", "scale": 1.0, "seed": null}, "class_name": "VarianceScaling"}, "activation": "linear", "use_bias": false, "padding": "same", "kernel_constraint": null, "data_format": "channels_last", "bias_constraint": null, "bias_regularizer": null}, "inbound_nodes": [[["activation_270", 0, 0, {}]]], "class_name": "Conv2D"}, {"name": "conv2d_272", "config": {"dilation_rate": [1, 1], "name": "conv2d_272", "kernel_size": [3, 1], "activity_regularizer": null, "filters": 384, "kernel_regularizer": null, "strides": [1, 1], "trainable": true, "bias_initializer": {"config": {}, "class_name": "Zeros"}, "kernel_initializer": {"config": {"mode": "fan_avg", "distribution": "uniform", "scale": 1.0, "seed": null}, "class_name": "VarianceScaling"}, "activation": "linear", "use_bias": false, "padding": "same", "kernel_constraint": null, "data_format": "channels_last", "bias_constraint": null, "bias_regularizer": null}, "inbound_nodes": [[["activation_270", 0, 0, {}]]], "class_name": "Conv2D"}, {"name": "average_pooling2d_26", "config": {"name": "average_pooling2d_26", "pool_size": [3, 3], "data_format": "channels_last", "strides": [1, 1], "padding": "same", "trainable": true}, "inbound_nodes": [[["mixed8", 0, 0, {}]]], "class_name": "AveragePooling2D"}, {"name": "conv2d_265", "config": {"dilation_rate": [1, 1], "name": "conv2d_265", "kernel_size": [1, 1], "activity_regularizer": null, "filters": 320, "kernel_regularizer": null, "strides": [1, 1], "trainable": true, "bias_initializer": {"config": {}, "class_name": "Zeros"}, "kernel_initializer": {"config": {"mode": "fan_avg", "distribution": "uniform", "scale": 1.0, "seed": null}, "class_name": "VarianceScaling"}, "activation": "linear", "use_bias": false, "padding": "same", "kernel_constraint": null, "data_format": "channels_last", "bias_constraint": null, "bias_regularizer": null}, "inbound_nodes": [[["mixed8", 0, 0, {}]]], "class_name": "Conv2D"}, {"name": "batch_normalization_267", "config": {"name": "batch_normalization_267", "beta_constraint": null, "beta_initializer": {"config": {}, "class_name": "Zeros"}, "beta_regularizer": null, "trainable": true, "moving_variance_initializer": {"config": {}, "class_name": "Ones"}, "axis": 3, "epsilon": 0.001, "scale": false, "gamma_constraint": null, "gamma_initializer": {"config": {}, "class_name": "Ones"}, "moving_mean_initializer": {"config": {}, "class_name": "Zeros"}, "center": true, "momentum": 0.99, "gamma_regularizer": null}, "inbound_nodes": [[["conv2d_267", 0, 0, {}]]], "class_name": "BatchNormalization"}, {"name": "batch_normalization_268", "config": {"name": "batch_normalization_268", "beta_constraint": null, "beta_initializer": {"config": {}, "class_name": "Zeros"}, "beta_regularizer": null, "trainable": true, "moving_variance_initializer": {"config": {}, "class_name": "Ones"}, "axis": 3, "epsilon": 0.001, "scale": false, "gamma_constraint": null, "gamma_initializer": {"config": {}, "class_name": "Ones"}, "moving_mean_initializer": {"config": {}, "class_name": "Zeros"}, "center": true, "momentum": 0.99, "gamma_regularizer": null}, "inbound_nodes": [[["conv2d_268", 0, 0, {}]]], "class_name": "BatchNormalization"}, {"name": "batch_normalization_271", "config": {"name": "batch_normalization_271", "beta_constraint": null, "beta_initializer": {"config": {}, "class_name": "Zeros"}, "beta_regularizer": null, "trainable": true, "moving_variance_initializer": {"config": {}, "class_name": "Ones"}, "axis": 3, "epsilon": 0.001, "scale": false, "gamma_constraint": null, "gamma_initializer": {"config": {}, "class_name": "Ones"}, "moving_mean_initializer": {"config": {}, "class_name": "Zeros"}, "center": true, "momentum": 0.99, "gamma_regularizer": null}, "inbound_nodes": [[["conv2d_271", 0, 0, {}]]], "class_name": "BatchNormalization"}, {"name": "batch_normalization_272", "config": {"name": "batch_normalization_272", "beta_constraint": null, "beta_initializer": {"config": {}, "class_name": "Zeros"}, "beta_regularizer": null, "trainable": true, "moving_variance_initializer": {"config": {}, "class_name": "Ones"}, "axis": 3, "epsilon": 0.001, "scale": false, "gamma_constraint": null, "gamma_initializer": {"config": {}, "class_name": "Ones"}, "moving_mean_initializer": {"config": {}, "class_name": "Zeros"}, "center": true, "momentum": 0.99, "gamma_regularizer": null}, "inbound_nodes": [[["conv2d_272", 0, 0, {}]]], "class_name": "BatchNormalization"}, {"name": "conv2d_273", "config": {"dilation_rate": [1, 1], "name": "conv2d_273", "kernel_size": [1, 1], "activity_regularizer": null, "filters": 192, "kernel_regularizer": null, "strides": [1, 1], "trainable": true, "bias_initializer": {"config": {}, "class_name": "Zeros"}, "kernel_initializer": {"config": {"mode": "fan_avg", "distribution": "uniform", "scale": 1.0, "seed": null}, "class_name": "VarianceScaling"}, "activation": "linear", "use_bias": false, "padding": "same", "kernel_constraint": null, "data_format": "channels_last", "bias_constraint": null, "bias_regularizer": null}, "inbound_nodes": [[["average_pooling2d_26", 0, 0, {}]]], "class_name": "Conv2D"}, {"name": "batch_normalization_265", "config": {"name": "batch_normalization_265", "beta_constraint": null, "beta_initializer": {"config": {}, "class_name": "Zeros"}, "beta_regularizer": null, "trainable": true, "moving_variance_initializer": {"config": {}, "class_name": "Ones"}, "axis": 3, "epsilon": 0.001, "scale": false, "gamma_constraint": null, "gamma_initializer": {"config": {}, "class_name": "Ones"}, "moving_mean_initializer": {"config": {}, "class_name": "Zeros"}, "center": true, "momentum": 0.99, "gamma_regularizer": null}, "inbound_nodes": [[["conv2d_265", 0, 0, {}]]], "class_name": "BatchNormalization"}, {"name": "activation_267", "config": {"name": "activation_267", "trainable": true, "activation": "relu"}, "inbound_nodes": [[["batch_normalization_267", 0, 0, {}]]], "class_name": "Activation"}, {"name": "activation_268", "config": {"name": "activation_268", "trainable": true, "activation": "relu"}, "inbound_nodes": [[["batch_normalization_268", 0, 0, {}]]], "class_name": "Activation"}, {"name": "activation_271", "config": {"name": "activation_271", "trainable": true, "activation": "relu"}, "inbound_nodes": [[["batch_normalization_271", 0, 0, {}]]], "class_name": "Activation"}, {"name": "activation_272", "config": {"name": "activation_272", "trainable": true, "activation": "relu"}, "inbound_nodes": [[["batch_normalization_272", 0, 0, {}]]], "class_name": "Activation"}, {"name": "batch_normalization_273", "config": {"name": "batch_normalization_273", "beta_constraint": null, "beta_initializer": {"config": {}, "class_name": "Zeros"}, "beta_regularizer": null, "trainable": true, "moving_variance_initializer": {"config": {}, "class_name": "Ones"}, "axis": 3, "epsilon": 0.001, "scale": false, "gamma_constraint": null, "gamma_initializer": {"config": {}, "class_name": "Ones"}, "moving_mean_initializer": {"config": {}, "class_name": "Zeros"}, "center": true, "momentum": 0.99, "gamma_regularizer": null}, "inbound_nodes": [[["conv2d_273", 0, 0, {}]]], "class_name": "BatchNormalization"}, {"name": "activation_265", "config": {"name": "activation_265", "trainable": true, "activation": "relu"}, "inbound_nodes": [[["batch_normalization_265", 0, 0, {}]]], "class_name": "Activation"}, {"name": "mixed9_0", "config": {"name": "mixed9_0", "trainable": true, "axis": 3}, "inbound_nodes": [[["activation_267", 0, 0, {}], ["activation_268", 0, 0, {}]]], "class_name": "Concatenate"}, {"name": "concatenate_5", "config": {"name": "concatenate_5", "trainable": true, "axis": 3}, "inbound_nodes": [[["activation_271", 0, 0, {}], ["activation_272", 0, 0, {}]]], "class_name": "Concatenate"}, {"name": "activation_273", "config": {"name": "activation_273", "trainable": true, "activation": "relu"}, "inbound_nodes": [[["batch_normalization_273", 0, 0, {}]]], "class_name": "Activation"}, {"name": "mixed9", "config": {"name": "mixed9", "trainable": true, "axis": 3}, "inbound_nodes": [[["activation_265", 0, 0, {}], ["mixed9_0", 0, 0, {}], ["concatenate_5", 0, 0, {}], ["activation_273", 0, 0, {}]]], "class_name": "Concatenate"}, {"name": "conv2d_278", "config": {"dilation_rate": [1, 1], "name": "conv2d_278", "kernel_size": [1, 1], "activity_regularizer": null, "filters": 448, "kernel_regularizer": null, "strides": [1, 1], "trainable": true, "bias_initializer": {"config": {}, "class_name": "Zeros"}, "kernel_initializer": {"config": {"mode": "fan_avg", "distribution": "uniform", "scale": 1.0, "seed": null}, "class_name": "VarianceScaling"}, "activation": "linear", "use_bias": false, "padding": "same", "kernel_constraint": null, "data_format": "channels_last", "bias_constraint": null, "bias_regularizer": null}, "inbound_nodes": [[["mixed9", 0, 0, {}]]], "class_name": "Conv2D"}, {"name": "batch_normalization_278", "config": {"name": "batch_normalization_278", "beta_constraint": null, "beta_initializer": {"config": {}, "class_name": "Zeros"}, "beta_regularizer": null, "trainable": true, "moving_variance_initializer": {"config": {}, "class_name": "Ones"}, "axis": 3, "epsilon": 0.001, "scale": false, "gamma_constraint": null, "gamma_initializer": {"config": {}, "class_name": "Ones"}, "moving_mean_initializer": {"config": {}, "class_name": "Zeros"}, "center": true, "momentum": 0.99, "gamma_regularizer": null}, "inbound_nodes": [[["conv2d_278", 0, 0, {}]]], "class_name": "BatchNormalization"}, {"name": "activation_278", "config": {"name": "activation_278", "trainable": true, "activation": "relu"}, "inbound_nodes": [[["batch_normalization_278", 0, 0, {}]]], "class_name": "Activation"}, {"name": "conv2d_275", "config": {"dilation_rate": [1, 1], "name": "conv2d_275", "kernel_size": [1, 1], "activity_regularizer": null, "filters": 384, "kernel_regularizer": null, "strides": [1, 1], "trainable": true, "bias_initializer": {"config": {}, "class_name": "Zeros"}, "kernel_initializer": {"config": {"mode": "fan_avg", "distribution": "uniform", "scale": 1.0, "seed": null}, "class_name": "VarianceScaling"}, "activation": "linear", "use_bias": false, "padding": "same", "kernel_constraint": null, "data_format": "channels_last", "bias_constraint": null, "bias_regularizer": null}, "inbound_nodes": [[["mixed9", 0, 0, {}]]], "class_name": "Conv2D"}, {"name": "conv2d_279", "config": {"dilation_rate": [1, 1], "name": "conv2d_279", "kernel_size": [3, 3], "activity_regularizer": null, "filters": 384, "kernel_regularizer": null, "strides": [1, 1], "trainable": true, "bias_initializer": {"config": {}, "class_name": "Zeros"}, "kernel_initializer": {"config": {"mode": "fan_avg", "distribution": "uniform", "scale": 1.0, "seed": null}, "class_name": "VarianceScaling"}, "activation": "linear", "use_bias": false, "padding": "same", "kernel_constraint": null, "data_format": "channels_last", "bias_constraint": null, "bias_regularizer": null}, "inbound_nodes": [[["activation_278", 0, 0, {}]]], "class_name": "Conv2D"}, {"name": "batch_normalization_275", "config": {"name": "batch_normalization_275", "beta_constraint": null, "beta_initializer": {"config": {}, "class_name": "Zeros"}, "beta_regularizer": null, "trainable": true, "moving_variance_initializer": {"config": {}, "class_name": "Ones"}, "axis": 3, "epsilon": 0.001, "scale": false, "gamma_constraint": null, "gamma_initializer": {"config": {}, "class_name": "Ones"}, "moving_mean_initializer": {"config": {}, "class_name": "Zeros"}, "center": true, "momentum": 0.99, "gamma_regularizer": null}, "inbound_nodes": [[["conv2d_275", 0, 0, {}]]], "class_name": "BatchNormalization"}, {"name": "batch_normalization_279", "config": {"name": "batch_normalization_279", "beta_constraint": null, "beta_initializer": {"config": {}, "class_name": "Zeros"}, "beta_regularizer": null, "trainable": true, "moving_variance_initializer": {"config": {}, "class_name": "Ones"}, "axis": 3, "epsilon": 0.001, "scale": false, "gamma_constraint": null, "gamma_initializer": {"config": {}, "class_name": "Ones"}, "moving_mean_initializer": {"config": {}, "class_name": "Zeros"}, "center": true, "momentum": 0.99, "gamma_regularizer": null}, "inbound_nodes": [[["conv2d_279", 0, 0, {}]]], "class_name": "BatchNormalization"}, {"name": "activation_275", "config": {"name": "activation_275", "trainable": true, "activation": "relu"}, "inbound_nodes": [[["batch_normalization_275", 0, 0, {}]]], "class_name": "Activation"}, {"name": "activation_279", "config": {"name": "activation_279", "trainable": true, "activation": "relu"}, "inbound_nodes": [[["batch_normalization_279", 0, 0, {}]]], "class_name": "Activation"}, {"name": "conv2d_276", "config": {"dilation_rate": [1, 1], "name": "conv2d_276", "kernel_size": [1, 3], "activity_regularizer": null, "filters": 384, "kernel_regularizer": null, "strides": [1, 1], "trainable": true, "bias_initializer": {"config": {}, "class_name": "Zeros"}, "kernel_initializer": {"config": {"mode": "fan_avg", "distribution": "uniform", "scale": 1.0, "seed": null}, "class_name": "VarianceScaling"}, "activation": "linear", "use_bias": false, "padding": "same", "kernel_constraint": null, "data_format": "channels_last", "bias_constraint": null, "bias_regularizer": null}, "inbound_nodes": [[["activation_275", 0, 0, {}]]], "class_name": "Conv2D"}, {"name": "conv2d_277", "config": {"dilation_rate": [1, 1], "name": "conv2d_277", "kernel_size": [3, 1], "activity_regularizer": null, "filters": 384, "kernel_regularizer": null, "strides": [1, 1], "trainable": true, "bias_initializer": {"config": {}, "class_name": "Zeros"}, "kernel_initializer": {"config": {"mode": "fan_avg", "distribution": "uniform", "scale": 1.0, "seed": null}, "class_name": "VarianceScaling"}, "activation": "linear", "use_bias": false, "padding": "same", "kernel_constraint": null, "data_format": "channels_last", "bias_constraint": null, "bias_regularizer": null}, "inbound_nodes": [[["activation_275", 0, 0, {}]]], "class_name": "Conv2D"}, {"name": "conv2d_280", "config": {"dilation_rate": [1, 1], "name": "conv2d_280", "kernel_size": [1, 3], "activity_regularizer": null, "filters": 384, "kernel_regularizer": null, "strides": [1, 1], "trainable": true, "bias_initializer": {"config": {}, "class_name": "Zeros"}, "kernel_initializer": {"config": {"mode": "fan_avg", "distribution": "uniform", "scale": 1.0, "seed": null}, "class_name": "VarianceScaling"}, "activation": "linear", "use_bias": false, "padding": "same", "kernel_constraint": null, "data_format": "channels_last", "bias_constraint": null, "bias_regularizer": null}, "inbound_nodes": [[["activation_279", 0, 0, {}]]], "class_name": "Conv2D"}, {"name": "conv2d_281", "config": {"dilation_rate": [1, 1], "name": "conv2d_281", "kernel_size": [3, 1], "activity_regularizer": null, "filters": 384, "kernel_regularizer": null, "strides": [1, 1], "trainable": true, "bias_initializer": {"config": {}, "class_name": "Zeros"}, "kernel_initializer": {"config": {"mode": "fan_avg", "distribution": "uniform", "scale": 1.0, "seed": null}, "class_name": "VarianceScaling"}, "activation": "linear", "use_bias": false, "padding": "same", "kernel_constraint": null, "data_format": "channels_last", "bias_constraint": null, "bias_regularizer": null}, "inbound_nodes": [[["activation_279", 0, 0, {}]]], "class_name": "Conv2D"}, {"name": "average_pooling2d_27", "config": {"name": "average_pooling2d_27", "pool_size": [3, 3], "data_format": "channels_last", "strides": [1, 1], "padding": "same", "trainable": true}, "inbound_nodes": [[["mixed9", 0, 0, {}]]], "class_name": "AveragePooling2D"}, {"name": "conv2d_274", "config": {"dilation_rate": [1, 1], "name": "conv2d_274", "kernel_size": [1, 1], "activity_regularizer": null, "filters": 320, "kernel_regularizer": null, "strides": [1, 1], "trainable": true, "bias_initializer": {"config": {}, "class_name": "Zeros"}, "kernel_initializer": {"config": {"mode": "fan_avg", "distribution": "uniform", "scale": 1.0, "seed": null}, "class_name": "VarianceScaling"}, "activation": "linear", "use_bias": false, "padding": "same", "kernel_constraint": null, "data_format": "channels_last", "bias_constraint": null, "bias_regularizer": null}, "inbound_nodes": [[["mixed9", 0, 0, {}]]], "class_name": "Conv2D"}, {"name": "batch_normalization_276", "config": {"name": "batch_normalization_276", "beta_constraint": null, "beta_initializer": {"config": {}, "class_name": "Zeros"}, "beta_regularizer": null, "trainable": true, "moving_variance_initializer": {"config": {}, "class_name": "Ones"}, "axis": 3, "epsilon": 0.001, "scale": false, "gamma_constraint": null, "gamma_initializer": {"config": {}, "class_name": "Ones"}, "moving_mean_initializer": {"config": {}, "class_name": "Zeros"}, "center": true, "momentum": 0.99, "gamma_regularizer": null}, "inbound_nodes": [[["conv2d_276", 0, 0, {}]]], "class_name": "BatchNormalization"}, {"name": "batch_normalization_277", "config": {"name": "batch_normalization_277", "beta_constraint": null, "beta_initializer": {"config": {}, "class_name": "Zeros"}, "beta_regularizer": null, "trainable": true, "moving_variance_initializer": {"config": {}, "class_name": "Ones"}, "axis": 3, "epsilon": 0.001, "scale": false, "gamma_constraint": null, "gamma_initializer": {"config": {}, "class_name": "Ones"}, "moving_mean_initializer": {"config": {}, "class_name": "Zeros"}, "center": true, "momentum": 0.99, "gamma_regularizer": null}, "inbound_nodes": [[["conv2d_277", 0, 0, {}]]], "class_name": "BatchNormalization"}, {"name": "batch_normalization_280", "config": {"name": "batch_normalization_280", "beta_constraint": null, "beta_initializer": {"config": {}, "class_name": "Zeros"}, "beta_regularizer": null, "trainable": true, "moving_variance_initializer": {"config": {}, "class_name": "Ones"}, "axis": 3, "epsilon": 0.001, "scale": false, "gamma_constraint": null, "gamma_initializer": {"config": {}, "class_name": "Ones"}, "moving_mean_initializer": {"config": {}, "class_name": "Zeros"}, "center": true, "momentum": 0.99, "gamma_regularizer": null}, "inbound_nodes": [[["conv2d_280", 0, 0, {}]]], "class_name": "BatchNormalization"}, {"name": "batch_normalization_281", "config": {"name": "batch_normalization_281", "beta_constraint": null, "beta_initializer": {"config": {}, "class_name": "Zeros"}, "beta_regularizer": null, "trainable": true, "moving_variance_initializer": {"config": {}, "class_name": "Ones"}, "axis": 3, "epsilon": 0.001, "scale": false, "gamma_constraint": null, "gamma_initializer": {"config": {}, "class_name": "Ones"}, "moving_mean_initializer": {"config": {}, "class_name": "Zeros"}, "center": true, "momentum": 0.99, "gamma_regularizer": null}, "inbound_nodes": [[["conv2d_281", 0, 0, {}]]], "class_name": "BatchNormalization"}, {"name": "conv2d_282", "config": {"dilation_rate": [1, 1], "name": "conv2d_282", "kernel_size": [1, 1], "activity_regularizer": null, "filters": 192, "kernel_regularizer": null, "strides": [1, 1], "trainable": true, "bias_initializer": {"config": {}, "class_name": "Zeros"}, "kernel_initializer": {"config": {"mode": "fan_avg", "distribution": "uniform", "scale": 1.0, "seed": null}, "class_name": "VarianceScaling"}, "activation": "linear", "use_bias": false, "padding": "same", "kernel_constraint": null, "data_format": "channels_last", "bias_constraint": null, "bias_regularizer": null}, "inbound_nodes": [[["average_pooling2d_27", 0, 0, {}]]], "class_name": "Conv2D"}, {"name": "batch_normalization_274", "config": {"name": "batch_normalization_274", "beta_constraint": null, "beta_initializer": {"config": {}, "class_name": "Zeros"}, "beta_regularizer": null, "trainable": true, "moving_variance_initializer": {"config": {}, "class_name": "Ones"}, "axis": 3, "epsilon": 0.001, "scale": false, "gamma_constraint": null, "gamma_initializer": {"config": {}, "class_name": "Ones"}, "moving_mean_initializer": {"config": {}, "class_name": "Zeros"}, "center": true, "momentum": 0.99, "gamma_regularizer": null}, "inbound_nodes": [[["conv2d_274", 0, 0, {}]]], "class_name": "BatchNormalization"}, {"name": "activation_276", "config": {"name": "activation_276", "trainable": true, "activation": "relu"}, "inbound_nodes": [[["batch_normalization_276", 0, 0, {}]]], "class_name": "Activation"}, {"name": "activation_277", "config": {"name": "activation_277", "trainable": true, "activation": "relu"}, "inbound_nodes": [[["batch_normalization_277", 0, 0, {}]]], "class_name": "Activation"}, {"name": "activation_280", "config": {"name": "activation_280", "trainable": true, "activation": "relu"}, "inbound_nodes": [[["batch_normalization_280", 0, 0, {}]]], "class_name": "Activation"}, {"name": "activation_281", "config": {"name": "activation_281", "trainable": true, "activation": "relu"}, "inbound_nodes": [[["batch_normalization_281", 0, 0, {}]]], "class_name": "Activation"}, {"name": "batch_normalization_282", "config": {"name": "batch_normalization_282", "beta_constraint": null, "beta_initializer": {"config": {}, "class_name": "Zeros"}, "beta_regularizer": null, "trainable": true, "moving_variance_initializer": {"config": {}, "class_name": "Ones"}, "axis": 3, "epsilon": 0.001, "scale": false, "gamma_constraint": null, "gamma_initializer": {"config": {}, "class_name": "Ones"}, "moving_mean_initializer": {"config": {}, "class_name": "Zeros"}, "center": true, "momentum": 0.99, "gamma_regularizer": null}, "inbound_nodes": [[["conv2d_282", 0, 0, {}]]], "class_name": "BatchNormalization"}, {"name": "activation_274", "config": {"name": "activation_274", "trainable": true, "activation": "relu"}, "inbound_nodes": [[["batch_normalization_274", 0, 0, {}]]], "class_name": "Activation"}, {"name": "mixed9_1", "config": {"name": "mixed9_1", "trainable": true, "axis": 3}, "inbound_nodes": [[["activation_276", 0, 0, {}], ["activation_277", 0, 0, {}]]], "class_name": "Concatenate"}, {"name": "concatenate_6", "config": {"name": "concatenate_6", "trainable": true, "axis": 3}, "inbound_nodes": [[["activation_280", 0, 0, {}], ["activation_281", 0, 0, {}]]], "class_name": "Concatenate"}, {"name": "activation_282", "config": {"name": "activation_282", "trainable": true, "activation": "relu"}, "inbound_nodes": [[["batch_normalization_282", 0, 0, {}]]], "class_name": "Activation"}, {"name": "mixed10", "config": {"name": "mixed10", "trainable": true, "axis": 3}, "inbound_nodes": [[["activation_274", 0, 0, {}], ["mixed9_1", 0, 0, {}], ["concatenate_6", 0, 0, {}], ["activation_282", 0, 0, {}]]], "class_name": "Concatenate"}, {"name": "global_average_pooling2d_1", "config": {"name": "global_average_pooling2d_1", "trainable": true, "data_format": "channels_last"}, "inbound_nodes": [[["mixed10", 0, 0, {}]]], "class_name": "GlobalAveragePooling2D"}, {"name": "dense_1", "config": {"activity_regularizer": null, "name": "dense_1", "activation": "relu", "kernel_regularizer": null, "trainable": true, "bias_initializer": {"config": {}, "class_name": "Zeros"}, "kernel_initializer": {"config": {"mode": "fan_avg", "distribution": "uniform", "scale": 1.0, "seed": null}, "class_name": "VarianceScaling"}, "use_bias": true, "kernel_constraint": null, "bias_constraint": null, "units": 1024, "bias_regularizer": null}, "inbound_nodes": [[["global_average_pooling2d_1", 0, 0, {}]]], "class_name": "Dense"}, {"name": "dense_2", "config": {"activity_regularizer": null, "name": "dense_2", "activation": "softmax", "kernel_regularizer": null, "trainable": true, "bias_initializer": {"config": {}, "class_name": "Zeros"}, "kernel_initializer": {"config": {"mode": "fan_avg", "distribution": "uniform", "scale": 1.0, "seed": null}, "class_name": "VarianceScaling"}, "use_bias": true, "kernel_constraint": null, "bias_constraint": null, "units": 12, "bias_regularizer": null}, "inbound_nodes": [[["dense_1", 0, 0, {}]]], "class_name": "Dense"}], "input_layers": [["input_3", 0, 0]], "output_layers": [["dense_2", 0, 0]]}, "class_name": "Model", "keras_version": "2.1.3", "backend": "theano"}