{"backend": "theano", "keras_version": "2.1.3", "class_name": "Model", "config": {"layers": [{"class_name": "InputLayer", "name": "input_3", "inbound_nodes": [], "config": {"sparse": false, "name": "input_3", "dtype": "float32", "batch_input_shape": [null, null, null, 3]}}, {"class_name": "Conv2D", "name": "conv2d_189", "inbound_nodes": [[["input_3", 0, 0, {}]]], "config": {"use_bias": false, "dilation_rate": [1, 1], "bias_regularizer": null, "padding": "valid", "kernel_initializer": {"class_name": "VarianceScaling", "config": {"mode": "fan_avg", "seed": null, "scale": 1.0, "distribution": "uniform"}}, "trainable": false, "filters": 32, "strides": [2, 2], "bias_constraint": null, "kernel_regularizer": null, "activation": "linear", "kernel_constraint": null, "bias_initializer": {"class_name": "Zeros", "config": {}}, "name": "conv2d_189", "data_format": "channels_last", "activity_regularizer": null, "kernel_size": [3, 3]}}, {"class_name": "BatchNormalization", "name": "batch_normalization_189", "inbound_nodes": [[["conv2d_189", 0, 0, {}]]], "config": {"gamma_constraint": null, "epsilon": 0.001, "center": true, "trainable": false, "scale": false, "beta_regularizer": null, "gamma_initializer": {"class_name": "Ones", "config": {}}, "gamma_regularizer": null, "beta_initializer": {"class_name": "Zeros", "config": {}}, "beta_constraint": null, "axis": 3, "momentum": 0.99, "name": "batch_normalization_189", "moving_mean_initializer": {"class_name": "Zeros", "config": {}}, "moving_variance_initializer": {"class_name": "Ones", "config": {}}}}, {"class_name": "Activation", "name": "activation_189", "inbound_nodes": [[["batch_normalization_189", 0, 0, {}]]], "config": {"name": "activation_189", "trainable": false, "activation": "relu"}}, {"class_name": "Conv2D", "name": "conv2d_190", "inbound_nodes": [[["activation_189", 0, 0, {}]]], "config": {"use_bias": false, "dilation_rate": [1, 1], "bias_regularizer": null, "padding": "valid", "kernel_initializer": {"class_name": "VarianceScaling", "config": {"mode": "fan_avg", "seed": null, "scale": 1.0, "distribution": "uniform"}}, "trainable": false, "filters": 32, "strides": [1, 1], "bias_constraint": null, "kernel_regularizer": null, "activation": "linear", "kernel_constraint": null, "bias_initializer": {"class_name": "Zeros", "config": {}}, "name": "conv2d_190", "data_format": "channels_last", "activity_regularizer": null, "kernel_size": [3, 3]}}, {"class_name": "BatchNormalization", "name": "batch_normalization_190", "inbound_nodes": [[["conv2d_190", 0, 0, {}]]], "config": {"gamma_constraint": null, "epsilon": 0.001, "center": true, "trainable": false, "scale": false, "beta_regularizer": null, "gamma_initializer": {"class_name": "Ones", "config": {}}, "gamma_regularizer": null, "beta_initializer": {"class_name": "Zeros", "config": {}}, "beta_constraint": null, "axis": 3, "momentum": 0.99, "name": "batch_normalization_190", "moving_mean_initializer": {"class_name": "Zeros", "config": {}}, "moving_variance_initializer": {"class_name": "Ones", "config": {}}}}, {"class_name": "Activation", "name": "activation_190", "inbound_nodes": [[["batch_normalization_190", 0, 0, {}]]], "config": {"name": "activation_190", "trainable": false, "activation": "relu"}}, {"class_name": "Conv2D", "name": "conv2d_191", "inbound_nodes": [[["activation_190", 0, 0, {}]]], "config": {"use_bias": false, "dilation_rate": [1, 1], "bias_regularizer": null, "padding": "same", "kernel_initializer": {"class_name": "VarianceScaling", "config": {"mode": "fan_avg", "seed": null, "scale": 1.0, "distribution": "uniform"}}, "trainable": false, "filters": 64, "strides": [1, 1], "bias_constraint": null, "kernel_regularizer": null, "activation": "linear", "kernel_constraint": null, "bias_initializer": {"class_name": "Zeros", "config": {}}, "name": "conv2d_191", "data_format": "channels_last", "activity_regularizer": null, "kernel_size": [3, 3]}}, {"class_name": "BatchNormalization", "name": "batch_normalization_191", "inbound_nodes": [[["conv2d_191", 0, 0, {}]]], "config": {"gamma_constraint": null, "epsilon": 0.001, "center": true, "trainable": false, "scale": false, "beta_regularizer": null, "gamma_initializer": {"class_name": "Ones", "config": {}}, "gamma_regularizer": null, "beta_initializer": {"class_name": "Zeros", "config": {}}, "beta_constraint": null, "axis": 3, "momentum": 0.99, "name": "batch_normalization_191", "moving_mean_initializer": {"class_name": "Zeros", "config": {}}, "moving_variance_initializer": {"class_name": "Ones", "config": {}}}}, {"class_name": "Activation", "name": "activation_191", "inbound_nodes": [[["batch_normalization_191", 0, 0, {}]]], "config": {"name": "activation_191", "trainable": false, "activation": "relu"}}, {"class_name": "MaxPooling2D", "name": "max_pooling2d_9", "inbound_nodes": [[["activation_191", 0, 0, {}]]], "config": {"pool_size": [3, 3], "padding": "valid", "name": "max_pooling2d_9", "data_format": "channels_last", "trainable": false, "strides": [2, 2]}}, {"class_name": "Conv2D", "name": "conv2d_192", "inbound_nodes": [[["max_pooling2d_9", 0, 0, {}]]], "config": {"use_bias": false, "dilation_rate": [1, 1], "bias_regularizer": null, "padding": "valid", "kernel_initializer": {"class_name": "VarianceScaling", "config": {"mode": "fan_avg", "seed": null, "scale": 1.0, "distribution": "uniform"}}, "trainable": false, "filters": 80, "strides": [1, 1], "bias_constraint": null, "kernel_regularizer": null, "activation": "linear", "kernel_constraint": null, "bias_initializer": {"class_name": "Zeros", "config": {}}, "name": "conv2d_192", "data_format": "channels_last", "activity_regularizer": null, "kernel_size": [1, 1]}}, {"class_name": "BatchNormalization", "name": "batch_normalization_192", "inbound_nodes": [[["conv2d_192", 0, 0, {}]]], "config": {"gamma_constraint": null, "epsilon": 0.001, "center": true, "trainable": false, "scale": false, "beta_regularizer": null, "gamma_initializer": {"class_name": "Ones", "config": {}}, "gamma_regularizer": null, "beta_initializer": {"class_name": "Zeros", "config": {}}, "beta_constraint": null, "axis": 3, "momentum": 0.99, "name": "batch_normalization_192", "moving_mean_initializer": {"class_name": "Zeros", "config": {}}, "moving_variance_initializer": {"class_name": "Ones", "config": {}}}}, {"class_name": "Activation", "name": "activation_192", "inbound_nodes": [[["batch_normalization_192", 0, 0, {}]]], "config": {"name": "activation_192", "trainable": false, "activation": "relu"}}, {"class_name": "Conv2D", "name": "conv2d_193", "inbound_nodes": [[["activation_192", 0, 0, {}]]], "config": {"use_bias": false, "dilation_rate": [1, 1], "bias_regularizer": null, "padding": "valid", "kernel_initializer": {"class_name": "VarianceScaling", "config": {"mode": "fan_avg", "seed": null, "scale": 1.0, "distribution": "uniform"}}, "trainable": false, "filters": 192, "strides": [1, 1], "bias_constraint": null, "kernel_regularizer": null, "activation": "linear", "kernel_constraint": null, "bias_initializer": {"class_name": "Zeros", "config": {}}, "name": "conv2d_193", "data_format": "channels_last", "activity_regularizer": null, "kernel_size": [3, 3]}}, {"class_name": "BatchNormalization", "name": "batch_normalization_193", "inbound_nodes": [[["conv2d_193", 0, 0, {}]]], "config": {"gamma_constraint": null, "epsilon": 0.001, "center": true, "trainable": false, "scale": false, "beta_regularizer": null, "gamma_initializer": {"class_name": "Ones", "config": {}}, "gamma_regularizer": null, "beta_initializer": {"class_name": "Zeros", "config": {}}, "beta_constraint": null, "axis": 3, "momentum": 0.99, "name": "batch_normalization_193", "moving_mean_initializer": {"class_name": "Zeros", "config": {}}, "moving_variance_initializer": {"class_name": "Ones", "config": {}}}}, {"class_name": "Activation", "name": "activation_193", "inbound_nodes": [[["batch_normalization_193", 0, 0, {}]]], "config": {"name": "activation_193", "trainable": false, "activation": "relu"}}, {"class_name": "MaxPooling2D", "name": "max_pooling2d_10", "inbound_nodes": [[["activation_193", 0, 0, {}]]], "config": {"pool_size": [3, 3], "padding": "valid", "name": "max_pooling2d_10", "data_format": "channels_last", "trainable": false, "strides": [2, 2]}}, {"class_name": "Conv2D", "name": "conv2d_197", "inbound_nodes": [[["max_pooling2d_10", 0, 0, {}]]], "config": {"use_bias": false, "dilation_rate": [1, 1], "bias_regularizer": null, "padding": "same", "kernel_initializer": {"class_name": "VarianceScaling", "config": {"mode": "fan_avg", "seed": null, "scale": 1.0, "distribution": "uniform"}}, "trainable": false, "filters": 64, "strides": [1, 1], "bias_constraint": null, "kernel_regularizer": null, "activation": "linear", "kernel_constraint": null, "bias_initializer": {"class_name": "Zeros", "config": {}}, "name": "conv2d_197", "data_format": "channels_last", "activity_regularizer": null, "kernel_size": [1, 1]}}, {"class_name": "BatchNormalization", "name": "batch_normalization_197", "inbound_nodes": [[["conv2d_197", 0, 0, {}]]], "config": {"gamma_constraint": null, "epsilon": 0.001, "center": true, "trainable": false, "scale": false, "beta_regularizer": null, "gamma_initializer": {"class_name": "Ones", "config": {}}, "gamma_regularizer": null, "beta_initializer": {"class_name": "Zeros", "config": {}}, "beta_constraint": null, "axis": 3, "momentum": 0.99, "name": "batch_normalization_197", "moving_mean_initializer": {"class_name": "Zeros", "config": {}}, "moving_variance_initializer": {"class_name": "Ones", "config": {}}}}, {"class_name": "Activation", "name": "activation_197", "inbound_nodes": [[["batch_normalization_197", 0, 0, {}]]], "config": {"name": "activation_197", "trainable": false, "activation": "relu"}}, {"class_name": "Conv2D", "name": "conv2d_195", "inbound_nodes": [[["max_pooling2d_10", 0, 0, {}]]], "config": {"use_bias": false, "dilation_rate": [1, 1], "bias_regularizer": null, "padding": "same", "kernel_initializer": {"class_name": "VarianceScaling", "config": {"mode": "fan_avg", "seed": null, "scale": 1.0, "distribution": "uniform"}}, "trainable": false, "filters": 48, "strides": [1, 1], "bias_constraint": null, "kernel_regularizer": null, "activation": "linear", "kernel_constraint": null, "bias_initializer": {"class_name": "Zeros", "config": {}}, "name": "conv2d_195", "data_format": "channels_last", "activity_regularizer": null, "kernel_size": [1, 1]}}, {"class_name": "Conv2D", "name": "conv2d_198", "inbound_nodes": [[["activation_197", 0, 0, {}]]], "config": {"use_bias": false, "dilation_rate": [1, 1], "bias_regularizer": null, "padding": "same", "kernel_initializer": {"class_name": "VarianceScaling", "config": {"mode": "fan_avg", "seed": null, "scale": 1.0, "distribution": "uniform"}}, "trainable": false, "filters": 96, "strides": [1, 1], "bias_constraint": null, "kernel_regularizer": null, "activation": "linear", "kernel_constraint": null, "bias_initializer": {"class_name": "Zeros", "config": {}}, "name": "conv2d_198", "data_format": "channels_last", "activity_regularizer": null, "kernel_size": [3, 3]}}, {"class_name": "BatchNormalization", "name": "batch_normalization_195", "inbound_nodes": [[["conv2d_195", 0, 0, {}]]], "config": {"gamma_constraint": null, "epsilon": 0.001, "center": true, "trainable": false, "scale": false, "beta_regularizer": null, "gamma_initializer": {"class_name": "Ones", "config": {}}, "gamma_regularizer": null, "beta_initializer": {"class_name": "Zeros", "config": {}}, "beta_constraint": null, "axis": 3, "momentum": 0.99, "name": "batch_normalization_195", "moving_mean_initializer": {"class_name": "Zeros", "config": {}}, "moving_variance_initializer": {"class_name": "Ones", "config": {}}}}, {"class_name": "BatchNormalization", "name": "batch_normalization_198", "inbound_nodes": [[["conv2d_198", 0, 0, {}]]], "config": {"gamma_constraint": null, "epsilon": 0.001, "center": true, "trainable": false, "scale": false, "beta_regularizer": null, "gamma_initializer": {"class_name": "Ones", "config": {}}, "gamma_regularizer": null, "beta_initializer": {"class_name": "Zeros", "config": {}}, "beta_constraint": null, "axis": 3, "momentum": 0.99, "name": "batch_normalization_198", "moving_mean_initializer": {"class_name": "Zeros", "config": {}}, "moving_variance_initializer": {"class_name": "Ones", "config": {}}}}, {"class_name": "Activation", "name": "activation_195", "inbound_nodes": [[["batch_normalization_195", 0, 0, {}]]], "config": {"name": "activation_195", "trainable": false, "activation": "relu"}}, {"class_name": "Activation", "name": "activation_198", "inbound_nodes": [[["batch_normalization_198", 0, 0, {}]]], "config": {"name": "activation_198", "trainable": false, "activation": "relu"}}, {"class_name": "AveragePooling2D", "name": "average_pooling2d_19", "inbound_nodes": [[["max_pooling2d_10", 0, 0, {}]]], "config": {"pool_size": [3, 3], "padding": "same", "name": "average_pooling2d_19", "data_format": "channels_last", "trainable": false, "strides": [1, 1]}}, {"class_name": "Conv2D", "name": "conv2d_194", "inbound_nodes": [[["max_pooling2d_10", 0, 0, {}]]], "config": {"use_bias": false, "dilation_rate": [1, 1], "bias_regularizer": null, "padding": "same", "kernel_initializer": {"class_name": "VarianceScaling", "config": {"mode": "fan_avg", "seed": null, "scale": 1.0, "distribution": "uniform"}}, "trainable": false, "filters": 64, "strides": [1, 1], "bias_constraint": null, "kernel_regularizer": null, "activation": "linear", "kernel_constraint": null, "bias_initializer": {"class_name": "Zeros", "config": {}}, "name": "conv2d_194", "data_format": "channels_last", "activity_regularizer": null, "kernel_size": [1, 1]}}, {"class_name": "Conv2D", "name": "conv2d_196", "inbound_nodes": [[["activation_195", 0, 0, {}]]], "config": {"use_bias": false, "dilation_rate": [1, 1], "bias_regularizer": null, "padding": "same", "kernel_initializer": {"class_name": "VarianceScaling", "config": {"mode": "fan_avg", "seed": null, "scale": 1.0, "distribution": "uniform"}}, "trainable": false, "filters": 64, "strides": [1, 1], "bias_constraint": null, "kernel_regularizer": null, "activation": "linear", "kernel_constraint": null, "bias_initializer": {"class_name": "Zeros", "config": {}}, "name": "conv2d_196", "data_format": "channels_last", "activity_regularizer": null, "kernel_size": [5, 5]}}, {"class_name": "Conv2D", "name": "conv2d_199", "inbound_nodes": [[["activation_198", 0, 0, {}]]], "config": {"use_bias": false, "dilation_rate": [1, 1], "bias_regularizer": null, "padding": "same", "kernel_initializer": {"class_name": "VarianceScaling", "config": {"mode": "fan_avg", "seed": null, "scale": 1.0, "distribution": "uniform"}}, "trainable": false, "filters": 96, "strides": [1, 1], "bias_constraint": null, "kernel_regularizer": null, "activation": "linear", "kernel_constraint": null, "bias_initializer": {"class_name": "Zeros", "config": {}}, "name": "conv2d_199", "data_format": "channels_last", "activity_regularizer": null, "kernel_size": [3, 3]}}, {"class_name": "Conv2D", "name": "conv2d_200", "inbound_nodes": [[["average_pooling2d_19", 0, 0, {}]]], "config": {"use_bias": false, "dilation_rate": [1, 1], "bias_regularizer": null, "padding": "same", "kernel_initializer": {"class_name": "VarianceScaling", "config": {"mode": "fan_avg", "seed": null, "scale": 1.0, "distribution": "uniform"}}, "trainable": false, "filters": 32, "strides": [1, 1], "bias_constraint": null, "kernel_regularizer": null, "activation": "linear", "kernel_constraint": null, "bias_initializer": {"class_name": "Zeros", "config": {}}, "name": "conv2d_200", "data_format": "channels_last", "activity_regularizer": null, "kernel_size": [1, 1]}}, {"class_name": "BatchNormalization", "name": "batch_normalization_194", "inbound_nodes": [[["conv2d_194", 0, 0, {}]]], "config": {"gamma_constraint": null, "epsilon": 0.001, "center": true, "trainable": false, "scale": false, "beta_regularizer": null, "gamma_initializer": {"class_name": "Ones", "config": {}}, "gamma_regularizer": null, "beta_initializer": {"class_name": "Zeros", "config": {}}, "beta_constraint": null, "axis": 3, "momentum": 0.99, "name": "batch_normalization_194", "moving_mean_initializer": {"class_name": "Zeros", "config": {}}, "moving_variance_initializer": {"class_name": "Ones", "config": {}}}}, {"class_name": "BatchNormalization", "name": "batch_normalization_196", "inbound_nodes": [[["conv2d_196", 0, 0, {}]]], "config": {"gamma_constraint": null, "epsilon": 0.001, "center": true, "trainable": false, "scale": false, "beta_regularizer": null, "gamma_initializer": {"class_name": "Ones", "config": {}}, "gamma_regularizer": null, "beta_initializer": {"class_name": "Zeros", "config": {}}, "beta_constraint": null, "axis": 3, "momentum": 0.99, "name": "batch_normalization_196", "moving_mean_initializer": {"class_name": "Zeros", "config": {}}, "moving_variance_initializer": {"class_name": "Ones", "config": {}}}}, {"class_name": "BatchNormalization", "name": "batch_normalization_199", "inbound_nodes": [[["conv2d_199", 0, 0, {}]]], "config": {"gamma_constraint": null, "epsilon": 0.001, "center": true, "trainable": false, "scale": false, "beta_regularizer": null, "gamma_initializer": {"class_name": "Ones", "config": {}}, "gamma_regularizer": null, "beta_initializer": {"class_name": "Zeros", "config": {}}, "beta_constraint": null, "axis": 3, "momentum": 0.99, "name": "batch_normalization_199", "moving_mean_initializer": {"class_name": "Zeros", "config": {}}, "moving_variance_initializer": {"class_name": "Ones", "config": {}}}}, {"class_name": "BatchNormalization", "name": "batch_normalization_200", "inbound_nodes": [[["conv2d_200", 0, 0, {}]]], "config": {"gamma_constraint": null, "epsilon": 0.001, "center": true, "trainable": false, "scale": false, "beta_regularizer": null, "gamma_initializer": {"class_name": "Ones", "config": {}}, "gamma_regularizer": null, "beta_initializer": {"class_name": "Zeros", "config": {}}, "beta_constraint": null, "axis": 3, "momentum": 0.99, "name": "batch_normalization_200", "moving_mean_initializer": {"class_name": "Zeros", "config": {}}, "moving_variance_initializer": {"class_name": "Ones", "config": {}}}}, {"class_name": "Activation", "name": "activation_194", "inbound_nodes": [[["batch_normalization_194", 0, 0, {}]]], "config": {"name": "activation_194", "trainable": false, "activation": "relu"}}, {"class_name": "Activation", "name": "activation_196", "inbound_nodes": [[["batch_normalization_196", 0, 0, {}]]], "config": {"name": "activation_196", "trainable": false, "activation": "relu"}}, {"class_name": "Activation", "name": "activation_199", "inbound_nodes": [[["batch_normalization_199", 0, 0, {}]]], "config": {"name": "activation_199", "trainable": false, "activation": "relu"}}, {"class_name": "Activation", "name": "activation_200", "inbound_nodes": [[["batch_normalization_200", 0, 0, {}]]], "config": {"name": "activation_200", "trainable": false, "activation": "relu"}}, {"class_name": "Concatenate", "name": "mixed0", "inbound_nodes": [[["activation_194", 0, 0, {}], ["activation_196", 0, 0, {}], ["activation_199", 0, 0, {}], ["activation_200", 0, 0, {}]]], "config": {"axis": 3, "name": "mixed0", "trainable": false}}, {"class_name": "Conv2D", "name": "conv2d_204", "inbound_nodes": [[["mixed0", 0, 0, {}]]], "config": {"use_bias": false, "dilation_rate": [1, 1], "bias_regularizer": null, "padding": "same", "kernel_initializer": {"class_name": "VarianceScaling", "config": {"mode": "fan_avg", "seed": null, "scale": 1.0, "distribution": "uniform"}}, "trainable": false, "filters": 64, "strides": [1, 1], "bias_constraint": null, "kernel_regularizer": null, "activation": "linear", "kernel_constraint": null, "bias_initializer": {"class_name": "Zeros", "config": {}}, "name": "conv2d_204", "data_format": "channels_last", "activity_regularizer": null, "kernel_size": [1, 1]}}, {"class_name": "BatchNormalization", "name": "batch_normalization_204", "inbound_nodes": [[["conv2d_204", 0, 0, {}]]], "config": {"gamma_constraint": null, "epsilon": 0.001, "center": true, "trainable": false, "scale": false, "beta_regularizer": null, "gamma_initializer": {"class_name": "Ones", "config": {}}, "gamma_regularizer": null, "beta_initializer": {"class_name": "Zeros", "config": {}}, "beta_constraint": null, "axis": 3, "momentum": 0.99, "name": "batch_normalization_204", "moving_mean_initializer": {"class_name": "Zeros", "config": {}}, "moving_variance_initializer": {"class_name": "Ones", "config": {}}}}, {"class_name": "Activation", "name": "activation_204", "inbound_nodes": [[["batch_normalization_204", 0, 0, {}]]], "config": {"name": "activation_204", "trainable": false, "activation": "relu"}}, {"class_name": "Conv2D", "name": "conv2d_202", "inbound_nodes": [[["mixed0", 0, 0, {}]]], "config": {"use_bias": false, "dilation_rate": [1, 1], "bias_regularizer": null, "padding": "same", "kernel_initializer": {"class_name": "VarianceScaling", "config": {"mode": "fan_avg", "seed": null, "scale": 1.0, "distribution": "uniform"}}, "trainable": false, "filters": 48, "strides": [1, 1], "bias_constraint": null, "kernel_regularizer": null, "activation": "linear", "kernel_constraint": null, "bias_initializer": {"class_name": "Zeros", "config": {}}, "name": "conv2d_202", "data_format": "channels_last", "activity_regularizer": null, "kernel_size": [1, 1]}}, {"class_name": "Conv2D", "name": "conv2d_205", "inbound_nodes": [[["activation_204", 0, 0, {}]]], "config": {"use_bias": false, "dilation_rate": [1, 1], "bias_regularizer": null, "padding": "same", "kernel_initializer": {"class_name": "VarianceScaling", "config": {"mode": "fan_avg", "seed": null, "scale": 1.0, "distribution": "uniform"}}, "trainable": false, "filters": 96, "strides": [1, 1], "bias_constraint": null, "kernel_regularizer": null, "activation": "linear", "kernel_constraint": null, "bias_initializer": {"class_name": "Zeros", "config": {}}, "name": "conv2d_205", "data_format": "channels_last", "activity_regularizer": null, "kernel_size": [3, 3]}}, {"class_name": "BatchNormalization", "name": "batch_normalization_202", "inbound_nodes": [[["conv2d_202", 0, 0, {}]]], "config": {"gamma_constraint": null, "epsilon": 0.001, "center": true, "trainable": false, "scale": false, "beta_regularizer": null, "gamma_initializer": {"class_name": "Ones", "config": {}}, "gamma_regularizer": null, "beta_initializer": {"class_name": "Zeros", "config": {}}, "beta_constraint": null, "axis": 3, "momentum": 0.99, "name": "batch_normalization_202", "moving_mean_initializer": {"class_name": "Zeros", "config": {}}, "moving_variance_initializer": {"class_name": "Ones", "config": {}}}}, {"class_name": "BatchNormalization", "name": "batch_normalization_205", "inbound_nodes": [[["conv2d_205", 0, 0, {}]]], "config": {"gamma_constraint": null, "epsilon": 0.001, "center": true, "trainable": false, "scale": false, "beta_regularizer": null, "gamma_initializer": {"class_name": "Ones", "config": {}}, "gamma_regularizer": null, "beta_initializer": {"class_name": "Zeros", "config": {}}, "beta_constraint": null, "axis": 3, "momentum": 0.99, "name": "batch_normalization_205", "moving_mean_initializer": {"class_name": "Zeros", "config": {}}, "moving_variance_initializer": {"class_name": "Ones", "config": {}}}}, {"class_name": "Activation", "name": "activation_202", "inbound_nodes": [[["batch_normalization_202", 0, 0, {}]]], "config": {"name": "activation_202", "trainable": false, "activation": "relu"}}, {"class_name": "Activation", "name": "activation_205", "inbound_nodes": [[["batch_normalization_205", 0, 0, {}]]], "config": {"name": "activation_205", "trainable": false, "activation": "relu"}}, {"class_name": "AveragePooling2D", "name": "average_pooling2d_20", "inbound_nodes": [[["mixed0", 0, 0, {}]]], "config": {"pool_size": [3, 3], "padding": "same", "name": "average_pooling2d_20", "data_format": "channels_last", "trainable": false, "strides": [1, 1]}}, {"class_name": "Conv2D", "name": "conv2d_201", "inbound_nodes": [[["mixed0", 0, 0, {}]]], "config": {"use_bias": false, "dilation_rate": [1, 1], "bias_regularizer": null, "padding": "same", "kernel_initializer": {"class_name": "VarianceScaling", "config": {"mode": "fan_avg", "seed": null, "scale": 1.0, "distribution": "uniform"}}, "trainable": false, "filters": 64, "strides": [1, 1], "bias_constraint": null, "kernel_regularizer": null, "activation": "linear", "kernel_constraint": null, "bias_initializer": {"class_name": "Zeros", "config": {}}, "name": "conv2d_201", "data_format": "channels_last", "activity_regularizer": null, "kernel_size": [1, 1]}}, {"class_name": "Conv2D", "name": "conv2d_203", "inbound_nodes": [[["activation_202", 0, 0, {}]]], "config": {"use_bias": false, "dilation_rate": [1, 1], "bias_regularizer": null, "padding": "same", "kernel_initializer": {"class_name": "VarianceScaling", "config": {"mode": "fan_avg", "seed": null, "scale": 1.0, "distribution": "uniform"}}, "trainable": false, "filters": 64, "strides": [1, 1], "bias_constraint": null, "kernel_regularizer": null, "activation": "linear", "kernel_constraint": null, "bias_initializer": {"class_name": "Zeros", "config": {}}, "name": "conv2d_203", "data_format": "channels_last", "activity_regularizer": null, "kernel_size": [5, 5]}}, {"class_name": "Conv2D", "name": "conv2d_206", "inbound_nodes": [[["activation_205", 0, 0, {}]]], "config": {"use_bias": false, "dilation_rate": [1, 1], "bias_regularizer": null, "padding": "same", "kernel_initializer": {"class_name": "VarianceScaling", "config": {"mode": "fan_avg", "seed": null, "scale": 1.0, "distribution": "uniform"}}, "trainable": false, "filters": 96, "strides": [1, 1], "bias_constraint": null, "kernel_regularizer": null, "activation": "linear", "kernel_constraint": null, "bias_initializer": {"class_name": "Zeros", "config": {}}, "name": "conv2d_206", "data_format": "channels_last", "activity_regularizer": null, "kernel_size": [3, 3]}}, {"class_name": "Conv2D", "name": "conv2d_207", "inbound_nodes": [[["average_pooling2d_20", 0, 0, {}]]], "config": {"use_bias": false, "dilation_rate": [1, 1], "bias_regularizer": null, "padding": "same", "kernel_initializer": {"class_name": "VarianceScaling", "config": {"mode": "fan_avg", "seed": null, "scale": 1.0, "distribution": "uniform"}}, "trainable": false, "filters": 64, "strides": [1, 1], "bias_constraint": null, "kernel_regularizer": null, "activation": "linear", "kernel_constraint": null, "bias_initializer": {"class_name": "Zeros", "config": {}}, "name": "conv2d_207", "data_format": "channels_last", "activity_regularizer": null, "kernel_size": [1, 1]}}, {"class_name": "BatchNormalization", "name": "batch_normalization_201", "inbound_nodes": [[["conv2d_201", 0, 0, {}]]], "config": {"gamma_constraint": null, "epsilon": 0.001, "center": true, "trainable": false, "scale": false, "beta_regularizer": null, "gamma_initializer": {"class_name": "Ones", "config": {}}, "gamma_regularizer": null, "beta_initializer": {"class_name": "Zeros", "config": {}}, "beta_constraint": null, "axis": 3, "momentum": 0.99, "name": "batch_normalization_201", "moving_mean_initializer": {"class_name": "Zeros", "config": {}}, "moving_variance_initializer": {"class_name": "Ones", "config": {}}}}, {"class_name": "BatchNormalization", "name": "batch_normalization_203", "inbound_nodes": [[["conv2d_203", 0, 0, {}]]], "config": {"gamma_constraint": null, "epsilon": 0.001, "center": true, "trainable": false, "scale": false, "beta_regularizer": null, "gamma_initializer": {"class_name": "Ones", "config": {}}, "gamma_regularizer": null, "beta_initializer": {"class_name": "Zeros", "config": {}}, "beta_constraint": null, "axis": 3, "momentum": 0.99, "name": "batch_normalization_203", "moving_mean_initializer": {"class_name": "Zeros", "config": {}}, "moving_variance_initializer": {"class_name": "Ones", "config": {}}}}, {"class_name": "BatchNormalization", "name": "batch_normalization_206", "inbound_nodes": [[["conv2d_206", 0, 0, {}]]], "config": {"gamma_constraint": null, "epsilon": 0.001, "center": true, "trainable": false, "scale": false, "beta_regularizer": null, "gamma_initializer": {"class_name": "Ones", "config": {}}, "gamma_regularizer": null, "beta_initializer": {"class_name": "Zeros", "config": {}}, "beta_constraint": null, "axis": 3, "momentum": 0.99, "name": "batch_normalization_206", "moving_mean_initializer": {"class_name": "Zeros", "config": {}}, "moving_variance_initializer": {"class_name": "Ones", "config": {}}}}, {"class_name": "BatchNormalization", "name": "batch_normalization_207", "inbound_nodes": [[["conv2d_207", 0, 0, {}]]], "config": {"gamma_constraint": null, "epsilon": 0.001, "center": true, "trainable": false, "scale": false, "beta_regularizer": null, "gamma_initializer": {"class_name": "Ones", "config": {}}, "gamma_regularizer": null, "beta_initializer": {"class_name": "Zeros", "config": {}}, "beta_constraint": null, "axis": 3, "momentum": 0.99, "name": "batch_normalization_207", "moving_mean_initializer": {"class_name": "Zeros", "config": {}}, "moving_variance_initializer": {"class_name": "Ones", "config": {}}}}, {"class_name": "Activation", "name": "activation_201", "inbound_nodes": [[["batch_normalization_201", 0, 0, {}]]], "config": {"name": "activation_201", "trainable": false, "activation": "relu"}}, {"class_name": "Activation", "name": "activation_203", "inbound_nodes": [[["batch_normalization_203", 0, 0, {}]]], "config": {"name": "activation_203", "trainable": false, "activation": "relu"}}, {"class_name": "Activation", "name": "activation_206", "inbound_nodes": [[["batch_normalization_206", 0, 0, {}]]], "config": {"name": "activation_206", "trainable": false, "activation": "relu"}}, {"class_name": "Activation", "name": "activation_207", "inbound_nodes": [[["batch_normalization_207", 0, 0, {}]]], "config": {"name": "activation_207", "trainable": false, "activation": "relu"}}, {"class_name": "Concatenate", "name": "mixed1", "inbound_nodes": [[["activation_201", 0, 0, {}], ["activation_203", 0, 0, {}], ["activation_206", 0, 0, {}], ["activation_207", 0, 0, {}]]], "config": {"axis": 3, "name": "mixed1", "trainable": false}}, {"class_name": "Conv2D", "name": "conv2d_211", "inbound_nodes": [[["mixed1", 0, 0, {}]]], "config": {"use_bias": false, "dilation_rate": [1, 1], "bias_regularizer": null, "padding": "same", "kernel_initializer": {"class_name": "VarianceScaling", "config": {"mode": "fan_avg", "seed": null, "scale": 1.0, "distribution": "uniform"}}, "trainable": false, "filters": 64, "strides": [1, 1], "bias_constraint": null, "kernel_regularizer": null, "activation": "linear", "kernel_constraint": null, "bias_initializer": {"class_name": "Zeros", "config": {}}, "name": "conv2d_211", "data_format": "channels_last", "activity_regularizer": null, "kernel_size": [1, 1]}}, {"class_name": "BatchNormalization", "name": "batch_normalization_211", "inbound_nodes": [[["conv2d_211", 0, 0, {}]]], "config": {"gamma_constraint": null, "epsilon": 0.001, "center": true, "trainable": false, "scale": false, "beta_regularizer": null, "gamma_initializer": {"class_name": "Ones", "config": {}}, "gamma_regularizer": null, "beta_initializer": {"class_name": "Zeros", "config": {}}, "beta_constraint": null, "axis": 3, "momentum": 0.99, "name": "batch_normalization_211", "moving_mean_initializer": {"class_name": "Zeros", "config": {}}, "moving_variance_initializer": {"class_name": "Ones", "config": {}}}}, {"class_name": "Activation", "name": "activation_211", "inbound_nodes": [[["batch_normalization_211", 0, 0, {}]]], "config": {"name": "activation_211", "trainable": false, "activation": "relu"}}, {"class_name": "Conv2D", "name": "conv2d_209", "inbound_nodes": [[["mixed1", 0, 0, {}]]], "config": {"use_bias": false, "dilation_rate": [1, 1], "bias_regularizer": null, "padding": "same", "kernel_initializer": {"class_name": "VarianceScaling", "config": {"mode": "fan_avg", "seed": null, "scale": 1.0, "distribution": "uniform"}}, "trainable": false, "filters": 48, "strides": [1, 1], "bias_constraint": null, "kernel_regularizer": null, "activation": "linear", "kernel_constraint": null, "bias_initializer": {"class_name": "Zeros", "config": {}}, "name": "conv2d_209", "data_format": "channels_last", "activity_regularizer": null, "kernel_size": [1, 1]}}, {"class_name": "Conv2D", "name": "conv2d_212", "inbound_nodes": [[["activation_211", 0, 0, {}]]], "config": {"use_bias": false, "dilation_rate": [1, 1], "bias_regularizer": null, "padding": "same", "kernel_initializer": {"class_name": "VarianceScaling", "config": {"mode": "fan_avg", "seed": null, "scale": 1.0, "distribution": "uniform"}}, "trainable": false, "filters": 96, "strides": [1, 1], "bias_constraint": null, "kernel_regularizer": null, "activation": "linear", "kernel_constraint": null, "bias_initializer": {"class_name": "Zeros", "config": {}}, "name": "conv2d_212", "data_format": "channels_last", "activity_regularizer": null, "kernel_size": [3, 3]}}, {"class_name": "BatchNormalization", "name": "batch_normalization_209", "inbound_nodes": [[["conv2d_209", 0, 0, {}]]], "config": {"gamma_constraint": null, "epsilon": 0.001, "center": true, "trainable": false, "scale": false, "beta_regularizer": null, "gamma_initializer": {"class_name": "Ones", "config": {}}, "gamma_regularizer": null, "beta_initializer": {"class_name": "Zeros", "config": {}}, "beta_constraint": null, "axis": 3, "momentum": 0.99, "name": "batch_normalization_209", "moving_mean_initializer": {"class_name": "Zeros", "config": {}}, "moving_variance_initializer": {"class_name": "Ones", "config": {}}}}, {"class_name": "BatchNormalization", "name": "batch_normalization_212", "inbound_nodes": [[["conv2d_212", 0, 0, {}]]], "config": {"gamma_constraint": null, "epsilon": 0.001, "center": true, "trainable": false, "scale": false, "beta_regularizer": null, "gamma_initializer": {"class_name": "Ones", "config": {}}, "gamma_regularizer": null, "beta_initializer": {"class_name": "Zeros", "config": {}}, "beta_constraint": null, "axis": 3, "momentum": 0.99, "name": "batch_normalization_212", "moving_mean_initializer": {"class_name": "Zeros", "config": {}}, "moving_variance_initializer": {"class_name": "Ones", "config": {}}}}, {"class_name": "Activation", "name": "activation_209", "inbound_nodes": [[["batch_normalization_209", 0, 0, {}]]], "config": {"name": "activation_209", "trainable": false, "activation": "relu"}}, {"class_name": "Activation", "name": "activation_212", "inbound_nodes": [[["batch_normalization_212", 0, 0, {}]]], "config": {"name": "activation_212", "trainable": false, "activation": "relu"}}, {"class_name": "AveragePooling2D", "name": "average_pooling2d_21", "inbound_nodes": [[["mixed1", 0, 0, {}]]], "config": {"pool_size": [3, 3], "padding": "same", "name": "average_pooling2d_21", "data_format": "channels_last", "trainable": false, "strides": [1, 1]}}, {"class_name": "Conv2D", "name": "conv2d_208", "inbound_nodes": [[["mixed1", 0, 0, {}]]], "config": {"use_bias": false, "dilation_rate": [1, 1], "bias_regularizer": null, "padding": "same", "kernel_initializer": {"class_name": "VarianceScaling", "config": {"mode": "fan_avg", "seed": null, "scale": 1.0, "distribution": "uniform"}}, "trainable": false, "filters": 64, "strides": [1, 1], "bias_constraint": null, "kernel_regularizer": null, "activation": "linear", "kernel_constraint": null, "bias_initializer": {"class_name": "Zeros", "config": {}}, "name": "conv2d_208", "data_format": "channels_last", "activity_regularizer": null, "kernel_size": [1, 1]}}, {"class_name": "Conv2D", "name": "conv2d_210", "inbound_nodes": [[["activation_209", 0, 0, {}]]], "config": {"use_bias": false, "dilation_rate": [1, 1], "bias_regularizer": null, "padding": "same", "kernel_initializer": {"class_name": "VarianceScaling", "config": {"mode": "fan_avg", "seed": null, "scale": 1.0, "distribution": "uniform"}}, "trainable": false, "filters": 64, "strides": [1, 1], "bias_constraint": null, "kernel_regularizer": null, "activation": "linear", "kernel_constraint": null, "bias_initializer": {"class_name": "Zeros", "config": {}}, "name": "conv2d_210", "data_format": "channels_last", "activity_regularizer": null, "kernel_size": [5, 5]}}, {"class_name": "Conv2D", "name": "conv2d_213", "inbound_nodes": [[["activation_212", 0, 0, {}]]], "config": {"use_bias": false, "dilation_rate": [1, 1], "bias_regularizer": null, "padding": "same", "kernel_initializer": {"class_name": "VarianceScaling", "config": {"mode": "fan_avg", "seed": null, "scale": 1.0, "distribution": "uniform"}}, "trainable": false, "filters": 96, "strides": [1, 1], "bias_constraint": null, "kernel_regularizer": null, "activation": "linear", "kernel_constraint": null, "bias_initializer": {"class_name": "Zeros", "config": {}}, "name": "conv2d_213", "data_format": "channels_last", "activity_regularizer": null, "kernel_size": [3, 3]}}, {"class_name": "Conv2D", "name": "conv2d_214", "inbound_nodes": [[["average_pooling2d_21", 0, 0, {}]]], "config": {"use_bias": false, "dilation_rate": [1, 1], "bias_regularizer": null, "padding": "same", "kernel_initializer": {"class_name": "VarianceScaling", "config": {"mode": "fan_avg", "seed": null, "scale": 1.0, "distribution": "uniform"}}, "trainable": false, "filters": 64, "strides": [1, 1], "bias_constraint": null, "kernel_regularizer": null, "activation": "linear", "kernel_constraint": null, "bias_initializer": {"class_name": "Zeros", "config": {}}, "name": "conv2d_214", "data_format": "channels_last", "activity_regularizer": null, "kernel_size": [1, 1]}}, {"class_name": "BatchNormalization", "name": "batch_normalization_208", "inbound_nodes": [[["conv2d_208", 0, 0, {}]]], "config": {"gamma_constraint": null, "epsilon": 0.001, "center": true, "trainable": false, "scale": false, "beta_regularizer": null, "gamma_initializer": {"class_name": "Ones", "config": {}}, "gamma_regularizer": null, "beta_initializer": {"class_name": "Zeros", "config": {}}, "beta_constraint": null, "axis": 3, "momentum": 0.99, "name": "batch_normalization_208", "moving_mean_initializer": {"class_name": "Zeros", "config": {}}, "moving_variance_initializer": {"class_name": "Ones", "config": {}}}}, {"class_name": "BatchNormalization", "name": "batch_normalization_210", "inbound_nodes": [[["conv2d_210", 0, 0, {}]]], "config": {"gamma_constraint": null, "epsilon": 0.001, "center": true, "trainable": false, "scale": false, "beta_regularizer": null, "gamma_initializer": {"class_name": "Ones", "config": {}}, "gamma_regularizer": null, "beta_initializer": {"class_name": "Zeros", "config": {}}, "beta_constraint": null, "axis": 3, "momentum": 0.99, "name": "batch_normalization_210", "moving_mean_initializer": {"class_name": "Zeros", "config": {}}, "moving_variance_initializer": {"class_name": "Ones", "config": {}}}}, {"class_name": "BatchNormalization", "name": "batch_normalization_213", "inbound_nodes": [[["conv2d_213", 0, 0, {}]]], "config": {"gamma_constraint": null, "epsilon": 0.001, "center": true, "trainable": false, "scale": false, "beta_regularizer": null, "gamma_initializer": {"class_name": "Ones", "config": {}}, "gamma_regularizer": null, "beta_initializer": {"class_name": "Zeros", "config": {}}, "beta_constraint": null, "axis": 3, "momentum": 0.99, "name": "batch_normalization_213", "moving_mean_initializer": {"class_name": "Zeros", "config": {}}, "moving_variance_initializer": {"class_name": "Ones", "config": {}}}}, {"class_name": "BatchNormalization", "name": "batch_normalization_214", "inbound_nodes": [[["conv2d_214", 0, 0, {}]]], "config": {"gamma_constraint": null, "epsilon": 0.001, "center": true, "trainable": false, "scale": false, "beta_regularizer": null, "gamma_initializer": {"class_name": "Ones", "config": {}}, "gamma_regularizer": null, "beta_initializer": {"class_name": "Zeros", "config": {}}, "beta_constraint": null, "axis": 3, "momentum": 0.99, "name": "batch_normalization_214", "moving_mean_initializer": {"class_name": "Zeros", "config": {}}, "moving_variance_initializer": {"class_name": "Ones", "config": {}}}}, {"class_name": "Activation", "name": "activation_208", "inbound_nodes": [[["batch_normalization_208", 0, 0, {}]]], "config": {"name": "activation_208", "trainable": false, "activation": "relu"}}, {"class_name": "Activation", "name": "activation_210", "inbound_nodes": [[["batch_normalization_210", 0, 0, {}]]], "config": {"name": "activation_210", "trainable": false, "activation": "relu"}}, {"class_name": "Activation", "name": "activation_213", "inbound_nodes": [[["batch_normalization_213", 0, 0, {}]]], "config": {"name": "activation_213", "trainable": false, "activation": "relu"}}, {"class_name": "Activation", "name": "activation_214", "inbound_nodes": [[["batch_normalization_214", 0, 0, {}]]], "config": {"name": "activation_214", "trainable": false, "activation": "relu"}}, {"class_name": "Concatenate", "name": "mixed2", "inbound_nodes": [[["activation_208", 0, 0, {}], ["activation_210", 0, 0, {}], ["activation_213", 0, 0, {}], ["activation_214", 0, 0, {}]]], "config": {"axis": 3, "name": "mixed2", "trainable": false}}, {"class_name": "Conv2D", "name": "conv2d_216", "inbound_nodes": [[["mixed2", 0, 0, {}]]], "config": {"use_bias": false, "dilation_rate": [1, 1], "bias_regularizer": null, "padding": "same", "kernel_initializer": {"class_name": "VarianceScaling", "config": {"mode": "fan_avg", "seed": null, "scale": 1.0, "distribution": "uniform"}}, "trainable": true, "filters": 64, "strides": [1, 1], "bias_constraint": null, "kernel_regularizer": null, "activation": "linear", "kernel_constraint": null, "bias_initializer": {"class_name": "Zeros", "config": {}}, "name": "conv2d_216", "data_format": "channels_last", "activity_regularizer": null, "kernel_size": [1, 1]}}, {"class_name": "BatchNormalization", "name": "batch_normalization_216", "inbound_nodes": [[["conv2d_216", 0, 0, {}]]], "config": {"gamma_constraint": null, "epsilon": 0.001, "center": true, "trainable": true, "scale": false, "beta_regularizer": null, "gamma_initializer": {"class_name": "Ones", "config": {}}, "gamma_regularizer": null, "beta_initializer": {"class_name": "Zeros", "config": {}}, "beta_constraint": null, "axis": 3, "momentum": 0.99, "name": "batch_normalization_216", "moving_mean_initializer": {"class_name": "Zeros", "config": {}}, "moving_variance_initializer": {"class_name": "Ones", "config": {}}}}, {"class_name": "Activation", "name": "activation_216", "inbound_nodes": [[["batch_normalization_216", 0, 0, {}]]], "config": {"name": "activation_216", "trainable": true, "activation": "relu"}}, {"class_name": "Conv2D", "name": "conv2d_217", "inbound_nodes": [[["activation_216", 0, 0, {}]]], "config": {"use_bias": false, "dilation_rate": [1, 1], "bias_regularizer": null, "padding": "same", "kernel_initializer": {"class_name": "VarianceScaling", "config": {"mode": "fan_avg", "seed": null, "scale": 1.0, "distribution": "uniform"}}, "trainable": true, "filters": 96, "strides": [1, 1], "bias_constraint": null, "kernel_regularizer": null, "activation": "linear", "kernel_constraint": null, "bias_initializer": {"class_name": "Zeros", "config": {}}, "name": "conv2d_217", "data_format": "channels_last", "activity_regularizer": null, "kernel_size": [3, 3]}}, {"class_name": "BatchNormalization", "name": "batch_normalization_217", "inbound_nodes": [[["conv2d_217", 0, 0, {}]]], "config": {"gamma_constraint": null, "epsilon": 0.001, "center": true, "trainable": true, "scale": false, "beta_regularizer": null, "gamma_initializer": {"class_name": "Ones", "config": {}}, "gamma_regularizer": null, "beta_initializer": {"class_name": "Zeros", "config": {}}, "beta_constraint": null, "axis": 3, "momentum": 0.99, "name": "batch_normalization_217", "moving_mean_initializer": {"class_name": "Zeros", "config": {}}, "moving_variance_initializer": {"class_name": "Ones", "config": {}}}}, {"class_name": "Activation", "name": "activation_217", "inbound_nodes": [[["batch_normalization_217", 0, 0, {}]]], "config": {"name": "activation_217", "trainable": true, "activation": "relu"}}, {"class_name": "Conv2D", "name": "conv2d_215", "inbound_nodes": [[["mixed2", 0, 0, {}]]], "config": {"use_bias": false, "dilation_rate": [1, 1], "bias_regularizer": null, "padding": "valid", "kernel_initializer": {"class_name": "VarianceScaling", "config": {"mode": "fan_avg", "seed": null, "scale": 1.0, "distribution": "uniform"}}, "trainable": true, "filters": 384, "strides": [2, 2], "bias_constraint": null, "kernel_regularizer": null, "activation": "linear", "kernel_constraint": null, "bias_initializer": {"class_name": "Zeros", "config": {}}, "name": "conv2d_215", "data_format": "channels_last", "activity_regularizer": null, "kernel_size": [3, 3]}}, {"class_name": "Conv2D", "name": "conv2d_218", "inbound_nodes": [[["activation_217", 0, 0, {}]]], "config": {"use_bias": false, "dilation_rate": [1, 1], "bias_regularizer": null, "padding": "valid", "kernel_initializer": {"class_name": "VarianceScaling", "config": {"mode": "fan_avg", "seed": null, "scale": 1.0, "distribution": "uniform"}}, "trainable": true, "filters": 96, "strides": [2, 2], "bias_constraint": null, "kernel_regularizer": null, "activation": "linear", "kernel_constraint": null, "bias_initializer": {"class_name": "Zeros", "config": {}}, "name": "conv2d_218", "data_format": "channels_last", "activity_regularizer": null, "kernel_size": [3, 3]}}, {"class_name": "BatchNormalization", "name": "batch_normalization_215", "inbound_nodes": [[["conv2d_215", 0, 0, {}]]], "config": {"gamma_constraint": null, "epsilon": 0.001, "center": true, "trainable": true, "scale": false, "beta_regularizer": null, "gamma_initializer": {"class_name": "Ones", "config": {}}, "gamma_regularizer": null, "beta_initializer": {"class_name": "Zeros", "config": {}}, "beta_constraint": null, "axis": 3, "momentum": 0.99, "name": "batch_normalization_215", "moving_mean_initializer": {"class_name": "Zeros", "config": {}}, "moving_variance_initializer": {"class_name": "Ones", "config": {}}}}, {"class_name": "BatchNormalization", "name": "batch_normalization_218", "inbound_nodes": [[["conv2d_218", 0, 0, {}]]], "config": {"gamma_constraint": null, "epsilon": 0.001, "center": true, "trainable": true, "scale": false, "beta_regularizer": null, "gamma_initializer": {"class_name": "Ones", "config": {}}, "gamma_regularizer": null, "beta_initializer": {"class_name": "Zeros", "config": {}}, "beta_constraint": null, "axis": 3, "momentum": 0.99, "name": "batch_normalization_218", "moving_mean_initializer": {"class_name": "Zeros", "config": {}}, "moving_variance_initializer": {"class_name": "Ones", "config": {}}}}, {"class_name": "Activation", "name": "activation_215", "inbound_nodes": [[["batch_normalization_215", 0, 0, {}]]], "config": {"name": "activation_215", "trainable": true, "activation": "relu"}}, {"class_name": "Activation", "name": "activation_218", "inbound_nodes": [[["batch_normalization_218", 0, 0, {}]]], "config": {"name": "activation_218", "trainable": true, "activation": "relu"}}, {"class_name": "MaxPooling2D", "name": "max_pooling2d_11", "inbound_nodes": [[["mixed2", 0, 0, {}]]], "config": {"pool_size": [3, 3], "padding": "valid", "name": "max_pooling2d_11", "data_format": "channels_last", "trainable": true, "strides": [2, 2]}}, {"class_name": "Concatenate", "name": "mixed3", "inbound_nodes": [[["activation_215", 0, 0, {}], ["activation_218", 0, 0, {}], ["max_pooling2d_11", 0, 0, {}]]], "config": {"axis": 3, "name": "mixed3", "trainable": true}}, {"class_name": "Conv2D", "name": "conv2d_223", "inbound_nodes": [[["mixed3", 0, 0, {}]]], "config": {"use_bias": false, "dilation_rate": [1, 1], "bias_regularizer": null, "padding": "same", "kernel_initializer": {"class_name": "VarianceScaling", "config": {"mode": "fan_avg", "seed": null, "scale": 1.0, "distribution": "uniform"}}, "trainable": true, "filters": 128, "strides": [1, 1], "bias_constraint": null, "kernel_regularizer": null, "activation": "linear", "kernel_constraint": null, "bias_initializer": {"class_name": "Zeros", "config": {}}, "name": "conv2d_223", "data_format": "channels_last", "activity_regularizer": null, "kernel_size": [1, 1]}}, {"class_name": "BatchNormalization", "name": "batch_normalization_223", "inbound_nodes": [[["conv2d_223", 0, 0, {}]]], "config": {"gamma_constraint": null, "epsilon": 0.001, "center": true, "trainable": true, "scale": false, "beta_regularizer": null, "gamma_initializer": {"class_name": "Ones", "config": {}}, "gamma_regularizer": null, "beta_initializer": {"class_name": "Zeros", "config": {}}, "beta_constraint": null, "axis": 3, "momentum": 0.99, "name": "batch_normalization_223", "moving_mean_initializer": {"class_name": "Zeros", "config": {}}, "moving_variance_initializer": {"class_name": "Ones", "config": {}}}}, {"class_name": "Activation", "name": "activation_223", "inbound_nodes": [[["batch_normalization_223", 0, 0, {}]]], "config": {"name": "activation_223", "trainable": true, "activation": "relu"}}, {"class_name": "Conv2D", "name": "conv2d_224", "inbound_nodes": [[["activation_223", 0, 0, {}]]], "config": {"use_bias": false, "dilation_rate": [1, 1], "bias_regularizer": null, "padding": "same", "kernel_initializer": {"class_name": "VarianceScaling", "config": {"mode": "fan_avg", "seed": null, "scale": 1.0, "distribution": "uniform"}}, "trainable": true, "filters": 128, "strides": [1, 1], "bias_constraint": null, "kernel_regularizer": null, "activation": "linear", "kernel_constraint": null, "bias_initializer": {"class_name": "Zeros", "config": {}}, "name": "conv2d_224", "data_format": "channels_last", "activity_regularizer": null, "kernel_size": [7, 1]}}, {"class_name": "BatchNormalization", "name": "batch_normalization_224", "inbound_nodes": [[["conv2d_224", 0, 0, {}]]], "config": {"gamma_constraint": null, "epsilon": 0.001, "center": true, "trainable": true, "scale": false, "beta_regularizer": null, "gamma_initializer": {"class_name": "Ones", "config": {}}, "gamma_regularizer": null, "beta_initializer": {"class_name": "Zeros", "config": {}}, "beta_constraint": null, "axis": 3, "momentum": 0.99, "name": "batch_normalization_224", "moving_mean_initializer": {"class_name": "Zeros", "config": {}}, "moving_variance_initializer": {"class_name": "Ones", "config": {}}}}, {"class_name": "Activation", "name": "activation_224", "inbound_nodes": [[["batch_normalization_224", 0, 0, {}]]], "config": {"name": "activation_224", "trainable": true, "activation": "relu"}}, {"class_name": "Conv2D", "name": "conv2d_220", "inbound_nodes": [[["mixed3", 0, 0, {}]]], "config": {"use_bias": false, "dilation_rate": [1, 1], "bias_regularizer": null, "padding": "same", "kernel_initializer": {"class_name": "VarianceScaling", "config": {"mode": "fan_avg", "seed": null, "scale": 1.0, "distribution": "uniform"}}, "trainable": true, "filters": 128, "strides": [1, 1], "bias_constraint": null, "kernel_regularizer": null, "activation": "linear", "kernel_constraint": null, "bias_initializer": {"class_name": "Zeros", "config": {}}, "name": "conv2d_220", "data_format": "channels_last", "activity_regularizer": null, "kernel_size": [1, 1]}}, {"class_name": "Conv2D", "name": "conv2d_225", "inbound_nodes": [[["activation_224", 0, 0, {}]]], "config": {"use_bias": false, "dilation_rate": [1, 1], "bias_regularizer": null, "padding": "same", "kernel_initializer": {"class_name": "VarianceScaling", "config": {"mode": "fan_avg", "seed": null, "scale": 1.0, "distribution": "uniform"}}, "trainable": true, "filters": 128, "strides": [1, 1], "bias_constraint": null, "kernel_regularizer": null, "activation": "linear", "kernel_constraint": null, "bias_initializer": {"class_name": "Zeros", "config": {}}, "name": "conv2d_225", "data_format": "channels_last", "activity_regularizer": null, "kernel_size": [1, 7]}}, {"class_name": "BatchNormalization", "name": "batch_normalization_220", "inbound_nodes": [[["conv2d_220", 0, 0, {}]]], "config": {"gamma_constraint": null, "epsilon": 0.001, "center": true, "trainable": true, "scale": false, "beta_regularizer": null, "gamma_initializer": {"class_name": "Ones", "config": {}}, "gamma_regularizer": null, "beta_initializer": {"class_name": "Zeros", "config": {}}, "beta_constraint": null, "axis": 3, "momentum": 0.99, "name": "batch_normalization_220", "moving_mean_initializer": {"class_name": "Zeros", "config": {}}, "moving_variance_initializer": {"class_name": "Ones", "config": {}}}}, {"class_name": "BatchNormalization", "name": "batch_normalization_225", "inbound_nodes": [[["conv2d_225", 0, 0, {}]]], "config": {"gamma_constraint": null, "epsilon": 0.001, "center": true, "trainable": true, "scale": false, "beta_regularizer": null, "gamma_initializer": {"class_name": "Ones", "config": {}}, "gamma_regularizer": null, "beta_initializer": {"class_name": "Zeros", "config": {}}, "beta_constraint": null, "axis": 3, "momentum": 0.99, "name": "batch_normalization_225", "moving_mean_initializer": {"class_name": "Zeros", "config": {}}, "moving_variance_initializer": {"class_name": "Ones", "config": {}}}}, {"class_name": "Activation", "name": "activation_220", "inbound_nodes": [[["batch_normalization_220", 0, 0, {}]]], "config": {"name": "activation_220", "trainable": true, "activation": "relu"}}, {"class_name": "Activation", "name": "activation_225", "inbound_nodes": [[["batch_normalization_225", 0, 0, {}]]], "config": {"name": "activation_225", "trainable": true, "activation": "relu"}}, {"class_name": "Conv2D", "name": "conv2d_221", "inbound_nodes": [[["activation_220", 0, 0, {}]]], "config": {"use_bias": false, "dilation_rate": [1, 1], "bias_regularizer": null, "padding": "same", "kernel_initializer": {"class_name": "VarianceScaling", "config": {"mode": "fan_avg", "seed": null, "scale": 1.0, "distribution": "uniform"}}, "trainable": true, "filters": 128, "strides": [1, 1], "bias_constraint": null, "kernel_regularizer": null, "activation": "linear", "kernel_constraint": null, "bias_initializer": {"class_name": "Zeros", "config": {}}, "name": "conv2d_221", "data_format": "channels_last", "activity_regularizer": null, "kernel_size": [1, 7]}}, {"class_name": "Conv2D", "name": "conv2d_226", "inbound_nodes": [[["activation_225", 0, 0, {}]]], "config": {"use_bias": false, "dilation_rate": [1, 1], "bias_regularizer": null, "padding": "same", "kernel_initializer": {"class_name": "VarianceScaling", "config": {"mode": "fan_avg", "seed": null, "scale": 1.0, "distribution": "uniform"}}, "trainable": true, "filters": 128, "strides": [1, 1], "bias_constraint": null, "kernel_regularizer": null, "activation": "linear", "kernel_constraint": null, "bias_initializer": {"class_name": "Zeros", "config": {}}, "name": "conv2d_226", "data_format": "channels_last", "activity_regularizer": null, "kernel_size": [7, 1]}}, {"class_name": "BatchNormalization", "name": "batch_normalization_221", "inbound_nodes": [[["conv2d_221", 0, 0, {}]]], "config": {"gamma_constraint": null, "epsilon": 0.001, "center": true, "trainable": true, "scale": false, "beta_regularizer": null, "gamma_initializer": {"class_name": "Ones", "config": {}}, "gamma_regularizer": null, "beta_initializer": {"class_name": "Zeros", "config": {}}, "beta_constraint": null, "axis": 3, "momentum": 0.99, "name": "batch_normalization_221", "moving_mean_initializer": {"class_name": "Zeros", "config": {}}, "moving_variance_initializer": {"class_name": "Ones", "config": {}}}}, {"class_name": "BatchNormalization", "name": "batch_normalization_226", "inbound_nodes": [[["conv2d_226", 0, 0, {}]]], "config": {"gamma_constraint": null, "epsilon": 0.001, "center": true, "trainable": true, "scale": false, "beta_regularizer": null, "gamma_initializer": {"class_name": "Ones", "config": {}}, "gamma_regularizer": null, "beta_initializer": {"class_name": "Zeros", "config": {}}, "beta_constraint": null, "axis": 3, "momentum": 0.99, "name": "batch_normalization_226", "moving_mean_initializer": {"class_name": "Zeros", "config": {}}, "moving_variance_initializer": {"class_name": "Ones", "config": {}}}}, {"class_name": "Activation", "name": "activation_221", "inbound_nodes": [[["batch_normalization_221", 0, 0, {}]]], "config": {"name": "activation_221", "trainable": true, "activation": "relu"}}, {"class_name": "Activation", "name": "activation_226", "inbound_nodes": [[["batch_normalization_226", 0, 0, {}]]], "config": {"name": "activation_226", "trainable": true, "activation": "relu"}}, {"class_name": "AveragePooling2D", "name": "average_pooling2d_22", "inbound_nodes": [[["mixed3", 0, 0, {}]]], "config": {"pool_size": [3, 3], "padding": "same", "name": "average_pooling2d_22", "data_format": "channels_last", "trainable": true, "strides": [1, 1]}}, {"class_name": "Conv2D", "name": "conv2d_219", "inbound_nodes": [[["mixed3", 0, 0, {}]]], "config": {"use_bias": false, "dilation_rate": [1, 1], "bias_regularizer": null, "padding": "same", "kernel_initializer": {"class_name": "VarianceScaling", "config": {"mode": "fan_avg", "seed": null, "scale": 1.0, "distribution": "uniform"}}, "trainable": true, "filters": 192, "strides": [1, 1], "bias_constraint": null, "kernel_regularizer": null, "activation": "linear", "kernel_constraint": null, "bias_initializer": {"class_name": "Zeros", "config": {}}, "name": "conv2d_219", "data_format": "channels_last", "activity_regularizer": null, "kernel_size": [1, 1]}}, {"class_name": "Conv2D", "name": "conv2d_222", "inbound_nodes": [[["activation_221", 0, 0, {}]]], "config": {"use_bias": false, "dilation_rate": [1, 1], "bias_regularizer": null, "padding": "same", "kernel_initializer": {"class_name": "VarianceScaling", "config": {"mode": "fan_avg", "seed": null, "scale": 1.0, "distribution": "uniform"}}, "trainable": true, "filters": 192, "strides": [1, 1], "bias_constraint": null, "kernel_regularizer": null, "activation": "linear", "kernel_constraint": null, "bias_initializer": {"class_name": "Zeros", "config": {}}, "name": "conv2d_222", "data_format": "channels_last", "activity_regularizer": null, "kernel_size": [7, 1]}}, {"class_name": "Conv2D", "name": "conv2d_227", "inbound_nodes": [[["activation_226", 0, 0, {}]]], "config": {"use_bias": false, "dilation_rate": [1, 1], "bias_regularizer": null, "padding": "same", "kernel_initializer": {"class_name": "VarianceScaling", "config": {"mode": "fan_avg", "seed": null, "scale": 1.0, "distribution": "uniform"}}, "trainable": true, "filters": 192, "strides": [1, 1], "bias_constraint": null, "kernel_regularizer": null, "activation": "linear", "kernel_constraint": null, "bias_initializer": {"class_name": "Zeros", "config": {}}, "name": "conv2d_227", "data_format": "channels_last", "activity_regularizer": null, "kernel_size": [1, 7]}}, {"class_name": "Conv2D", "name": "conv2d_228", "inbound_nodes": [[["average_pooling2d_22", 0, 0, {}]]], "config": {"use_bias": false, "dilation_rate": [1, 1], "bias_regularizer": null, "padding": "same", "kernel_initializer": {"class_name": "VarianceScaling", "config": {"mode": "fan_avg", "seed": null, "scale": 1.0, "distribution": "uniform"}}, "trainable": true, "filters": 192, "strides": [1, 1], "bias_constraint": null, "kernel_regularizer": null, "activation": "linear", "kernel_constraint": null, "bias_initializer": {"class_name": "Zeros", "config": {}}, "name": "conv2d_228", "data_format": "channels_last", "activity_regularizer": null, "kernel_size": [1, 1]}}, {"class_name": "BatchNormalization", "name": "batch_normalization_219", "inbound_nodes": [[["conv2d_219", 0, 0, {}]]], "config": {"gamma_constraint": null, "epsilon": 0.001, "center": true, "trainable": true, "scale": false, "beta_regularizer": null, "gamma_initializer": {"class_name": "Ones", "config": {}}, "gamma_regularizer": null, "beta_initializer": {"class_name": "Zeros", "config": {}}, "beta_constraint": null, "axis": 3, "momentum": 0.99, "name": "batch_normalization_219", "moving_mean_initializer": {"class_name": "Zeros", "config": {}}, "moving_variance_initializer": {"class_name": "Ones", "config": {}}}}, {"class_name": "BatchNormalization", "name": "batch_normalization_222", "inbound_nodes": [[["conv2d_222", 0, 0, {}]]], "config": {"gamma_constraint": null, "epsilon": 0.001, "center": true, "trainable": true, "scale": false, "beta_regularizer": null, "gamma_initializer": {"class_name": "Ones", "config": {}}, "gamma_regularizer": null, "beta_initializer": {"class_name": "Zeros", "config": {}}, "beta_constraint": null, "axis": 3, "momentum": 0.99, "name": "batch_normalization_222", "moving_mean_initializer": {"class_name": "Zeros", "config": {}}, "moving_variance_initializer": {"class_name": "Ones", "config": {}}}}, {"class_name": "BatchNormalization", "name": "batch_normalization_227", "inbound_nodes": [[["conv2d_227", 0, 0, {}]]], "config": {"gamma_constraint": null, "epsilon": 0.001, "center": true, "trainable": true, "scale": false, "beta_regularizer": null, "gamma_initializer": {"class_name": "Ones", "config": {}}, "gamma_regularizer": null, "beta_initializer": {"class_name": "Zeros", "config": {}}, "beta_constraint": null, "axis": 3, "momentum": 0.99, "name": "batch_normalization_227", "moving_mean_initializer": {"class_name": "Zeros", "config": {}}, "moving_variance_initializer": {"class_name": "Ones", "config": {}}}}, {"class_name": "BatchNormalization", "name": "batch_normalization_228", "inbound_nodes": [[["conv2d_228", 0, 0, {}]]], "config": {"gamma_constraint": null, "epsilon": 0.001, "center": true, "trainable": true, "scale": false, "beta_regularizer": null, "gamma_initializer": {"class_name": "Ones", "config": {}}, "gamma_regularizer": null, "beta_initializer": {"class_name": "Zeros", "config": {}}, "beta_constraint": null, "axis": 3, "momentum": 0.99, "name": "batch_normalization_228", "moving_mean_initializer": {"class_name": "Zeros", "config": {}}, "moving_variance_initializer": {"class_name": "Ones", "config": {}}}}, {"class_name": "Activation", "name": "activation_219", "inbound_nodes": [[["batch_normalization_219", 0, 0, {}]]], "config": {"name": "activation_219", "trainable": true, "activation": "relu"}}, {"class_name": "Activation", "name": "activation_222", "inbound_nodes": [[["batch_normalization_222", 0, 0, {}]]], "config": {"name": "activation_222", "trainable": true, "activation": "relu"}}, {"class_name": "Activation", "name": "activation_227", "inbound_nodes": [[["batch_normalization_227", 0, 0, {}]]], "config": {"name": "activation_227", "trainable": true, "activation": "relu"}}, {"class_name": "Activation", "name": "activation_228", "inbound_nodes": [[["batch_normalization_228", 0, 0, {}]]], "config": {"name": "activation_228", "trainable": true, "activation": "relu"}}, {"class_name": "Concatenate", "name": "mixed4", "inbound_nodes": [[["activation_219", 0, 0, {}], ["activation_222", 0, 0, {}], ["activation_227", 0, 0, {}], ["activation_228", 0, 0, {}]]], "config": {"axis": 3, "name": "mixed4", "trainable": true}}, {"class_name": "Conv2D", "name": "conv2d_233", "inbound_nodes": [[["mixed4", 0, 0, {}]]], "config": {"use_bias": false, "dilation_rate": [1, 1], "bias_regularizer": null, "padding": "same", "kernel_initializer": {"class_name": "VarianceScaling", "config": {"mode": "fan_avg", "seed": null, "scale": 1.0, "distribution": "uniform"}}, "trainable": true, "filters": 160, "strides": [1, 1], "bias_constraint": null, "kernel_regularizer": null, "activation": "linear", "kernel_constraint": null, "bias_initializer": {"class_name": "Zeros", "config": {}}, "name": "conv2d_233", "data_format": "channels_last", "activity_regularizer": null, "kernel_size": [1, 1]}}, {"class_name": "BatchNormalization", "name": "batch_normalization_233", "inbound_nodes": [[["conv2d_233", 0, 0, {}]]], "config": {"gamma_constraint": null, "epsilon": 0.001, "center": true, "trainable": true, "scale": false, "beta_regularizer": null, "gamma_initializer": {"class_name": "Ones", "config": {}}, "gamma_regularizer": null, "beta_initializer": {"class_name": "Zeros", "config": {}}, "beta_constraint": null, "axis": 3, "momentum": 0.99, "name": "batch_normalization_233", "moving_mean_initializer": {"class_name": "Zeros", "config": {}}, "moving_variance_initializer": {"class_name": "Ones", "config": {}}}}, {"class_name": "Activation", "name": "activation_233", "inbound_nodes": [[["batch_normalization_233", 0, 0, {}]]], "config": {"name": "activation_233", "trainable": true, "activation": "relu"}}, {"class_name": "Conv2D", "name": "conv2d_234", "inbound_nodes": [[["activation_233", 0, 0, {}]]], "config": {"use_bias": false, "dilation_rate": [1, 1], "bias_regularizer": null, "padding": "same", "kernel_initializer": {"class_name": "VarianceScaling", "config": {"mode": "fan_avg", "seed": null, "scale": 1.0, "distribution": "uniform"}}, "trainable": true, "filters": 160, "strides": [1, 1], "bias_constraint": null, "kernel_regularizer": null, "activation": "linear", "kernel_constraint": null, "bias_initializer": {"class_name": "Zeros", "config": {}}, "name": "conv2d_234", "data_format": "channels_last", "activity_regularizer": null, "kernel_size": [7, 1]}}, {"class_name": "BatchNormalization", "name": "batch_normalization_234", "inbound_nodes": [[["conv2d_234", 0, 0, {}]]], "config": {"gamma_constraint": null, "epsilon": 0.001, "center": true, "trainable": true, "scale": false, "beta_regularizer": null, "gamma_initializer": {"class_name": "Ones", "config": {}}, "gamma_regularizer": null, "beta_initializer": {"class_name": "Zeros", "config": {}}, "beta_constraint": null, "axis": 3, "momentum": 0.99, "name": "batch_normalization_234", "moving_mean_initializer": {"class_name": "Zeros", "config": {}}, "moving_variance_initializer": {"class_name": "Ones", "config": {}}}}, {"class_name": "Activation", "name": "activation_234", "inbound_nodes": [[["batch_normalization_234", 0, 0, {}]]], "config": {"name": "activation_234", "trainable": true, "activation": "relu"}}, {"class_name": "Conv2D", "name": "conv2d_230", "inbound_nodes": [[["mixed4", 0, 0, {}]]], "config": {"use_bias": false, "dilation_rate": [1, 1], "bias_regularizer": null, "padding": "same", "kernel_initializer": {"class_name": "VarianceScaling", "config": {"mode": "fan_avg", "seed": null, "scale": 1.0, "distribution": "uniform"}}, "trainable": true, "filters": 160, "strides": [1, 1], "bias_constraint": null, "kernel_regularizer": null, "activation": "linear", "kernel_constraint": null, "bias_initializer": {"class_name": "Zeros", "config": {}}, "name": "conv2d_230", "data_format": "channels_last", "activity_regularizer": null, "kernel_size": [1, 1]}}, {"class_name": "Conv2D", "name": "conv2d_235", "inbound_nodes": [[["activation_234", 0, 0, {}]]], "config": {"use_bias": false, "dilation_rate": [1, 1], "bias_regularizer": null, "padding": "same", "kernel_initializer": {"class_name": "VarianceScaling", "config": {"mode": "fan_avg", "seed": null, "scale": 1.0, "distribution": "uniform"}}, "trainable": true, "filters": 160, "strides": [1, 1], "bias_constraint": null, "kernel_regularizer": null, "activation": "linear", "kernel_constraint": null, "bias_initializer": {"class_name": "Zeros", "config": {}}, "name": "conv2d_235", "data_format": "channels_last", "activity_regularizer": null, "kernel_size": [1, 7]}}, {"class_name": "BatchNormalization", "name": "batch_normalization_230", "inbound_nodes": [[["conv2d_230", 0, 0, {}]]], "config": {"gamma_constraint": null, "epsilon": 0.001, "center": true, "trainable": true, "scale": false, "beta_regularizer": null, "gamma_initializer": {"class_name": "Ones", "config": {}}, "gamma_regularizer": null, "beta_initializer": {"class_name": "Zeros", "config": {}}, "beta_constraint": null, "axis": 3, "momentum": 0.99, "name": "batch_normalization_230", "moving_mean_initializer": {"class_name": "Zeros", "config": {}}, "moving_variance_initializer": {"class_name": "Ones", "config": {}}}}, {"class_name": "BatchNormalization", "name": "batch_normalization_235", "inbound_nodes": [[["conv2d_235", 0, 0, {}]]], "config": {"gamma_constraint": null, "epsilon": 0.001, "center": true, "trainable": true, "scale": false, "beta_regularizer": null, "gamma_initializer": {"class_name": "Ones", "config": {}}, "gamma_regularizer": null, "beta_initializer": {"class_name": "Zeros", "config": {}}, "beta_constraint": null, "axis": 3, "momentum": 0.99, "name": "batch_normalization_235", "moving_mean_initializer": {"class_name": "Zeros", "config": {}}, "moving_variance_initializer": {"class_name": "Ones", "config": {}}}}, {"class_name": "Activation", "name": "activation_230", "inbound_nodes": [[["batch_normalization_230", 0, 0, {}]]], "config": {"name": "activation_230", "trainable": true, "activation": "relu"}}, {"class_name": "Activation", "name": "activation_235", "inbound_nodes": [[["batch_normalization_235", 0, 0, {}]]], "config": {"name": "activation_235", "trainable": true, "activation": "relu"}}, {"class_name": "Conv2D", "name": "conv2d_231", "inbound_nodes": [[["activation_230", 0, 0, {}]]], "config": {"use_bias": false, "dilation_rate": [1, 1], "bias_regularizer": null, "padding": "same", "kernel_initializer": {"class_name": "VarianceScaling", "config": {"mode": "fan_avg", "seed": null, "scale": 1.0, "distribution": "uniform"}}, "trainable": true, "filters": 160, "strides": [1, 1], "bias_constraint": null, "kernel_regularizer": null, "activation": "linear", "kernel_constraint": null, "bias_initializer": {"class_name": "Zeros", "config": {}}, "name": "conv2d_231", "data_format": "channels_last", "activity_regularizer": null, "kernel_size": [1, 7]}}, {"class_name": "Conv2D", "name": "conv2d_236", "inbound_nodes": [[["activation_235", 0, 0, {}]]], "config": {"use_bias": false, "dilation_rate": [1, 1], "bias_regularizer": null, "padding": "same", "kernel_initializer": {"class_name": "VarianceScaling", "config": {"mode": "fan_avg", "seed": null, "scale": 1.0, "distribution": "uniform"}}, "trainable": true, "filters": 160, "strides": [1, 1], "bias_constraint": null, "kernel_regularizer": null, "activation": "linear", "kernel_constraint": null, "bias_initializer": {"class_name": "Zeros", "config": {}}, "name": "conv2d_236", "data_format": "channels_last", "activity_regularizer": null, "kernel_size": [7, 1]}}, {"class_name": "BatchNormalization", "name": "batch_normalization_231", "inbound_nodes": [[["conv2d_231", 0, 0, {}]]], "config": {"gamma_constraint": null, "epsilon": 0.001, "center": true, "trainable": true, "scale": false, "beta_regularizer": null, "gamma_initializer": {"class_name": "Ones", "config": {}}, "gamma_regularizer": null, "beta_initializer": {"class_name": "Zeros", "config": {}}, "beta_constraint": null, "axis": 3, "momentum": 0.99, "name": "batch_normalization_231", "moving_mean_initializer": {"class_name": "Zeros", "config": {}}, "moving_variance_initializer": {"class_name": "Ones", "config": {}}}}, {"class_name": "BatchNormalization", "name": "batch_normalization_236", "inbound_nodes": [[["conv2d_236", 0, 0, {}]]], "config": {"gamma_constraint": null, "epsilon": 0.001, "center": true, "trainable": true, "scale": false, "beta_regularizer": null, "gamma_initializer": {"class_name": "Ones", "config": {}}, "gamma_regularizer": null, "beta_initializer": {"class_name": "Zeros", "config": {}}, "beta_constraint": null, "axis": 3, "momentum": 0.99, "name": "batch_normalization_236", "moving_mean_initializer": {"class_name": "Zeros", "config": {}}, "moving_variance_initializer": {"class_name": "Ones", "config": {}}}}, {"class_name": "Activation", "name": "activation_231", "inbound_nodes": [[["batch_normalization_231", 0, 0, {}]]], "config": {"name": "activation_231", "trainable": true, "activation": "relu"}}, {"class_name": "Activation", "name": "activation_236", "inbound_nodes": [[["batch_normalization_236", 0, 0, {}]]], "config": {"name": "activation_236", "trainable": true, "activation": "relu"}}, {"class_name": "AveragePooling2D", "name": "average_pooling2d_23", "inbound_nodes": [[["mixed4", 0, 0, {}]]], "config": {"pool_size": [3, 3], "padding": "same", "name": "average_pooling2d_23", "data_format": "channels_last", "trainable": true, "strides": [1, 1]}}, {"class_name": "Conv2D", "name": "conv2d_229", "inbound_nodes": [[["mixed4", 0, 0, {}]]], "config": {"use_bias": false, "dilation_rate": [1, 1], "bias_regularizer": null, "padding": "same", "kernel_initializer": {"class_name": "VarianceScaling", "config": {"mode": "fan_avg", "seed": null, "scale": 1.0, "distribution": "uniform"}}, "trainable": true, "filters": 192, "strides": [1, 1], "bias_constraint": null, "kernel_regularizer": null, "activation": "linear", "kernel_constraint": null, "bias_initializer": {"class_name": "Zeros", "config": {}}, "name": "conv2d_229", "data_format": "channels_last", "activity_regularizer": null, "kernel_size": [1, 1]}}, {"class_name": "Conv2D", "name": "conv2d_232", "inbound_nodes": [[["activation_231", 0, 0, {}]]], "config": {"use_bias": false, "dilation_rate": [1, 1], "bias_regularizer": null, "padding": "same", "kernel_initializer": {"class_name": "VarianceScaling", "config": {"mode": "fan_avg", "seed": null, "scale": 1.0, "distribution": "uniform"}}, "trainable": true, "filters": 192, "strides": [1, 1], "bias_constraint": null, "kernel_regularizer": null, "activation": "linear", "kernel_constraint": null, "bias_initializer": {"class_name": "Zeros", "config": {}}, "name": "conv2d_232", "data_format": "channels_last", "activity_regularizer": null, "kernel_size": [7, 1]}}, {"class_name": "Conv2D", "name": "conv2d_237", "inbound_nodes": [[["activation_236", 0, 0, {}]]], "config": {"use_bias": false, "dilation_rate": [1, 1], "bias_regularizer": null, "padding": "same", "kernel_initializer": {"class_name": "VarianceScaling", "config": {"mode": "fan_avg", "seed": null, "scale": 1.0, "distribution": "uniform"}}, "trainable": true, "filters": 192, "strides": [1, 1], "bias_constraint": null, "kernel_regularizer": null, "activation": "linear", "kernel_constraint": null, "bias_initializer": {"class_name": "Zeros", "config": {}}, "name": "conv2d_237", "data_format": "channels_last", "activity_regularizer": null, "kernel_size": [1, 7]}}, {"class_name": "Conv2D", "name": "conv2d_238", "inbound_nodes": [[["average_pooling2d_23", 0, 0, {}]]], "config": {"use_bias": false, "dilation_rate": [1, 1], "bias_regularizer": null, "padding": "same", "kernel_initializer": {"class_name": "VarianceScaling", "config": {"mode": "fan_avg", "seed": null, "scale": 1.0, "distribution": "uniform"}}, "trainable": true, "filters": 192, "strides": [1, 1], "bias_constraint": null, "kernel_regularizer": null, "activation": "linear", "kernel_constraint": null, "bias_initializer": {"class_name": "Zeros", "config": {}}, "name": "conv2d_238", "data_format": "channels_last", "activity_regularizer": null, "kernel_size": [1, 1]}}, {"class_name": "BatchNormalization", "name": "batch_normalization_229", "inbound_nodes": [[["conv2d_229", 0, 0, {}]]], "config": {"gamma_constraint": null, "epsilon": 0.001, "center": true, "trainable": true, "scale": false, "beta_regularizer": null, "gamma_initializer": {"class_name": "Ones", "config": {}}, "gamma_regularizer": null, "beta_initializer": {"class_name": "Zeros", "config": {}}, "beta_constraint": null, "axis": 3, "momentum": 0.99, "name": "batch_normalization_229", "moving_mean_initializer": {"class_name": "Zeros", "config": {}}, "moving_variance_initializer": {"class_name": "Ones", "config": {}}}}, {"class_name": "BatchNormalization", "name": "batch_normalization_232", "inbound_nodes": [[["conv2d_232", 0, 0, {}]]], "config": {"gamma_constraint": null, "epsilon": 0.001, "center": true, "trainable": true, "scale": false, "beta_regularizer": null, "gamma_initializer": {"class_name": "Ones", "config": {}}, "gamma_regularizer": null, "beta_initializer": {"class_name": "Zeros", "config": {}}, "beta_constraint": null, "axis": 3, "momentum": 0.99, "name": "batch_normalization_232", "moving_mean_initializer": {"class_name": "Zeros", "config": {}}, "moving_variance_initializer": {"class_name": "Ones", "config": {}}}}, {"class_name": "BatchNormalization", "name": "batch_normalization_237", "inbound_nodes": [[["conv2d_237", 0, 0, {}]]], "config": {"gamma_constraint": null, "epsilon": 0.001, "center": true, "trainable": true, "scale": false, "beta_regularizer": null, "gamma_initializer": {"class_name": "Ones", "config": {}}, "gamma_regularizer": null, "beta_initializer": {"class_name": "Zeros", "config": {}}, "beta_constraint": null, "axis": 3, "momentum": 0.99, "name": "batch_normalization_237", "moving_mean_initializer": {"class_name": "Zeros", "config": {}}, "moving_variance_initializer": {"class_name": "Ones", "config": {}}}}, {"class_name": "BatchNormalization", "name": "batch_normalization_238", "inbound_nodes": [[["conv2d_238", 0, 0, {}]]], "config": {"gamma_constraint": null, "epsilon": 0.001, "center": true, "trainable": true, "scale": false, "beta_regularizer": null, "gamma_initializer": {"class_name": "Ones", "config": {}}, "gamma_regularizer": null, "beta_initializer": {"class_name": "Zeros", "config": {}}, "beta_constraint": null, "axis": 3, "momentum": 0.99, "name": "batch_normalization_238", "moving_mean_initializer": {"class_name": "Zeros", "config": {}}, "moving_variance_initializer": {"class_name": "Ones", "config": {}}}}, {"class_name": "Activation", "name": "activation_229", "inbound_nodes": [[["batch_normalization_229", 0, 0, {}]]], "config": {"name": "activation_229", "trainable": true, "activation": "relu"}}, {"class_name": "Activation", "name": "activation_232", "inbound_nodes": [[["batch_normalization_232", 0, 0, {}]]], "config": {"name": "activation_232", "trainable": true, "activation": "relu"}}, {"class_name": "Activation", "name": "activation_237", "inbound_nodes": [[["batch_normalization_237", 0, 0, {}]]], "config": {"name": "activation_237", "trainable": true, "activation": "relu"}}, {"class_name": "Activation", "name": "activation_238", "inbound_nodes": [[["batch_normalization_238", 0, 0, {}]]], "config": {"name": "activation_238", "trainable": true, "activation": "relu"}}, {"class_name": "Concatenate", "name": "mixed5", "inbound_nodes": [[["activation_229", 0, 0, {}], ["activation_232", 0, 0, {}], ["activation_237", 0, 0, {}], ["activation_238", 0, 0, {}]]], "config": {"axis": 3, "name": "mixed5", "trainable": true}}, {"class_name": "Conv2D", "name": "conv2d_243", "inbound_nodes": [[["mixed5", 0, 0, {}]]], "config": {"use_bias": false, "dilation_rate": [1, 1], "bias_regularizer": null, "padding": "same", "kernel_initializer": {"class_name": "VarianceScaling", "config": {"mode": "fan_avg", "seed": null, "scale": 1.0, "distribution": "uniform"}}, "trainable": true, "filters": 160, "strides": [1, 1], "bias_constraint": null, "kernel_regularizer": null, "activation": "linear", "kernel_constraint": null, "bias_initializer": {"class_name": "Zeros", "config": {}}, "name": "conv2d_243", "data_format": "channels_last", "activity_regularizer": null, "kernel_size": [1, 1]}}, {"class_name": "BatchNormalization", "name": "batch_normalization_243", "inbound_nodes": [[["conv2d_243", 0, 0, {}]]], "config": {"gamma_constraint": null, "epsilon": 0.001, "center": true, "trainable": true, "scale": false, "beta_regularizer": null, "gamma_initializer": {"class_name": "Ones", "config": {}}, "gamma_regularizer": null, "beta_initializer": {"class_name": "Zeros", "config": {}}, "beta_constraint": null, "axis": 3, "momentum": 0.99, "name": "batch_normalization_243", "moving_mean_initializer": {"class_name": "Zeros", "config": {}}, "moving_variance_initializer": {"class_name": "Ones", "config": {}}}}, {"class_name": "Activation", "name": "activation_243", "inbound_nodes": [[["batch_normalization_243", 0, 0, {}]]], "config": {"name": "activation_243", "trainable": true, "activation": "relu"}}, {"class_name": "Conv2D", "name": "conv2d_244", "inbound_nodes": [[["activation_243", 0, 0, {}]]], "config": {"use_bias": false, "dilation_rate": [1, 1], "bias_regularizer": null, "padding": "same", "kernel_initializer": {"class_name": "VarianceScaling", "config": {"mode": "fan_avg", "seed": null, "scale": 1.0, "distribution": "uniform"}}, "trainable": true, "filters": 160, "strides": [1, 1], "bias_constraint": null, "kernel_regularizer": null, "activation": "linear", "kernel_constraint": null, "bias_initializer": {"class_name": "Zeros", "config": {}}, "name": "conv2d_244", "data_format": "channels_last", "activity_regularizer": null, "kernel_size": [7, 1]}}, {"class_name": "BatchNormalization", "name": "batch_normalization_244", "inbound_nodes": [[["conv2d_244", 0, 0, {}]]], "config": {"gamma_constraint": null, "epsilon": 0.001, "center": true, "trainable": true, "scale": false, "beta_regularizer": null, "gamma_initializer": {"class_name": "Ones", "config": {}}, "gamma_regularizer": null, "beta_initializer": {"class_name": "Zeros", "config": {}}, "beta_constraint": null, "axis": 3, "momentum": 0.99, "name": "batch_normalization_244", "moving_mean_initializer": {"class_name": "Zeros", "config": {}}, "moving_variance_initializer": {"class_name": "Ones", "config": {}}}}, {"class_name": "Activation", "name": "activation_244", "inbound_nodes": [[["batch_normalization_244", 0, 0, {}]]], "config": {"name": "activation_244", "trainable": true, "activation": "relu"}}, {"class_name": "Conv2D", "name": "conv2d_240", "inbound_nodes": [[["mixed5", 0, 0, {}]]], "config": {"use_bias": false, "dilation_rate": [1, 1], "bias_regularizer": null, "padding": "same", "kernel_initializer": {"class_name": "VarianceScaling", "config": {"mode": "fan_avg", "seed": null, "scale": 1.0, "distribution": "uniform"}}, "trainable": true, "filters": 160, "strides": [1, 1], "bias_constraint": null, "kernel_regularizer": null, "activation": "linear", "kernel_constraint": null, "bias_initializer": {"class_name": "Zeros", "config": {}}, "name": "conv2d_240", "data_format": "channels_last", "activity_regularizer": null, "kernel_size": [1, 1]}}, {"class_name": "Conv2D", "name": "conv2d_245", "inbound_nodes": [[["activation_244", 0, 0, {}]]], "config": {"use_bias": false, "dilation_rate": [1, 1], "bias_regularizer": null, "padding": "same", "kernel_initializer": {"class_name": "VarianceScaling", "config": {"mode": "fan_avg", "seed": null, "scale": 1.0, "distribution": "uniform"}}, "trainable": true, "filters": 160, "strides": [1, 1], "bias_constraint": null, "kernel_regularizer": null, "activation": "linear", "kernel_constraint": null, "bias_initializer": {"class_name": "Zeros", "config": {}}, "name": "conv2d_245", "data_format": "channels_last", "activity_regularizer": null, "kernel_size": [1, 7]}}, {"class_name": "BatchNormalization", "name": "batch_normalization_240", "inbound_nodes": [[["conv2d_240", 0, 0, {}]]], "config": {"gamma_constraint": null, "epsilon": 0.001, "center": true, "trainable": true, "scale": false, "beta_regularizer": null, "gamma_initializer": {"class_name": "Ones", "config": {}}, "gamma_regularizer": null, "beta_initializer": {"class_name": "Zeros", "config": {}}, "beta_constraint": null, "axis": 3, "momentum": 0.99, "name": "batch_normalization_240", "moving_mean_initializer": {"class_name": "Zeros", "config": {}}, "moving_variance_initializer": {"class_name": "Ones", "config": {}}}}, {"class_name": "BatchNormalization", "name": "batch_normalization_245", "inbound_nodes": [[["conv2d_245", 0, 0, {}]]], "config": {"gamma_constraint": null, "epsilon": 0.001, "center": true, "trainable": true, "scale": false, "beta_regularizer": null, "gamma_initializer": {"class_name": "Ones", "config": {}}, "gamma_regularizer": null, "beta_initializer": {"class_name": "Zeros", "config": {}}, "beta_constraint": null, "axis": 3, "momentum": 0.99, "name": "batch_normalization_245", "moving_mean_initializer": {"class_name": "Zeros", "config": {}}, "moving_variance_initializer": {"class_name": "Ones", "config": {}}}}, {"class_name": "Activation", "name": "activation_240", "inbound_nodes": [[["batch_normalization_240", 0, 0, {}]]], "config": {"name": "activation_240", "trainable": true, "activation": "relu"}}, {"class_name": "Activation", "name": "activation_245", "inbound_nodes": [[["batch_normalization_245", 0, 0, {}]]], "config": {"name": "activation_245", "trainable": true, "activation": "relu"}}, {"class_name": "Conv2D", "name": "conv2d_241", "inbound_nodes": [[["activation_240", 0, 0, {}]]], "config": {"use_bias": false, "dilation_rate": [1, 1], "bias_regularizer": null, "padding": "same", "kernel_initializer": {"class_name": "VarianceScaling", "config": {"mode": "fan_avg", "seed": null, "scale": 1.0, "distribution": "uniform"}}, "trainable": true, "filters": 160, "strides": [1, 1], "bias_constraint": null, "kernel_regularizer": null, "activation": "linear", "kernel_constraint": null, "bias_initializer": {"class_name": "Zeros", "config": {}}, "name": "conv2d_241", "data_format": "channels_last", "activity_regularizer": null, "kernel_size": [1, 7]}}, {"class_name": "Conv2D", "name": "conv2d_246", "inbound_nodes": [[["activation_245", 0, 0, {}]]], "config": {"use_bias": false, "dilation_rate": [1, 1], "bias_regularizer": null, "padding": "same", "kernel_initializer": {"class_name": "VarianceScaling", "config": {"mode": "fan_avg", "seed": null, "scale": 1.0, "distribution": "uniform"}}, "trainable": true, "filters": 160, "strides": [1, 1], "bias_constraint": null, "kernel_regularizer": null, "activation": "linear", "kernel_constraint": null, "bias_initializer": {"class_name": "Zeros", "config": {}}, "name": "conv2d_246", "data_format": "channels_last", "activity_regularizer": null, "kernel_size": [7, 1]}}, {"class_name": "BatchNormalization", "name": "batch_normalization_241", "inbound_nodes": [[["conv2d_241", 0, 0, {}]]], "config": {"gamma_constraint": null, "epsilon": 0.001, "center": true, "trainable": true, "scale": false, "beta_regularizer": null, "gamma_initializer": {"class_name": "Ones", "config": {}}, "gamma_regularizer": null, "beta_initializer": {"class_name": "Zeros", "config": {}}, "beta_constraint": null, "axis": 3, "momentum": 0.99, "name": "batch_normalization_241", "moving_mean_initializer": {"class_name": "Zeros", "config": {}}, "moving_variance_initializer": {"class_name": "Ones", "config": {}}}}, {"class_name": "BatchNormalization", "name": "batch_normalization_246", "inbound_nodes": [[["conv2d_246", 0, 0, {}]]], "config": {"gamma_constraint": null, "epsilon": 0.001, "center": true, "trainable": true, "scale": false, "beta_regularizer": null, "gamma_initializer": {"class_name": "Ones", "config": {}}, "gamma_regularizer": null, "beta_initializer": {"class_name": "Zeros", "config": {}}, "beta_constraint": null, "axis": 3, "momentum": 0.99, "name": "batch_normalization_246", "moving_mean_initializer": {"class_name": "Zeros", "config": {}}, "moving_variance_initializer": {"class_name": "Ones", "config": {}}}}, {"class_name": "Activation", "name": "activation_241", "inbound_nodes": [[["batch_normalization_241", 0, 0, {}]]], "config": {"name": "activation_241", "trainable": true, "activation": "relu"}}, {"class_name": "Activation", "name": "activation_246", "inbound_nodes": [[["batch_normalization_246", 0, 0, {}]]], "config": {"name": "activation_246", "trainable": true, "activation": "relu"}}, {"class_name": "AveragePooling2D", "name": "average_pooling2d_24", "inbound_nodes": [[["mixed5", 0, 0, {}]]], "config": {"pool_size": [3, 3], "padding": "same", "name": "average_pooling2d_24", "data_format": "channels_last", "trainable": true, "strides": [1, 1]}}, {"class_name": "Conv2D", "name": "conv2d_239", "inbound_nodes": [[["mixed5", 0, 0, {}]]], "config": {"use_bias": false, "dilation_rate": [1, 1], "bias_regularizer": null, "padding": "same", "kernel_initializer": {"class_name": "VarianceScaling", "config": {"mode": "fan_avg", "seed": null, "scale": 1.0, "distribution": "uniform"}}, "trainable": true, "filters": 192, "strides": [1, 1], "bias_constraint": null, "kernel_regularizer": null, "activation": "linear", "kernel_constraint": null, "bias_initializer": {"class_name": "Zeros", "config": {}}, "name": "conv2d_239", "data_format": "channels_last", "activity_regularizer": null, "kernel_size": [1, 1]}}, {"class_name": "Conv2D", "name": "conv2d_242", "inbound_nodes": [[["activation_241", 0, 0, {}]]], "config": {"use_bias": false, "dilation_rate": [1, 1], "bias_regularizer": null, "padding": "same", "kernel_initializer": {"class_name": "VarianceScaling", "config": {"mode": "fan_avg", "seed": null, "scale": 1.0, "distribution": "uniform"}}, "trainable": true, "filters": 192, "strides": [1, 1], "bias_constraint": null, "kernel_regularizer": null, "activation": "linear", "kernel_constraint": null, "bias_initializer": {"class_name": "Zeros", "config": {}}, "name": "conv2d_242", "data_format": "channels_last", "activity_regularizer": null, "kernel_size": [7, 1]}}, {"class_name": "Conv2D", "name": "conv2d_247", "inbound_nodes": [[["activation_246", 0, 0, {}]]], "config": {"use_bias": false, "dilation_rate": [1, 1], "bias_regularizer": null, "padding": "same", "kernel_initializer": {"class_name": "VarianceScaling", "config": {"mode": "fan_avg", "seed": null, "scale": 1.0, "distribution": "uniform"}}, "trainable": true, "filters": 192, "strides": [1, 1], "bias_constraint": null, "kernel_regularizer": null, "activation": "linear", "kernel_constraint": null, "bias_initializer": {"class_name": "Zeros", "config": {}}, "name": "conv2d_247", "data_format": "channels_last", "activity_regularizer": null, "kernel_size": [1, 7]}}, {"class_name": "Conv2D", "name": "conv2d_248", "inbound_nodes": [[["average_pooling2d_24", 0, 0, {}]]], "config": {"use_bias": false, "dilation_rate": [1, 1], "bias_regularizer": null, "padding": "same", "kernel_initializer": {"class_name": "VarianceScaling", "config": {"mode": "fan_avg", "seed": null, "scale": 1.0, "distribution": "uniform"}}, "trainable": true, "filters": 192, "strides": [1, 1], "bias_constraint": null, "kernel_regularizer": null, "activation": "linear", "kernel_constraint": null, "bias_initializer": {"class_name": "Zeros", "config": {}}, "name": "conv2d_248", "data_format": "channels_last", "activity_regularizer": null, "kernel_size": [1, 1]}}, {"class_name": "BatchNormalization", "name": "batch_normalization_239", "inbound_nodes": [[["conv2d_239", 0, 0, {}]]], "config": {"gamma_constraint": null, "epsilon": 0.001, "center": true, "trainable": true, "scale": false, "beta_regularizer": null, "gamma_initializer": {"class_name": "Ones", "config": {}}, "gamma_regularizer": null, "beta_initializer": {"class_name": "Zeros", "config": {}}, "beta_constraint": null, "axis": 3, "momentum": 0.99, "name": "batch_normalization_239", "moving_mean_initializer": {"class_name": "Zeros", "config": {}}, "moving_variance_initializer": {"class_name": "Ones", "config": {}}}}, {"class_name": "BatchNormalization", "name": "batch_normalization_242", "inbound_nodes": [[["conv2d_242", 0, 0, {}]]], "config": {"gamma_constraint": null, "epsilon": 0.001, "center": true, "trainable": true, "scale": false, "beta_regularizer": null, "gamma_initializer": {"class_name": "Ones", "config": {}}, "gamma_regularizer": null, "beta_initializer": {"class_name": "Zeros", "config": {}}, "beta_constraint": null, "axis": 3, "momentum": 0.99, "name": "batch_normalization_242", "moving_mean_initializer": {"class_name": "Zeros", "config": {}}, "moving_variance_initializer": {"class_name": "Ones", "config": {}}}}, {"class_name": "BatchNormalization", "name": "batch_normalization_247", "inbound_nodes": [[["conv2d_247", 0, 0, {}]]], "config": {"gamma_constraint": null, "epsilon": 0.001, "center": true, "trainable": true, "scale": false, "beta_regularizer": null, "gamma_initializer": {"class_name": "Ones", "config": {}}, "gamma_regularizer": null, "beta_initializer": {"class_name": "Zeros", "config": {}}, "beta_constraint": null, "axis": 3, "momentum": 0.99, "name": "batch_normalization_247", "moving_mean_initializer": {"class_name": "Zeros", "config": {}}, "moving_variance_initializer": {"class_name": "Ones", "config": {}}}}, {"class_name": "BatchNormalization", "name": "batch_normalization_248", "inbound_nodes": [[["conv2d_248", 0, 0, {}]]], "config": {"gamma_constraint": null, "epsilon": 0.001, "center": true, "trainable": true, "scale": false, "beta_regularizer": null, "gamma_initializer": {"class_name": "Ones", "config": {}}, "gamma_regularizer": null, "beta_initializer": {"class_name": "Zeros", "config": {}}, "beta_constraint": null, "axis": 3, "momentum": 0.99, "name": "batch_normalization_248", "moving_mean_initializer": {"class_name": "Zeros", "config": {}}, "moving_variance_initializer": {"class_name": "Ones", "config": {}}}}, {"class_name": "Activation", "name": "activation_239", "inbound_nodes": [[["batch_normalization_239", 0, 0, {}]]], "config": {"name": "activation_239", "trainable": true, "activation": "relu"}}, {"class_name": "Activation", "name": "activation_242", "inbound_nodes": [[["batch_normalization_242", 0, 0, {}]]], "config": {"name": "activation_242", "trainable": true, "activation": "relu"}}, {"class_name": "Activation", "name": "activation_247", "inbound_nodes": [[["batch_normalization_247", 0, 0, {}]]], "config": {"name": "activation_247", "trainable": true, "activation": "relu"}}, {"class_name": "Activation", "name": "activation_248", "inbound_nodes": [[["batch_normalization_248", 0, 0, {}]]], "config": {"name": "activation_248", "trainable": true, "activation": "relu"}}, {"class_name": "Concatenate", "name": "mixed6", "inbound_nodes": [[["activation_239", 0, 0, {}], ["activation_242", 0, 0, {}], ["activation_247", 0, 0, {}], ["activation_248", 0, 0, {}]]], "config": {"axis": 3, "name": "mixed6", "trainable": true}}, {"class_name": "Conv2D", "name": "conv2d_253", "inbound_nodes": [[["mixed6", 0, 0, {}]]], "config": {"use_bias": false, "dilation_rate": [1, 1], "bias_regularizer": null, "padding": "same", "kernel_initializer": {"class_name": "VarianceScaling", "config": {"mode": "fan_avg", "seed": null, "scale": 1.0, "distribution": "uniform"}}, "trainable": true, "filters": 192, "strides": [1, 1], "bias_constraint": null, "kernel_regularizer": null, "activation": "linear", "kernel_constraint": null, "bias_initializer": {"class_name": "Zeros", "config": {}}, "name": "conv2d_253", "data_format": "channels_last", "activity_regularizer": null, "kernel_size": [1, 1]}}, {"class_name": "BatchNormalization", "name": "batch_normalization_253", "inbound_nodes": [[["conv2d_253", 0, 0, {}]]], "config": {"gamma_constraint": null, "epsilon": 0.001, "center": true, "trainable": true, "scale": false, "beta_regularizer": null, "gamma_initializer": {"class_name": "Ones", "config": {}}, "gamma_regularizer": null, "beta_initializer": {"class_name": "Zeros", "config": {}}, "beta_constraint": null, "axis": 3, "momentum": 0.99, "name": "batch_normalization_253", "moving_mean_initializer": {"class_name": "Zeros", "config": {}}, "moving_variance_initializer": {"class_name": "Ones", "config": {}}}}, {"class_name": "Activation", "name": "activation_253", "inbound_nodes": [[["batch_normalization_253", 0, 0, {}]]], "config": {"name": "activation_253", "trainable": true, "activation": "relu"}}, {"class_name": "Conv2D", "name": "conv2d_254", "inbound_nodes": [[["activation_253", 0, 0, {}]]], "config": {"use_bias": false, "dilation_rate": [1, 1], "bias_regularizer": null, "padding": "same", "kernel_initializer": {"class_name": "VarianceScaling", "config": {"mode": "fan_avg", "seed": null, "scale": 1.0, "distribution": "uniform"}}, "trainable": true, "filters": 192, "strides": [1, 1], "bias_constraint": null, "kernel_regularizer": null, "activation": "linear", "kernel_constraint": null, "bias_initializer": {"class_name": "Zeros", "config": {}}, "name": "conv2d_254", "data_format": "channels_last", "activity_regularizer": null, "kernel_size": [7, 1]}}, {"class_name": "BatchNormalization", "name": "batch_normalization_254", "inbound_nodes": [[["conv2d_254", 0, 0, {}]]], "config": {"gamma_constraint": null, "epsilon": 0.001, "center": true, "trainable": true, "scale": false, "beta_regularizer": null, "gamma_initializer": {"class_name": "Ones", "config": {}}, "gamma_regularizer": null, "beta_initializer": {"class_name": "Zeros", "config": {}}, "beta_constraint": null, "axis": 3, "momentum": 0.99, "name": "batch_normalization_254", "moving_mean_initializer": {"class_name": "Zeros", "config": {}}, "moving_variance_initializer": {"class_name": "Ones", "config": {}}}}, {"class_name": "Activation", "name": "activation_254", "inbound_nodes": [[["batch_normalization_254", 0, 0, {}]]], "config": {"name": "activation_254", "trainable": true, "activation": "relu"}}, {"class_name": "Conv2D", "name": "conv2d_250", "inbound_nodes": [[["mixed6", 0, 0, {}]]], "config": {"use_bias": false, "dilation_rate": [1, 1], "bias_regularizer": null, "padding": "same", "kernel_initializer": {"class_name": "VarianceScaling", "config": {"mode": "fan_avg", "seed": null, "scale": 1.0, "distribution": "uniform"}}, "trainable": true, "filters": 192, "strides": [1, 1], "bias_constraint": null, "kernel_regularizer": null, "activation": "linear", "kernel_constraint": null, "bias_initializer": {"class_name": "Zeros", "config": {}}, "name": "conv2d_250", "data_format": "channels_last", "activity_regularizer": null, "kernel_size": [1, 1]}}, {"class_name": "Conv2D", "name": "conv2d_255", "inbound_nodes": [[["activation_254", 0, 0, {}]]], "config": {"use_bias": false, "dilation_rate": [1, 1], "bias_regularizer": null, "padding": "same", "kernel_initializer": {"class_name": "VarianceScaling", "config": {"mode": "fan_avg", "seed": null, "scale": 1.0, "distribution": "uniform"}}, "trainable": true, "filters": 192, "strides": [1, 1], "bias_constraint": null, "kernel_regularizer": null, "activation": "linear", "kernel_constraint": null, "bias_initializer": {"class_name": "Zeros", "config": {}}, "name": "conv2d_255", "data_format": "channels_last", "activity_regularizer": null, "kernel_size": [1, 7]}}, {"class_name": "BatchNormalization", "name": "batch_normalization_250", "inbound_nodes": [[["conv2d_250", 0, 0, {}]]], "config": {"gamma_constraint": null, "epsilon": 0.001, "center": true, "trainable": true, "scale": false, "beta_regularizer": null, "gamma_initializer": {"class_name": "Ones", "config": {}}, "gamma_regularizer": null, "beta_initializer": {"class_name": "Zeros", "config": {}}, "beta_constraint": null, "axis": 3, "momentum": 0.99, "name": "batch_normalization_250", "moving_mean_initializer": {"class_name": "Zeros", "config": {}}, "moving_variance_initializer": {"class_name": "Ones", "config": {}}}}, {"class_name": "BatchNormalization", "name": "batch_normalization_255", "inbound_nodes": [[["conv2d_255", 0, 0, {}]]], "config": {"gamma_constraint": null, "epsilon": 0.001, "center": true, "trainable": true, "scale": false, "beta_regularizer": null, "gamma_initializer": {"class_name": "Ones", "config": {}}, "gamma_regularizer": null, "beta_initializer": {"class_name": "Zeros", "config": {}}, "beta_constraint": null, "axis": 3, "momentum": 0.99, "name": "batch_normalization_255", "moving_mean_initializer": {"class_name": "Zeros", "config": {}}, "moving_variance_initializer": {"class_name": "Ones", "config": {}}}}, {"class_name": "Activation", "name": "activation_250", "inbound_nodes": [[["batch_normalization_250", 0, 0, {}]]], "config": {"name": "activation_250", "trainable": true, "activation": "relu"}}, {"class_name": "Activation", "name": "activation_255", "inbound_nodes": [[["batch_normalization_255", 0, 0, {}]]], "config": {"name": "activation_255", "trainable": true, "activation": "relu"}}, {"class_name": "Conv2D", "name": "conv2d_251", "inbound_nodes": [[["activation_250", 0, 0, {}]]], "config": {"use_bias": false, "dilation_rate": [1, 1], "bias_regularizer": null, "padding": "same", "kernel_initializer": {"class_name": "VarianceScaling", "config": {"mode": "fan_avg", "seed": null, "scale": 1.0, "distribution": "uniform"}}, "trainable": true, "filters": 192, "strides": [1, 1], "bias_constraint": null, "kernel_regularizer": null, "activation": "linear", "kernel_constraint": null, "bias_initializer": {"class_name": "Zeros", "config": {}}, "name": "conv2d_251", "data_format": "channels_last", "activity_regularizer": null, "kernel_size": [1, 7]}}, {"class_name": "Conv2D", "name": "conv2d_256", "inbound_nodes": [[["activation_255", 0, 0, {}]]], "config": {"use_bias": false, "dilation_rate": [1, 1], "bias_regularizer": null, "padding": "same", "kernel_initializer": {"class_name": "VarianceScaling", "config": {"mode": "fan_avg", "seed": null, "scale": 1.0, "distribution": "uniform"}}, "trainable": true, "filters": 192, "strides": [1, 1], "bias_constraint": null, "kernel_regularizer": null, "activation": "linear", "kernel_constraint": null, "bias_initializer": {"class_name": "Zeros", "config": {}}, "name": "conv2d_256", "data_format": "channels_last", "activity_regularizer": null, "kernel_size": [7, 1]}}, {"class_name": "BatchNormalization", "name": "batch_normalization_251", "inbound_nodes": [[["conv2d_251", 0, 0, {}]]], "config": {"gamma_constraint": null, "epsilon": 0.001, "center": true, "trainable": true, "scale": false, "beta_regularizer": null, "gamma_initializer": {"class_name": "Ones", "config": {}}, "gamma_regularizer": null, "beta_initializer": {"class_name": "Zeros", "config": {}}, "beta_constraint": null, "axis": 3, "momentum": 0.99, "name": "batch_normalization_251", "moving_mean_initializer": {"class_name": "Zeros", "config": {}}, "moving_variance_initializer": {"class_name": "Ones", "config": {}}}}, {"class_name": "BatchNormalization", "name": "batch_normalization_256", "inbound_nodes": [[["conv2d_256", 0, 0, {}]]], "config": {"gamma_constraint": null, "epsilon": 0.001, "center": true, "trainable": true, "scale": false, "beta_regularizer": null, "gamma_initializer": {"class_name": "Ones", "config": {}}, "gamma_regularizer": null, "beta_initializer": {"class_name": "Zeros", "config": {}}, "beta_constraint": null, "axis": 3, "momentum": 0.99, "name": "batch_normalization_256", "moving_mean_initializer": {"class_name": "Zeros", "config": {}}, "moving_variance_initializer": {"class_name": "Ones", "config": {}}}}, {"class_name": "Activation", "name": "activation_251", "inbound_nodes": [[["batch_normalization_251", 0, 0, {}]]], "config": {"name": "activation_251", "trainable": true, "activation": "relu"}}, {"class_name": "Activation", "name": "activation_256", "inbound_nodes": [[["batch_normalization_256", 0, 0, {}]]], "config": {"name": "activation_256", "trainable": true, "activation": "relu"}}, {"class_name": "AveragePooling2D", "name": "average_pooling2d_25", "inbound_nodes": [[["mixed6", 0, 0, {}]]], "config": {"pool_size": [3, 3], "padding": "same", "name": "average_pooling2d_25", "data_format": "channels_last", "trainable": true, "strides": [1, 1]}}, {"class_name": "Conv2D", "name": "conv2d_249", "inbound_nodes": [[["mixed6", 0, 0, {}]]], "config": {"use_bias": false, "dilation_rate": [1, 1], "bias_regularizer": null, "padding": "same", "kernel_initializer": {"class_name": "VarianceScaling", "config": {"mode": "fan_avg", "seed": null, "scale": 1.0, "distribution": "uniform"}}, "trainable": true, "filters": 192, "strides": [1, 1], "bias_constraint": null, "kernel_regularizer": null, "activation": "linear", "kernel_constraint": null, "bias_initializer": {"class_name": "Zeros", "config": {}}, "name": "conv2d_249", "data_format": "channels_last", "activity_regularizer": null, "kernel_size": [1, 1]}}, {"class_name": "Conv2D", "name": "conv2d_252", "inbound_nodes": [[["activation_251", 0, 0, {}]]], "config": {"use_bias": false, "dilation_rate": [1, 1], "bias_regularizer": null, "padding": "same", "kernel_initializer": {"class_name": "VarianceScaling", "config": {"mode": "fan_avg", "seed": null, "scale": 1.0, "distribution": "uniform"}}, "trainable": true, "filters": 192, "strides": [1, 1], "bias_constraint": null, "kernel_regularizer": null, "activation": "linear", "kernel_constraint": null, "bias_initializer": {"class_name": "Zeros", "config": {}}, "name": "conv2d_252", "data_format": "channels_last", "activity_regularizer": null, "kernel_size": [7, 1]}}, {"class_name": "Conv2D", "name": "conv2d_257", "inbound_nodes": [[["activation_256", 0, 0, {}]]], "config": {"use_bias": false, "dilation_rate": [1, 1], "bias_regularizer": null, "padding": "same", "kernel_initializer": {"class_name": "VarianceScaling", "config": {"mode": "fan_avg", "seed": null, "scale": 1.0, "distribution": "uniform"}}, "trainable": true, "filters": 192, "strides": [1, 1], "bias_constraint": null, "kernel_regularizer": null, "activation": "linear", "kernel_constraint": null, "bias_initializer": {"class_name": "Zeros", "config": {}}, "name": "conv2d_257", "data_format": "channels_last", "activity_regularizer": null, "kernel_size": [1, 7]}}, {"class_name": "Conv2D", "name": "conv2d_258", "inbound_nodes": [[["average_pooling2d_25", 0, 0, {}]]], "config": {"use_bias": false, "dilation_rate": [1, 1], "bias_regularizer": null, "padding": "same", "kernel_initializer": {"class_name": "VarianceScaling", "config": {"mode": "fan_avg", "seed": null, "scale": 1.0, "distribution": "uniform"}}, "trainable": true, "filters": 192, "strides": [1, 1], "bias_constraint": null, "kernel_regularizer": null, "activation": "linear", "kernel_constraint": null, "bias_initializer": {"class_name": "Zeros", "config": {}}, "name": "conv2d_258", "data_format": "channels_last", "activity_regularizer": null, "kernel_size": [1, 1]}}, {"class_name": "BatchNormalization", "name": "batch_normalization_249", "inbound_nodes": [[["conv2d_249", 0, 0, {}]]], "config": {"gamma_constraint": null, "epsilon": 0.001, "center": true, "trainable": true, "scale": false, "beta_regularizer": null, "gamma_initializer": {"class_name": "Ones", "config": {}}, "gamma_regularizer": null, "beta_initializer": {"class_name": "Zeros", "config": {}}, "beta_constraint": null, "axis": 3, "momentum": 0.99, "name": "batch_normalization_249", "moving_mean_initializer": {"class_name": "Zeros", "config": {}}, "moving_variance_initializer": {"class_name": "Ones", "config": {}}}}, {"class_name": "BatchNormalization", "name": "batch_normalization_252", "inbound_nodes": [[["conv2d_252", 0, 0, {}]]], "config": {"gamma_constraint": null, "epsilon": 0.001, "center": true, "trainable": true, "scale": false, "beta_regularizer": null, "gamma_initializer": {"class_name": "Ones", "config": {}}, "gamma_regularizer": null, "beta_initializer": {"class_name": "Zeros", "config": {}}, "beta_constraint": null, "axis": 3, "momentum": 0.99, "name": "batch_normalization_252", "moving_mean_initializer": {"class_name": "Zeros", "config": {}}, "moving_variance_initializer": {"class_name": "Ones", "config": {}}}}, {"class_name": "BatchNormalization", "name": "batch_normalization_257", "inbound_nodes": [[["conv2d_257", 0, 0, {}]]], "config": {"gamma_constraint": null, "epsilon": 0.001, "center": true, "trainable": true, "scale": false, "beta_regularizer": null, "gamma_initializer": {"class_name": "Ones", "config": {}}, "gamma_regularizer": null, "beta_initializer": {"class_name": "Zeros", "config": {}}, "beta_constraint": null, "axis": 3, "momentum": 0.99, "name": "batch_normalization_257", "moving_mean_initializer": {"class_name": "Zeros", "config": {}}, "moving_variance_initializer": {"class_name": "Ones", "config": {}}}}, {"class_name": "BatchNormalization", "name": "batch_normalization_258", "inbound_nodes": [[["conv2d_258", 0, 0, {}]]], "config": {"gamma_constraint": null, "epsilon": 0.001, "center": true, "trainable": true, "scale": false, "beta_regularizer": null, "gamma_initializer": {"class_name": "Ones", "config": {}}, "gamma_regularizer": null, "beta_initializer": {"class_name": "Zeros", "config": {}}, "beta_constraint": null, "axis": 3, "momentum": 0.99, "name": "batch_normalization_258", "moving_mean_initializer": {"class_name": "Zeros", "config": {}}, "moving_variance_initializer": {"class_name": "Ones", "config": {}}}}, {"class_name": "Activation", "name": "activation_249", "inbound_nodes": [[["batch_normalization_249", 0, 0, {}]]], "config": {"name": "activation_249", "trainable": true, "activation": "relu"}}, {"class_name": "Activation", "name": "activation_252", "inbound_nodes": [[["batch_normalization_252", 0, 0, {}]]], "config": {"name": "activation_252", "trainable": true, "activation": "relu"}}, {"class_name": "Activation", "name": "activation_257", "inbound_nodes": [[["batch_normalization_257", 0, 0, {}]]], "config": {"name": "activation_257", "trainable": true, "activation": "relu"}}, {"class_name": "Activation", "name": "activation_258", "inbound_nodes": [[["batch_normalization_258", 0, 0, {}]]], "config": {"name": "activation_258", "trainable": true, "activation": "relu"}}, {"class_name": "Concatenate", "name": "mixed7", "inbound_nodes": [[["activation_249", 0, 0, {}], ["activation_252", 0, 0, {}], ["activation_257", 0, 0, {}], ["activation_258", 0, 0, {}]]], "config": {"axis": 3, "name": "mixed7", "trainable": true}}, {"class_name": "Conv2D", "name": "conv2d_261", "inbound_nodes": [[["mixed7", 0, 0, {}]]], "config": {"use_bias": false, "dilation_rate": [1, 1], "bias_regularizer": null, "padding": "same", "kernel_initializer": {"class_name": "VarianceScaling", "config": {"mode": "fan_avg", "seed": null, "scale": 1.0, "distribution": "uniform"}}, "trainable": true, "filters": 192, "strides": [1, 1], "bias_constraint": null, "kernel_regularizer": null, "activation": "linear", "kernel_constraint": null, "bias_initializer": {"class_name": "Zeros", "config": {}}, "name": "conv2d_261", "data_format": "channels_last", "activity_regularizer": null, "kernel_size": [1, 1]}}, {"class_name": "BatchNormalization", "name": "batch_normalization_261", "inbound_nodes": [[["conv2d_261", 0, 0, {}]]], "config": {"gamma_constraint": null, "epsilon": 0.001, "center": true, "trainable": true, "scale": false, "beta_regularizer": null, "gamma_initializer": {"class_name": "Ones", "config": {}}, "gamma_regularizer": null, "beta_initializer": {"class_name": "Zeros", "config": {}}, "beta_constraint": null, "axis": 3, "momentum": 0.99, "name": "batch_normalization_261", "moving_mean_initializer": {"class_name": "Zeros", "config": {}}, "moving_variance_initializer": {"class_name": "Ones", "config": {}}}}, {"class_name": "Activation", "name": "activation_261", "inbound_nodes": [[["batch_normalization_261", 0, 0, {}]]], "config": {"name": "activation_261", "trainable": true, "activation": "relu"}}, {"class_name": "Conv2D", "name": "conv2d_262", "inbound_nodes": [[["activation_261", 0, 0, {}]]], "config": {"use_bias": false, "dilation_rate": [1, 1], "bias_regularizer": null, "padding": "same", "kernel_initializer": {"class_name": "VarianceScaling", "config": {"mode": "fan_avg", "seed": null, "scale": 1.0, "distribution": "uniform"}}, "trainable": true, "filters": 192, "strides": [1, 1], "bias_constraint": null, "kernel_regularizer": null, "activation": "linear", "kernel_constraint": null, "bias_initializer": {"class_name": "Zeros", "config": {}}, "name": "conv2d_262", "data_format": "channels_last", "activity_regularizer": null, "kernel_size": [1, 7]}}, {"class_name": "BatchNormalization", "name": "batch_normalization_262", "inbound_nodes": [[["conv2d_262", 0, 0, {}]]], "config": {"gamma_constraint": null, "epsilon": 0.001, "center": true, "trainable": true, "scale": false, "beta_regularizer": null, "gamma_initializer": {"class_name": "Ones", "config": {}}, "gamma_regularizer": null, "beta_initializer": {"class_name": "Zeros", "config": {}}, "beta_constraint": null, "axis": 3, "momentum": 0.99, "name": "batch_normalization_262", "moving_mean_initializer": {"class_name": "Zeros", "config": {}}, "moving_variance_initializer": {"class_name": "Ones", "config": {}}}}, {"class_name": "Activation", "name": "activation_262", "inbound_nodes": [[["batch_normalization_262", 0, 0, {}]]], "config": {"name": "activation_262", "trainable": true, "activation": "relu"}}, {"class_name": "Conv2D", "name": "conv2d_259", "inbound_nodes": [[["mixed7", 0, 0, {}]]], "config": {"use_bias": false, "dilation_rate": [1, 1], "bias_regularizer": null, "padding": "same", "kernel_initializer": {"class_name": "VarianceScaling", "config": {"mode": "fan_avg", "seed": null, "scale": 1.0, "distribution": "uniform"}}, "trainable": true, "filters": 192, "strides": [1, 1], "bias_constraint": null, "kernel_regularizer": null, "activation": "linear", "kernel_constraint": null, "bias_initializer": {"class_name": "Zeros", "config": {}}, "name": "conv2d_259", "data_format": "channels_last", "activity_regularizer": null, "kernel_size": [1, 1]}}, {"class_name": "Conv2D", "name": "conv2d_263", "inbound_nodes": [[["activation_262", 0, 0, {}]]], "config": {"use_bias": false, "dilation_rate": [1, 1], "bias_regularizer": null, "padding": "same", "kernel_initializer": {"class_name": "VarianceScaling", "config": {"mode": "fan_avg", "seed": null, "scale": 1.0, "distribution": "uniform"}}, "trainable": true, "filters": 192, "strides": [1, 1], "bias_constraint": null, "kernel_regularizer": null, "activation": "linear", "kernel_constraint": null, "bias_initializer": {"class_name": "Zeros", "config": {}}, "name": "conv2d_263", "data_format": "channels_last", "activity_regularizer": null, "kernel_size": [7, 1]}}, {"class_name": "BatchNormalization", "name": "batch_normalization_259", "inbound_nodes": [[["conv2d_259", 0, 0, {}]]], "config": {"gamma_constraint": null, "epsilon": 0.001, "center": true, "trainable": true, "scale": false, "beta_regularizer": null, "gamma_initializer": {"class_name": "Ones", "config": {}}, "gamma_regularizer": null, "beta_initializer": {"class_name": "Zeros", "config": {}}, "beta_constraint": null, "axis": 3, "momentum": 0.99, "name": "batch_normalization_259", "moving_mean_initializer": {"class_name": "Zeros", "config": {}}, "moving_variance_initializer": {"class_name": "Ones", "config": {}}}}, {"class_name": "BatchNormalization", "name": "batch_normalization_263", "inbound_nodes": [[["conv2d_263", 0, 0, {}]]], "config": {"gamma_constraint": null, "epsilon": 0.001, "center": true, "trainable": true, "scale": false, "beta_regularizer": null, "gamma_initializer": {"class_name": "Ones", "config": {}}, "gamma_regularizer": null, "beta_initializer": {"class_name": "Zeros", "config": {}}, "beta_constraint": null, "axis": 3, "momentum": 0.99, "name": "batch_normalization_263", "moving_mean_initializer": {"class_name": "Zeros", "config": {}}, "moving_variance_initializer": {"class_name": "Ones", "config": {}}}}, {"class_name": "Activation", "name": "activation_259", "inbound_nodes": [[["batch_normalization_259", 0, 0, {}]]], "config": {"name": "activation_259", "trainable": true, "activation": "relu"}}, {"class_name": "Activation", "name": "activation_263", "inbound_nodes": [[["batch_normalization_263", 0, 0, {}]]], "config": {"name": "activation_263", "trainable": true, "activation": "relu"}}, {"class_name": "Conv2D", "name": "conv2d_260", "inbound_nodes": [[["activation_259", 0, 0, {}]]], "config": {"use_bias": false, "dilation_rate": [1, 1], "bias_regularizer": null, "padding": "valid", "kernel_initializer": {"class_name": "VarianceScaling", "config": {"mode": "fan_avg", "seed": null, "scale": 1.0, "distribution": "uniform"}}, "trainable": true, "filters": 320, "strides": [2, 2], "bias_constraint": null, "kernel_regularizer": null, "activation": "linear", "kernel_constraint": null, "bias_initializer": {"class_name": "Zeros", "config": {}}, "name": "conv2d_260", "data_format": "channels_last", "activity_regularizer": null, "kernel_size": [3, 3]}}, {"class_name": "Conv2D", "name": "conv2d_264", "inbound_nodes": [[["activation_263", 0, 0, {}]]], "config": {"use_bias": false, "dilation_rate": [1, 1], "bias_regularizer": null, "padding": "valid", "kernel_initializer": {"class_name": "VarianceScaling", "config": {"mode": "fan_avg", "seed": null, "scale": 1.0, "distribution": "uniform"}}, "trainable": true, "filters": 192, "strides": [2, 2], "bias_constraint": null, "kernel_regularizer": null, "activation": "linear", "kernel_constraint": null, "bias_initializer": {"class_name": "Zeros", "config": {}}, "name": "conv2d_264", "data_format": "channels_last", "activity_regularizer": null, "kernel_size": [3, 3]}}, {"class_name": "BatchNormalization", "name": "batch_normalization_260", "inbound_nodes": [[["conv2d_260", 0, 0, {}]]], "config": {"gamma_constraint": null, "epsilon": 0.001, "center": true, "trainable": true, "scale": false, "beta_regularizer": null, "gamma_initializer": {"class_name": "Ones", "config": {}}, "gamma_regularizer": null, "beta_initializer": {"class_name": "Zeros", "config": {}}, "beta_constraint": null, "axis": 3, "momentum": 0.99, "name": "batch_normalization_260", "moving_mean_initializer": {"class_name": "Zeros", "config": {}}, "moving_variance_initializer": {"class_name": "Ones", "config": {}}}}, {"class_name": "BatchNormalization", "name": "batch_normalization_264", "inbound_nodes": [[["conv2d_264", 0, 0, {}]]], "config": {"gamma_constraint": null, "epsilon": 0.001, "center": true, "trainable": true, "scale": false, "beta_regularizer": null, "gamma_initializer": {"class_name": "Ones", "config": {}}, "gamma_regularizer": null, "beta_initializer": {"class_name": "Zeros", "config": {}}, "beta_constraint": null, "axis": 3, "momentum": 0.99, "name": "batch_normalization_264", "moving_mean_initializer": {"class_name": "Zeros", "config": {}}, "moving_variance_initializer": {"class_name": "Ones", "config": {}}}}, {"class_name": "Activation", "name": "activation_260", "inbound_nodes": [[["batch_normalization_260", 0, 0, {}]]], "config": {"name": "activation_260", "trainable": true, "activation": "relu"}}, {"class_name": "Activation", "name": "activation_264", "inbound_nodes": [[["batch_normalization_264", 0, 0, {}]]], "config": {"name": "activation_264", "trainable": true, "activation": "relu"}}, {"class_name": "MaxPooling2D", "name": "max_pooling2d_12", "inbound_nodes": [[["mixed7", 0, 0, {}]]], "config": {"pool_size": [3, 3], "padding": "valid", "name": "max_pooling2d_12", "data_format": "channels_last", "trainable": true, "strides": [2, 2]}}, {"class_name": "Concatenate", "name": "mixed8", "inbound_nodes": [[["activation_260", 0, 0, {}], ["activation_264", 0, 0, {}], ["max_pooling2d_12", 0, 0, {}]]], "config": {"axis": 3, "name": "mixed8", "trainable": true}}, {"class_name": "Conv2D", "name": "conv2d_269", "inbound_nodes": [[["mixed8", 0, 0, {}]]], "config": {"use_bias": false, "dilation_rate": [1, 1], "bias_regularizer": null, "padding": "same", "kernel_initializer": {"class_name": "VarianceScaling", "config": {"mode": "fan_avg", "seed": null, "scale": 1.0, "distribution": "uniform"}}, "trainable": true, "filters": 448, "strides": [1, 1], "bias_constraint": null, "kernel_regularizer": null, "activation": "linear", "kernel_constraint": null, "bias_initializer": {"class_name": "Zeros", "config": {}}, "name": "conv2d_269", "data_format": "channels_last", "activity_regularizer": null, "kernel_size": [1, 1]}}, {"class_name": "BatchNormalization", "name": "batch_normalization_269", "inbound_nodes": [[["conv2d_269", 0, 0, {}]]], "config": {"gamma_constraint": null, "epsilon": 0.001, "center": true, "trainable": true, "scale": false, "beta_regularizer": null, "gamma_initializer": {"class_name": "Ones", "config": {}}, "gamma_regularizer": null, "beta_initializer": {"class_name": "Zeros", "config": {}}, "beta_constraint": null, "axis": 3, "momentum": 0.99, "name": "batch_normalization_269", "moving_mean_initializer": {"class_name": "Zeros", "config": {}}, "moving_variance_initializer": {"class_name": "Ones", "config": {}}}}, {"class_name": "Activation", "name": "activation_269", "inbound_nodes": [[["batch_normalization_269", 0, 0, {}]]], "config": {"name": "activation_269", "trainable": true, "activation": "relu"}}, {"class_name": "Conv2D", "name": "conv2d_266", "inbound_nodes": [[["mixed8", 0, 0, {}]]], "config": {"use_bias": false, "dilation_rate": [1, 1], "bias_regularizer": null, "padding": "same", "kernel_initializer": {"class_name": "VarianceScaling", "config": {"mode": "fan_avg", "seed": null, "scale": 1.0, "distribution": "uniform"}}, "trainable": true, "filters": 384, "strides": [1, 1], "bias_constraint": null, "kernel_regularizer": null, "activation": "linear", "kernel_constraint": null, "bias_initializer": {"class_name": "Zeros", "config": {}}, "name": "conv2d_266", "data_format": "channels_last", "activity_regularizer": null, "kernel_size": [1, 1]}}, {"class_name": "Conv2D", "name": "conv2d_270", "inbound_nodes": [[["activation_269", 0, 0, {}]]], "config": {"use_bias": false, "dilation_rate": [1, 1], "bias_regularizer": null, "padding": "same", "kernel_initializer": {"class_name": "VarianceScaling", "config": {"mode": "fan_avg", "seed": null, "scale": 1.0, "distribution": "uniform"}}, "trainable": true, "filters": 384, "strides": [1, 1], "bias_constraint": null, "kernel_regularizer": null, "activation": "linear", "kernel_constraint": null, "bias_initializer": {"class_name": "Zeros", "config": {}}, "name": "conv2d_270", "data_format": "channels_last", "activity_regularizer": null, "kernel_size": [3, 3]}}, {"class_name": "BatchNormalization", "name": "batch_normalization_266", "inbound_nodes": [[["conv2d_266", 0, 0, {}]]], "config": {"gamma_constraint": null, "epsilon": 0.001, "center": true, "trainable": true, "scale": false, "beta_regularizer": null, "gamma_initializer": {"class_name": "Ones", "config": {}}, "gamma_regularizer": null, "beta_initializer": {"class_name": "Zeros", "config": {}}, "beta_constraint": null, "axis": 3, "momentum": 0.99, "name": "batch_normalization_266", "moving_mean_initializer": {"class_name": "Zeros", "config": {}}, "moving_variance_initializer": {"class_name": "Ones", "config": {}}}}, {"class_name": "BatchNormalization", "name": "batch_normalization_270", "inbound_nodes": [[["conv2d_270", 0, 0, {}]]], "config": {"gamma_constraint": null, "epsilon": 0.001, "center": true, "trainable": true, "scale": false, "beta_regularizer": null, "gamma_initializer": {"class_name": "Ones", "config": {}}, "gamma_regularizer": null, "beta_initializer": {"class_name": "Zeros", "config": {}}, "beta_constraint": null, "axis": 3, "momentum": 0.99, "name": "batch_normalization_270", "moving_mean_initializer": {"class_name": "Zeros", "config": {}}, "moving_variance_initializer": {"class_name": "Ones", "config": {}}}}, {"class_name": "Activation", "name": "activation_266", "inbound_nodes": [[["batch_normalization_266", 0, 0, {}]]], "config": {"name": "activation_266", "trainable": true, "activation": "relu"}}, {"class_name": "Activation", "name": "activation_270", "inbound_nodes": [[["batch_normalization_270", 0, 0, {}]]], "config": {"name": "activation_270", "trainable": true, "activation": "relu"}}, {"class_name": "Conv2D", "name": "conv2d_267", "inbound_nodes": [[["activation_266", 0, 0, {}]]], "config": {"use_bias": false, "dilation_rate": [1, 1], "bias_regularizer": null, "padding": "same", "kernel_initializer": {"class_name": "VarianceScaling", "config": {"mode": "fan_avg", "seed": null, "scale": 1.0, "distribution": "uniform"}}, "trainable": true, "filters": 384, "strides": [1, 1], "bias_constraint": null, "kernel_regularizer": null, "activation": "linear", "kernel_constraint": null, "bias_initializer": {"class_name": "Zeros", "config": {}}, "name": "conv2d_267", "data_format": "channels_last", "activity_regularizer": null, "kernel_size": [1, 3]}}, {"class_name": "Conv2D", "name": "conv2d_268", "inbound_nodes": [[["activation_266", 0, 0, {}]]], "config": {"use_bias": false, "dilation_rate": [1, 1], "bias_regularizer": null, "padding": "same", "kernel_initializer": {"class_name": "VarianceScaling", "config": {"mode": "fan_avg", "seed": null, "scale": 1.0, "distribution": "uniform"}}, "trainable": true, "filters": 384, "strides": [1, 1], "bias_constraint": null, "kernel_regularizer": null, "activation": "linear", "kernel_constraint": null, "bias_initializer": {"class_name": "Zeros", "config": {}}, "name": "conv2d_268", "data_format": "channels_last", "activity_regularizer": null, "kernel_size": [3, 1]}}, {"class_name": "Conv2D", "name": "conv2d_271", "inbound_nodes": [[["activation_270", 0, 0, {}]]], "config": {"use_bias": false, "dilation_rate": [1, 1], "bias_regularizer": null, "padding": "same", "kernel_initializer": {"class_name": "VarianceScaling", "config": {"mode": "fan_avg", "seed": null, "scale": 1.0, "distribution": "uniform"}}, "trainable": true, "filters": 384, "strides": [1, 1], "bias_constraint": null, "kernel_regularizer": null, "activation": "linear", "kernel_constraint": null, "bias_initializer": {"class_name": "Zeros", "config": {}}, "name": "conv2d_271", "data_format": "channels_last", "activity_regularizer": null, "kernel_size": [1, 3]}}, {"class_name": "Conv2D", "name": "conv2d_272", "inbound_nodes": [[["activation_270", 0, 0, {}]]], "config": {"use_bias": false, "dilation_rate": [1, 1], "bias_regularizer": null, "padding": "same", "kernel_initializer": {"class_name": "VarianceScaling", "config": {"mode": "fan_avg", "seed": null, "scale": 1.0, "distribution": "uniform"}}, "trainable": true, "filters": 384, "strides": [1, 1], "bias_constraint": null, "kernel_regularizer": null, "activation": "linear", "kernel_constraint": null, "bias_initializer": {"class_name": "Zeros", "config": {}}, "name": "conv2d_272", "data_format": "channels_last", "activity_regularizer": null, "kernel_size": [3, 1]}}, {"class_name": "AveragePooling2D", "name": "average_pooling2d_26", "inbound_nodes": [[["mixed8", 0, 0, {}]]], "config": {"pool_size": [3, 3], "padding": "same", "name": "average_pooling2d_26", "data_format": "channels_last", "trainable": true, "strides": [1, 1]}}, {"class_name": "Conv2D", "name": "conv2d_265", "inbound_nodes": [[["mixed8", 0, 0, {}]]], "config": {"use_bias": false, "dilation_rate": [1, 1], "bias_regularizer": null, "padding": "same", "kernel_initializer": {"class_name": "VarianceScaling", "config": {"mode": "fan_avg", "seed": null, "scale": 1.0, "distribution": "uniform"}}, "trainable": true, "filters": 320, "strides": [1, 1], "bias_constraint": null, "kernel_regularizer": null, "activation": "linear", "kernel_constraint": null, "bias_initializer": {"class_name": "Zeros", "config": {}}, "name": "conv2d_265", "data_format": "channels_last", "activity_regularizer": null, "kernel_size": [1, 1]}}, {"class_name": "BatchNormalization", "name": "batch_normalization_267", "inbound_nodes": [[["conv2d_267", 0, 0, {}]]], "config": {"gamma_constraint": null, "epsilon": 0.001, "center": true, "trainable": true, "scale": false, "beta_regularizer": null, "gamma_initializer": {"class_name": "Ones", "config": {}}, "gamma_regularizer": null, "beta_initializer": {"class_name": "Zeros", "config": {}}, "beta_constraint": null, "axis": 3, "momentum": 0.99, "name": "batch_normalization_267", "moving_mean_initializer": {"class_name": "Zeros", "config": {}}, "moving_variance_initializer": {"class_name": "Ones", "config": {}}}}, {"class_name": "BatchNormalization", "name": "batch_normalization_268", "inbound_nodes": [[["conv2d_268", 0, 0, {}]]], "config": {"gamma_constraint": null, "epsilon": 0.001, "center": true, "trainable": true, "scale": false, "beta_regularizer": null, "gamma_initializer": {"class_name": "Ones", "config": {}}, "gamma_regularizer": null, "beta_initializer": {"class_name": "Zeros", "config": {}}, "beta_constraint": null, "axis": 3, "momentum": 0.99, "name": "batch_normalization_268", "moving_mean_initializer": {"class_name": "Zeros", "config": {}}, "moving_variance_initializer": {"class_name": "Ones", "config": {}}}}, {"class_name": "BatchNormalization", "name": "batch_normalization_271", "inbound_nodes": [[["conv2d_271", 0, 0, {}]]], "config": {"gamma_constraint": null, "epsilon": 0.001, "center": true, "trainable": true, "scale": false, "beta_regularizer": null, "gamma_initializer": {"class_name": "Ones", "config": {}}, "gamma_regularizer": null, "beta_initializer": {"class_name": "Zeros", "config": {}}, "beta_constraint": null, "axis": 3, "momentum": 0.99, "name": "batch_normalization_271", "moving_mean_initializer": {"class_name": "Zeros", "config": {}}, "moving_variance_initializer": {"class_name": "Ones", "config": {}}}}, {"class_name": "BatchNormalization", "name": "batch_normalization_272", "inbound_nodes": [[["conv2d_272", 0, 0, {}]]], "config": {"gamma_constraint": null, "epsilon": 0.001, "center": true, "trainable": true, "scale": false, "beta_regularizer": null, "gamma_initializer": {"class_name": "Ones", "config": {}}, "gamma_regularizer": null, "beta_initializer": {"class_name": "Zeros", "config": {}}, "beta_constraint": null, "axis": 3, "momentum": 0.99, "name": "batch_normalization_272", "moving_mean_initializer": {"class_name": "Zeros", "config": {}}, "moving_variance_initializer": {"class_name": "Ones", "config": {}}}}, {"class_name": "Conv2D", "name": "conv2d_273", "inbound_nodes": [[["average_pooling2d_26", 0, 0, {}]]], "config": {"use_bias": false, "dilation_rate": [1, 1], "bias_regularizer": null, "padding": "same", "kernel_initializer": {"class_name": "VarianceScaling", "config": {"mode": "fan_avg", "seed": null, "scale": 1.0, "distribution": "uniform"}}, "trainable": true, "filters": 192, "strides": [1, 1], "bias_constraint": null, "kernel_regularizer": null, "activation": "linear", "kernel_constraint": null, "bias_initializer": {"class_name": "Zeros", "config": {}}, "name": "conv2d_273", "data_format": "channels_last", "activity_regularizer": null, "kernel_size": [1, 1]}}, {"class_name": "BatchNormalization", "name": "batch_normalization_265", "inbound_nodes": [[["conv2d_265", 0, 0, {}]]], "config": {"gamma_constraint": null, "epsilon": 0.001, "center": true, "trainable": true, "scale": false, "beta_regularizer": null, "gamma_initializer": {"class_name": "Ones", "config": {}}, "gamma_regularizer": null, "beta_initializer": {"class_name": "Zeros", "config": {}}, "beta_constraint": null, "axis": 3, "momentum": 0.99, "name": "batch_normalization_265", "moving_mean_initializer": {"class_name": "Zeros", "config": {}}, "moving_variance_initializer": {"class_name": "Ones", "config": {}}}}, {"class_name": "Activation", "name": "activation_267", "inbound_nodes": [[["batch_normalization_267", 0, 0, {}]]], "config": {"name": "activation_267", "trainable": true, "activation": "relu"}}, {"class_name": "Activation", "name": "activation_268", "inbound_nodes": [[["batch_normalization_268", 0, 0, {}]]], "config": {"name": "activation_268", "trainable": true, "activation": "relu"}}, {"class_name": "Activation", "name": "activation_271", "inbound_nodes": [[["batch_normalization_271", 0, 0, {}]]], "config": {"name": "activation_271", "trainable": true, "activation": "relu"}}, {"class_name": "Activation", "name": "activation_272", "inbound_nodes": [[["batch_normalization_272", 0, 0, {}]]], "config": {"name": "activation_272", "trainable": true, "activation": "relu"}}, {"class_name": "BatchNormalization", "name": "batch_normalization_273", "inbound_nodes": [[["conv2d_273", 0, 0, {}]]], "config": {"gamma_constraint": null, "epsilon": 0.001, "center": true, "trainable": true, "scale": false, "beta_regularizer": null, "gamma_initializer": {"class_name": "Ones", "config": {}}, "gamma_regularizer": null, "beta_initializer": {"class_name": "Zeros", "config": {}}, "beta_constraint": null, "axis": 3, "momentum": 0.99, "name": "batch_normalization_273", "moving_mean_initializer": {"class_name": "Zeros", "config": {}}, "moving_variance_initializer": {"class_name": "Ones", "config": {}}}}, {"class_name": "Activation", "name": "activation_265", "inbound_nodes": [[["batch_normalization_265", 0, 0, {}]]], "config": {"name": "activation_265", "trainable": true, "activation": "relu"}}, {"class_name": "Concatenate", "name": "mixed9_0", "inbound_nodes": [[["activation_267", 0, 0, {}], ["activation_268", 0, 0, {}]]], "config": {"axis": 3, "name": "mixed9_0", "trainable": true}}, {"class_name": "Concatenate", "name": "concatenate_5", "inbound_nodes": [[["activation_271", 0, 0, {}], ["activation_272", 0, 0, {}]]], "config": {"axis": 3, "name": "concatenate_5", "trainable": true}}, {"class_name": "Activation", "name": "activation_273", "inbound_nodes": [[["batch_normalization_273", 0, 0, {}]]], "config": {"name": "activation_273", "trainable": true, "activation": "relu"}}, {"class_name": "Concatenate", "name": "mixed9", "inbound_nodes": [[["activation_265", 0, 0, {}], ["mixed9_0", 0, 0, {}], ["concatenate_5", 0, 0, {}], ["activation_273", 0, 0, {}]]], "config": {"axis": 3, "name": "mixed9", "trainable": true}}, {"class_name": "Conv2D", "name": "conv2d_278", "inbound_nodes": [[["mixed9", 0, 0, {}]]], "config": {"use_bias": false, "dilation_rate": [1, 1], "bias_regularizer": null, "padding": "same", "kernel_initializer": {"class_name": "VarianceScaling", "config": {"mode": "fan_avg", "seed": null, "scale": 1.0, "distribution": "uniform"}}, "trainable": true, "filters": 448, "strides": [1, 1], "bias_constraint": null, "kernel_regularizer": null, "activation": "linear", "kernel_constraint": null, "bias_initializer": {"class_name": "Zeros", "config": {}}, "name": "conv2d_278", "data_format": "channels_last", "activity_regularizer": null, "kernel_size": [1, 1]}}, {"class_name": "BatchNormalization", "name": "batch_normalization_278", "inbound_nodes": [[["conv2d_278", 0, 0, {}]]], "config": {"gamma_constraint": null, "epsilon": 0.001, "center": true, "trainable": true, "scale": false, "beta_regularizer": null, "gamma_initializer": {"class_name": "Ones", "config": {}}, "gamma_regularizer": null, "beta_initializer": {"class_name": "Zeros", "config": {}}, "beta_constraint": null, "axis": 3, "momentum": 0.99, "name": "batch_normalization_278", "moving_mean_initializer": {"class_name": "Zeros", "config": {}}, "moving_variance_initializer": {"class_name": "Ones", "config": {}}}}, {"class_name": "Activation", "name": "activation_278", "inbound_nodes": [[["batch_normalization_278", 0, 0, {}]]], "config": {"name": "activation_278", "trainable": true, "activation": "relu"}}, {"class_name": "Conv2D", "name": "conv2d_275", "inbound_nodes": [[["mixed9", 0, 0, {}]]], "config": {"use_bias": false, "dilation_rate": [1, 1], "bias_regularizer": null, "padding": "same", "kernel_initializer": {"class_name": "VarianceScaling", "config": {"mode": "fan_avg", "seed": null, "scale": 1.0, "distribution": "uniform"}}, "trainable": true, "filters": 384, "strides": [1, 1], "bias_constraint": null, "kernel_regularizer": null, "activation": "linear", "kernel_constraint": null, "bias_initializer": {"class_name": "Zeros", "config": {}}, "name": "conv2d_275", "data_format": "channels_last", "activity_regularizer": null, "kernel_size": [1, 1]}}, {"class_name": "Conv2D", "name": "conv2d_279", "inbound_nodes": [[["activation_278", 0, 0, {}]]], "config": {"use_bias": false, "dilation_rate": [1, 1], "bias_regularizer": null, "padding": "same", "kernel_initializer": {"class_name": "VarianceScaling", "config": {"mode": "fan_avg", "seed": null, "scale": 1.0, "distribution": "uniform"}}, "trainable": true, "filters": 384, "strides": [1, 1], "bias_constraint": null, "kernel_regularizer": null, "activation": "linear", "kernel_constraint": null, "bias_initializer": {"class_name": "Zeros", "config": {}}, "name": "conv2d_279", "data_format": "channels_last", "activity_regularizer": null, "kernel_size": [3, 3]}}, {"class_name": "BatchNormalization", "name": "batch_normalization_275", "inbound_nodes": [[["conv2d_275", 0, 0, {}]]], "config": {"gamma_constraint": null, "epsilon": 0.001, "center": true, "trainable": true, "scale": false, "beta_regularizer": null, "gamma_initializer": {"class_name": "Ones", "config": {}}, "gamma_regularizer": null, "beta_initializer": {"class_name": "Zeros", "config": {}}, "beta_constraint": null, "axis": 3, "momentum": 0.99, "name": "batch_normalization_275", "moving_mean_initializer": {"class_name": "Zeros", "config": {}}, "moving_variance_initializer": {"class_name": "Ones", "config": {}}}}, {"class_name": "BatchNormalization", "name": "batch_normalization_279", "inbound_nodes": [[["conv2d_279", 0, 0, {}]]], "config": {"gamma_constraint": null, "epsilon": 0.001, "center": true, "trainable": true, "scale": false, "beta_regularizer": null, "gamma_initializer": {"class_name": "Ones", "config": {}}, "gamma_regularizer": null, "beta_initializer": {"class_name": "Zeros", "config": {}}, "beta_constraint": null, "axis": 3, "momentum": 0.99, "name": "batch_normalization_279", "moving_mean_initializer": {"class_name": "Zeros", "config": {}}, "moving_variance_initializer": {"class_name": "Ones", "config": {}}}}, {"class_name": "Activation", "name": "activation_275", "inbound_nodes": [[["batch_normalization_275", 0, 0, {}]]], "config": {"name": "activation_275", "trainable": true, "activation": "relu"}}, {"class_name": "Activation", "name": "activation_279", "inbound_nodes": [[["batch_normalization_279", 0, 0, {}]]], "config": {"name": "activation_279", "trainable": true, "activation": "relu"}}, {"class_name": "Conv2D", "name": "conv2d_276", "inbound_nodes": [[["activation_275", 0, 0, {}]]], "config": {"use_bias": false, "dilation_rate": [1, 1], "bias_regularizer": null, "padding": "same", "kernel_initializer": {"class_name": "VarianceScaling", "config": {"mode": "fan_avg", "seed": null, "scale": 1.0, "distribution": "uniform"}}, "trainable": true, "filters": 384, "strides": [1, 1], "bias_constraint": null, "kernel_regularizer": null, "activation": "linear", "kernel_constraint": null, "bias_initializer": {"class_name": "Zeros", "config": {}}, "name": "conv2d_276", "data_format": "channels_last", "activity_regularizer": null, "kernel_size": [1, 3]}}, {"class_name": "Conv2D", "name": "conv2d_277", "inbound_nodes": [[["activation_275", 0, 0, {}]]], "config": {"use_bias": false, "dilation_rate": [1, 1], "bias_regularizer": null, "padding": "same", "kernel_initializer": {"class_name": "VarianceScaling", "config": {"mode": "fan_avg", "seed": null, "scale": 1.0, "distribution": "uniform"}}, "trainable": true, "filters": 384, "strides": [1, 1], "bias_constraint": null, "kernel_regularizer": null, "activation": "linear", "kernel_constraint": null, "bias_initializer": {"class_name": "Zeros", "config": {}}, "name": "conv2d_277", "data_format": "channels_last", "activity_regularizer": null, "kernel_size": [3, 1]}}, {"class_name": "Conv2D", "name": "conv2d_280", "inbound_nodes": [[["activation_279", 0, 0, {}]]], "config": {"use_bias": false, "dilation_rate": [1, 1], "bias_regularizer": null, "padding": "same", "kernel_initializer": {"class_name": "VarianceScaling", "config": {"mode": "fan_avg", "seed": null, "scale": 1.0, "distribution": "uniform"}}, "trainable": true, "filters": 384, "strides": [1, 1], "bias_constraint": null, "kernel_regularizer": null, "activation": "linear", "kernel_constraint": null, "bias_initializer": {"class_name": "Zeros", "config": {}}, "name": "conv2d_280", "data_format": "channels_last", "activity_regularizer": null, "kernel_size": [1, 3]}}, {"class_name": "Conv2D", "name": "conv2d_281", "inbound_nodes": [[["activation_279", 0, 0, {}]]], "config": {"use_bias": false, "dilation_rate": [1, 1], "bias_regularizer": null, "padding": "same", "kernel_initializer": {"class_name": "VarianceScaling", "config": {"mode": "fan_avg", "seed": null, "scale": 1.0, "distribution": "uniform"}}, "trainable": true, "filters": 384, "strides": [1, 1], "bias_constraint": null, "kernel_regularizer": null, "activation": "linear", "kernel_constraint": null, "bias_initializer": {"class_name": "Zeros", "config": {}}, "name": "conv2d_281", "data_format": "channels_last", "activity_regularizer": null, "kernel_size": [3, 1]}}, {"class_name": "AveragePooling2D", "name": "average_pooling2d_27", "inbound_nodes": [[["mixed9", 0, 0, {}]]], "config": {"pool_size": [3, 3], "padding": "same", "name": "average_pooling2d_27", "data_format": "channels_last", "trainable": true, "strides": [1, 1]}}, {"class_name": "Conv2D", "name": "conv2d_274", "inbound_nodes": [[["mixed9", 0, 0, {}]]], "config": {"use_bias": false, "dilation_rate": [1, 1], "bias_regularizer": null, "padding": "same", "kernel_initializer": {"class_name": "VarianceScaling", "config": {"mode": "fan_avg", "seed": null, "scale": 1.0, "distribution": "uniform"}}, "trainable": true, "filters": 320, "strides": [1, 1], "bias_constraint": null, "kernel_regularizer": null, "activation": "linear", "kernel_constraint": null, "bias_initializer": {"class_name": "Zeros", "config": {}}, "name": "conv2d_274", "data_format": "channels_last", "activity_regularizer": null, "kernel_size": [1, 1]}}, {"class_name": "BatchNormalization", "name": "batch_normalization_276", "inbound_nodes": [[["conv2d_276", 0, 0, {}]]], "config": {"gamma_constraint": null, "epsilon": 0.001, "center": true, "trainable": true, "scale": false, "beta_regularizer": null, "gamma_initializer": {"class_name": "Ones", "config": {}}, "gamma_regularizer": null, "beta_initializer": {"class_name": "Zeros", "config": {}}, "beta_constraint": null, "axis": 3, "momentum": 0.99, "name": "batch_normalization_276", "moving_mean_initializer": {"class_name": "Zeros", "config": {}}, "moving_variance_initializer": {"class_name": "Ones", "config": {}}}}, {"class_name": "BatchNormalization", "name": "batch_normalization_277", "inbound_nodes": [[["conv2d_277", 0, 0, {}]]], "config": {"gamma_constraint": null, "epsilon": 0.001, "center": true, "trainable": true, "scale": false, "beta_regularizer": null, "gamma_initializer": {"class_name": "Ones", "config": {}}, "gamma_regularizer": null, "beta_initializer": {"class_name": "Zeros", "config": {}}, "beta_constraint": null, "axis": 3, "momentum": 0.99, "name": "batch_normalization_277", "moving_mean_initializer": {"class_name": "Zeros", "config": {}}, "moving_variance_initializer": {"class_name": "Ones", "config": {}}}}, {"class_name": "BatchNormalization", "name": "batch_normalization_280", "inbound_nodes": [[["conv2d_280", 0, 0, {}]]], "config": {"gamma_constraint": null, "epsilon": 0.001, "center": true, "trainable": true, "scale": false, "beta_regularizer": null, "gamma_initializer": {"class_name": "Ones", "config": {}}, "gamma_regularizer": null, "beta_initializer": {"class_name": "Zeros", "config": {}}, "beta_constraint": null, "axis": 3, "momentum": 0.99, "name": "batch_normalization_280", "moving_mean_initializer": {"class_name": "Zeros", "config": {}}, "moving_variance_initializer": {"class_name": "Ones", "config": {}}}}, {"class_name": "BatchNormalization", "name": "batch_normalization_281", "inbound_nodes": [[["conv2d_281", 0, 0, {}]]], "config": {"gamma_constraint": null, "epsilon": 0.001, "center": true, "trainable": true, "scale": false, "beta_regularizer": null, "gamma_initializer": {"class_name": "Ones", "config": {}}, "gamma_regularizer": null, "beta_initializer": {"class_name": "Zeros", "config": {}}, "beta_constraint": null, "axis": 3, "momentum": 0.99, "name": "batch_normalization_281", "moving_mean_initializer": {"class_name": "Zeros", "config": {}}, "moving_variance_initializer": {"class_name": "Ones", "config": {}}}}, {"class_name": "Conv2D", "name": "conv2d_282", "inbound_nodes": [[["average_pooling2d_27", 0, 0, {}]]], "config": {"use_bias": false, "dilation_rate": [1, 1], "bias_regularizer": null, "padding": "same", "kernel_initializer": {"class_name": "VarianceScaling", "config": {"mode": "fan_avg", "seed": null, "scale": 1.0, "distribution": "uniform"}}, "trainable": true, "filters": 192, "strides": [1, 1], "bias_constraint": null, "kernel_regularizer": null, "activation": "linear", "kernel_constraint": null, "bias_initializer": {"class_name": "Zeros", "config": {}}, "name": "conv2d_282", "data_format": "channels_last", "activity_regularizer": null, "kernel_size": [1, 1]}}, {"class_name": "BatchNormalization", "name": "batch_normalization_274", "inbound_nodes": [[["conv2d_274", 0, 0, {}]]], "config": {"gamma_constraint": null, "epsilon": 0.001, "center": true, "trainable": true, "scale": false, "beta_regularizer": null, "gamma_initializer": {"class_name": "Ones", "config": {}}, "gamma_regularizer": null, "beta_initializer": {"class_name": "Zeros", "config": {}}, "beta_constraint": null, "axis": 3, "momentum": 0.99, "name": "batch_normalization_274", "moving_mean_initializer": {"class_name": "Zeros", "config": {}}, "moving_variance_initializer": {"class_name": "Ones", "config": {}}}}, {"class_name": "Activation", "name": "activation_276", "inbound_nodes": [[["batch_normalization_276", 0, 0, {}]]], "config": {"name": "activation_276", "trainable": true, "activation": "relu"}}, {"class_name": "Activation", "name": "activation_277", "inbound_nodes": [[["batch_normalization_277", 0, 0, {}]]], "config": {"name": "activation_277", "trainable": true, "activation": "relu"}}, {"class_name": "Activation", "name": "activation_280", "inbound_nodes": [[["batch_normalization_280", 0, 0, {}]]], "config": {"name": "activation_280", "trainable": true, "activation": "relu"}}, {"class_name": "Activation", "name": "activation_281", "inbound_nodes": [[["batch_normalization_281", 0, 0, {}]]], "config": {"name": "activation_281", "trainable": true, "activation": "relu"}}, {"class_name": "BatchNormalization", "name": "batch_normalization_282", "inbound_nodes": [[["conv2d_282", 0, 0, {}]]], "config": {"gamma_constraint": null, "epsilon": 0.001, "center": true, "trainable": true, "scale": false, "beta_regularizer": null, "gamma_initializer": {"class_name": "Ones", "config": {}}, "gamma_regularizer": null, "beta_initializer": {"class_name": "Zeros", "config": {}}, "beta_constraint": null, "axis": 3, "momentum": 0.99, "name": "batch_normalization_282", "moving_mean_initializer": {"class_name": "Zeros", "config": {}}, "moving_variance_initializer": {"class_name": "Ones", "config": {}}}}, {"class_name": "Activation", "name": "activation_274", "inbound_nodes": [[["batch_normalization_274", 0, 0, {}]]], "config": {"name": "activation_274", "trainable": true, "activation": "relu"}}, {"class_name": "Concatenate", "name": "mixed9_1", "inbound_nodes": [[["activation_276", 0, 0, {}], ["activation_277", 0, 0, {}]]], "config": {"axis": 3, "name": "mixed9_1", "trainable": true}}, {"class_name": "Concatenate", "name": "concatenate_6", "inbound_nodes": [[["activation_280", 0, 0, {}], ["activation_281", 0, 0, {}]]], "config": {"axis": 3, "name": "concatenate_6", "trainable": true}}, {"class_name": "Activation", "name": "activation_282", "inbound_nodes": [[["batch_normalization_282", 0, 0, {}]]], "config": {"name": "activation_282", "trainable": true, "activation": "relu"}}, {"class_name": "Concatenate", "name": "mixed10", "inbound_nodes": [[["activation_274", 0, 0, {}], ["mixed9_1", 0, 0, {}], ["concatenate_6", 0, 0, {}], ["activation_282", 0, 0, {}]]], "config": {"axis": 3, "name": "mixed10", "trainable": true}}, {"class_name": "GlobalAveragePooling2D", "name": "global_average_pooling2d_1", "inbound_nodes": [[["mixed10", 0, 0, {}]]], "config": {"name": "global_average_pooling2d_1", "data_format": "channels_last", "trainable": true}}, {"class_name": "Dense", "name": "dense_1", "inbound_nodes": [[["global_average_pooling2d_1", 0, 0, {}]]], "config": {"use_bias": true, "bias_constraint": null, "bias_regularizer": null, "units": 1024, "kernel_initializer": {"class_name": "VarianceScaling", "config": {"mode": "fan_avg", "seed": null, "scale": 1.0, "distribution": "uniform"}}, "trainable": true, "kernel_regularizer": null, "activation": "relu", "kernel_constraint": null, "bias_initializer": {"class_name": "Zeros", "config": {}}, "name": "dense_1", "activity_regularizer": null}}, {"class_name": "Dense", "name": "dense_2", "inbound_nodes": [[["dense_1", 0, 0, {}]]], "config": {"use_bias": true, "bias_constraint": null, "bias_regularizer": null, "units": 12, "kernel_initializer": {"class_name": "VarianceScaling", "config": {"mode": "fan_avg", "seed": null, "scale": 1.0, "distribution": "uniform"}}, "trainable": true, "kernel_regularizer": null, "activation": "softmax", "kernel_constraint": null, "bias_initializer": {"class_name": "Zeros", "config": {}}, "name": "dense_2", "activity_regularizer": null}}], "name": "model_1", "input_layers": [["input_3", 0, 0]], "output_layers": [["dense_2", 0, 0]]}}