{"keras_version": "2.1.3", "class_name": "Model", "backend": "theano", "config": {"output_layers": [["dense_2", 0, 0]], "input_layers": [["input_1", 0, 0]], "name": "model_1", "layers": [{"name": "input_1", "inbound_nodes": [], "class_name": "InputLayer", "config": {"name": "input_1", "batch_input_shape": [null, null, null, 3], "sparse": false, "dtype": "float32"}}, {"name": "conv2d_1", "inbound_nodes": [[["input_1", 0, 0, {}]]], "class_name": "Conv2D", "config": {"dilation_rate": [1, 1], "name": "conv2d_1", "bias_regularizer": null, "kernel_regularizer": null, "data_format": "channels_last", "trainable": false, "bias_constraint": null, "kernel_initializer": {"class_name": "VarianceScaling", "config": {"seed": null, "mode": "fan_avg", "scale": 1.0, "distribution": "uniform"}}, "kernel_constraint": null, "filters": 32, "padding": "valid", "strides": [2, 2], "activation": "linear", "use_bias": false, "bias_initializer": {"class_name": "Zeros", "config": {}}, "kernel_size": [3, 3], "activity_regularizer": null}}, {"name": "batch_normalization_1", "inbound_nodes": [[["conv2d_1", 0, 0, {}]]], "class_name": "BatchNormalization", "config": {"axis": 3, "name": "batch_normalization_1", "moving_mean_initializer": {"class_name": "Zeros", "config": {}}, "beta_initializer": {"class_name": "Zeros", "config": {}}, "moving_variance_initializer": {"class_name": "Ones", "config": {}}, "gamma_constraint": null, "epsilon": 0.001, "center": true, "momentum": 0.99, "gamma_regularizer": null, "beta_constraint": null, "trainable": false, "beta_regularizer": null, "gamma_initializer": {"class_name": "Ones", "config": {}}, "scale": false}}, {"name": "activation_1", "inbound_nodes": [[["batch_normalization_1", 0, 0, {}]]], "class_name": "Activation", "config": {"trainable": false, "name": "activation_1", "activation": "relu"}}, {"name": "conv2d_2", "inbound_nodes": [[["activation_1", 0, 0, {}]]], "class_name": "Conv2D", "config": {"dilation_rate": [1, 1], "name": "conv2d_2", "bias_regularizer": null, "kernel_regularizer": null, "data_format": "channels_last", "trainable": false, "bias_constraint": null, "kernel_initializer": {"class_name": "VarianceScaling", "config": {"seed": null, "mode": "fan_avg", "scale": 1.0, "distribution": "uniform"}}, "kernel_constraint": null, "filters": 32, "padding": "valid", "strides": [1, 1], "activation": "linear", "use_bias": false, "bias_initializer": {"class_name": "Zeros", "config": {}}, "kernel_size": [3, 3], "activity_regularizer": null}}, {"name": "batch_normalization_2", "inbound_nodes": [[["conv2d_2", 0, 0, {}]]], "class_name": "BatchNormalization", "config": {"axis": 3, "name": "batch_normalization_2", "moving_mean_initializer": {"class_name": "Zeros", "config": {}}, "beta_initializer": {"class_name": "Zeros", "config": {}}, "moving_variance_initializer": {"class_name": "Ones", "config": {}}, "gamma_constraint": null, "epsilon": 0.001, "center": true, "momentum": 0.99, "gamma_regularizer": null, "beta_constraint": null, "trainable": false, "beta_regularizer": null, "gamma_initializer": {"class_name": "Ones", "config": {}}, "scale": false}}, {"name": "activation_2", "inbound_nodes": [[["batch_normalization_2", 0, 0, {}]]], "class_name": "Activation", "config": {"trainable": false, "name": "activation_2", "activation": "relu"}}, {"name": "conv2d_3", "inbound_nodes": [[["activation_2", 0, 0, {}]]], "class_name": "Conv2D", "config": {"dilation_rate": [1, 1], "name": "conv2d_3", "bias_regularizer": null, "kernel_regularizer": null, "data_format": "channels_last", "trainable": false, "bias_constraint": null, "kernel_initializer": {"class_name": "VarianceScaling", "config": {"seed": null, "mode": "fan_avg", "scale": 1.0, "distribution": "uniform"}}, "kernel_constraint": null, "filters": 64, "padding": "same", "strides": [1, 1], "activation": "linear", "use_bias": false, "bias_initializer": {"class_name": "Zeros", "config": {}}, "kernel_size": [3, 3], "activity_regularizer": null}}, {"name": "batch_normalization_3", "inbound_nodes": [[["conv2d_3", 0, 0, {}]]], "class_name": "BatchNormalization", "config": {"axis": 3, "name": "batch_normalization_3", "moving_mean_initializer": {"class_name": "Zeros", "config": {}}, "beta_initializer": {"class_name": "Zeros", "config": {}}, "moving_variance_initializer": {"class_name": "Ones", "config": {}}, "gamma_constraint": null, "epsilon": 0.001, "center": true, "momentum": 0.99, "gamma_regularizer": null, "beta_constraint": null, "trainable": false, "beta_regularizer": null, "gamma_initializer": {"class_name": "Ones", "config": {}}, "scale": false}}, {"name": "activation_3", "inbound_nodes": [[["batch_normalization_3", 0, 0, {}]]], "class_name": "Activation", "config": {"trainable": false, "name": "activation_3", "activation": "relu"}}, {"name": "max_pooling2d_1", "inbound_nodes": [[["activation_3", 0, 0, {}]]], "class_name": "MaxPooling2D", "config": {"padding": "valid", "strides": [2, 2], "pool_size": [3, 3], "data_format": "channels_last", "trainable": false, "name": "max_pooling2d_1"}}, {"name": "conv2d_4", "inbound_nodes": [[["max_pooling2d_1", 0, 0, {}]]], "class_name": "Conv2D", "config": {"dilation_rate": [1, 1], "name": "conv2d_4", "bias_regularizer": null, "kernel_regularizer": null, "data_format": "channels_last", "trainable": false, "bias_constraint": null, "kernel_initializer": {"class_name": "VarianceScaling", "config": {"seed": null, "mode": "fan_avg", "scale": 1.0, "distribution": "uniform"}}, "kernel_constraint": null, "filters": 80, "padding": "valid", "strides": [1, 1], "activation": "linear", "use_bias": false, "bias_initializer": {"class_name": "Zeros", "config": {}}, "kernel_size": [1, 1], "activity_regularizer": null}}, {"name": "batch_normalization_4", "inbound_nodes": [[["conv2d_4", 0, 0, {}]]], "class_name": "BatchNormalization", "config": {"axis": 3, "name": "batch_normalization_4", "moving_mean_initializer": {"class_name": "Zeros", "config": {}}, "beta_initializer": {"class_name": "Zeros", "config": {}}, "moving_variance_initializer": {"class_name": "Ones", "config": {}}, "gamma_constraint": null, "epsilon": 0.001, "center": true, "momentum": 0.99, "gamma_regularizer": null, "beta_constraint": null, "trainable": false, "beta_regularizer": null, "gamma_initializer": {"class_name": "Ones", "config": {}}, "scale": false}}, {"name": "activation_4", "inbound_nodes": [[["batch_normalization_4", 0, 0, {}]]], "class_name": "Activation", "config": {"trainable": false, "name": "activation_4", "activation": "relu"}}, {"name": "conv2d_5", "inbound_nodes": [[["activation_4", 0, 0, {}]]], "class_name": "Conv2D", "config": {"dilation_rate": [1, 1], "name": "conv2d_5", "bias_regularizer": null, "kernel_regularizer": null, "data_format": "channels_last", "trainable": false, "bias_constraint": null, "kernel_initializer": {"class_name": "VarianceScaling", "config": {"seed": null, "mode": "fan_avg", "scale": 1.0, "distribution": "uniform"}}, "kernel_constraint": null, "filters": 192, "padding": "valid", "strides": [1, 1], "activation": "linear", "use_bias": false, "bias_initializer": {"class_name": "Zeros", "config": {}}, "kernel_size": [3, 3], "activity_regularizer": null}}, {"name": "batch_normalization_5", "inbound_nodes": [[["conv2d_5", 0, 0, {}]]], "class_name": "BatchNormalization", "config": {"axis": 3, "name": "batch_normalization_5", "moving_mean_initializer": {"class_name": "Zeros", "config": {}}, "beta_initializer": {"class_name": "Zeros", "config": {}}, "moving_variance_initializer": {"class_name": "Ones", "config": {}}, "gamma_constraint": null, "epsilon": 0.001, "center": true, "momentum": 0.99, "gamma_regularizer": null, "beta_constraint": null, "trainable": false, "beta_regularizer": null, "gamma_initializer": {"class_name": "Ones", "config": {}}, "scale": false}}, {"name": "activation_5", "inbound_nodes": [[["batch_normalization_5", 0, 0, {}]]], "class_name": "Activation", "config": {"trainable": false, "name": "activation_5", "activation": "relu"}}, {"name": "max_pooling2d_2", "inbound_nodes": [[["activation_5", 0, 0, {}]]], "class_name": "MaxPooling2D", "config": {"padding": "valid", "strides": [2, 2], "pool_size": [3, 3], "data_format": "channels_last", "trainable": false, "name": "max_pooling2d_2"}}, {"name": "conv2d_9", "inbound_nodes": [[["max_pooling2d_2", 0, 0, {}]]], "class_name": "Conv2D", "config": {"dilation_rate": [1, 1], "name": "conv2d_9", "bias_regularizer": null, "kernel_regularizer": null, "data_format": "channels_last", "trainable": false, "bias_constraint": null, "kernel_initializer": {"class_name": "VarianceScaling", "config": {"seed": null, "mode": "fan_avg", "scale": 1.0, "distribution": "uniform"}}, "kernel_constraint": null, "filters": 64, "padding": "same", "strides": [1, 1], "activation": "linear", "use_bias": false, "bias_initializer": {"class_name": "Zeros", "config": {}}, "kernel_size": [1, 1], "activity_regularizer": null}}, {"name": "batch_normalization_9", "inbound_nodes": [[["conv2d_9", 0, 0, {}]]], "class_name": "BatchNormalization", "config": {"axis": 3, "name": "batch_normalization_9", "moving_mean_initializer": {"class_name": "Zeros", "config": {}}, "beta_initializer": {"class_name": "Zeros", "config": {}}, "moving_variance_initializer": {"class_name": "Ones", "config": {}}, "gamma_constraint": null, "epsilon": 0.001, "center": true, "momentum": 0.99, "gamma_regularizer": null, "beta_constraint": null, "trainable": false, "beta_regularizer": null, "gamma_initializer": {"class_name": "Ones", "config": {}}, "scale": false}}, {"name": "activation_9", "inbound_nodes": [[["batch_normalization_9", 0, 0, {}]]], "class_name": "Activation", "config": {"trainable": false, "name": "activation_9", "activation": "relu"}}, {"name": "conv2d_7", "inbound_nodes": [[["max_pooling2d_2", 0, 0, {}]]], "class_name": "Conv2D", "config": {"dilation_rate": [1, 1], "name": "conv2d_7", "bias_regularizer": null, "kernel_regularizer": null, "data_format": "channels_last", "trainable": false, "bias_constraint": null, "kernel_initializer": {"class_name": "VarianceScaling", "config": {"seed": null, "mode": "fan_avg", "scale": 1.0, "distribution": "uniform"}}, "kernel_constraint": null, "filters": 48, "padding": "same", "strides": [1, 1], "activation": "linear", "use_bias": false, "bias_initializer": {"class_name": "Zeros", "config": {}}, "kernel_size": [1, 1], "activity_regularizer": null}}, {"name": "conv2d_10", "inbound_nodes": [[["activation_9", 0, 0, {}]]], "class_name": "Conv2D", "config": {"dilation_rate": [1, 1], "name": "conv2d_10", "bias_regularizer": null, "kernel_regularizer": null, "data_format": "channels_last", "trainable": false, "bias_constraint": null, "kernel_initializer": {"class_name": "VarianceScaling", "config": {"seed": null, "mode": "fan_avg", "scale": 1.0, "distribution": "uniform"}}, "kernel_constraint": null, "filters": 96, "padding": "same", "strides": [1, 1], "activation": "linear", "use_bias": false, "bias_initializer": {"class_name": "Zeros", "config": {}}, "kernel_size": [3, 3], "activity_regularizer": null}}, {"name": "batch_normalization_7", "inbound_nodes": [[["conv2d_7", 0, 0, {}]]], "class_name": "BatchNormalization", "config": {"axis": 3, "name": "batch_normalization_7", "moving_mean_initializer": {"class_name": "Zeros", "config": {}}, "beta_initializer": {"class_name": "Zeros", "config": {}}, "moving_variance_initializer": {"class_name": "Ones", "config": {}}, "gamma_constraint": null, "epsilon": 0.001, "center": true, "momentum": 0.99, "gamma_regularizer": null, "beta_constraint": null, "trainable": false, "beta_regularizer": null, "gamma_initializer": {"class_name": "Ones", "config": {}}, "scale": false}}, {"name": "batch_normalization_10", "inbound_nodes": [[["conv2d_10", 0, 0, {}]]], "class_name": "BatchNormalization", "config": {"axis": 3, "name": "batch_normalization_10", "moving_mean_initializer": {"class_name": "Zeros", "config": {}}, "beta_initializer": {"class_name": "Zeros", "config": {}}, "moving_variance_initializer": {"class_name": "Ones", "config": {}}, "gamma_constraint": null, "epsilon": 0.001, "center": true, "momentum": 0.99, "gamma_regularizer": null, "beta_constraint": null, "trainable": false, "beta_regularizer": null, "gamma_initializer": {"class_name": "Ones", "config": {}}, "scale": false}}, {"name": "activation_7", "inbound_nodes": [[["batch_normalization_7", 0, 0, {}]]], "class_name": "Activation", "config": {"trainable": false, "name": "activation_7", "activation": "relu"}}, {"name": "activation_10", "inbound_nodes": [[["batch_normalization_10", 0, 0, {}]]], "class_name": "Activation", "config": {"trainable": false, "name": "activation_10", "activation": "relu"}}, {"name": "average_pooling2d_1", "inbound_nodes": [[["max_pooling2d_2", 0, 0, {}]]], "class_name": "AveragePooling2D", "config": {"padding": "same", "strides": [1, 1], "pool_size": [3, 3], "data_format": "channels_last", "trainable": false, "name": "average_pooling2d_1"}}, {"name": "conv2d_6", "inbound_nodes": [[["max_pooling2d_2", 0, 0, {}]]], "class_name": "Conv2D", "config": {"dilation_rate": [1, 1], "name": "conv2d_6", "bias_regularizer": null, "kernel_regularizer": null, "data_format": "channels_last", "trainable": false, "bias_constraint": null, "kernel_initializer": {"class_name": "VarianceScaling", "config": {"seed": null, "mode": "fan_avg", "scale": 1.0, "distribution": "uniform"}}, "kernel_constraint": null, "filters": 64, "padding": "same", "strides": [1, 1], "activation": "linear", "use_bias": false, "bias_initializer": {"class_name": "Zeros", "config": {}}, "kernel_size": [1, 1], "activity_regularizer": null}}, {"name": "conv2d_8", "inbound_nodes": [[["activation_7", 0, 0, {}]]], "class_name": "Conv2D", "config": {"dilation_rate": [1, 1], "name": "conv2d_8", "bias_regularizer": null, "kernel_regularizer": null, "data_format": "channels_last", "trainable": false, "bias_constraint": null, "kernel_initializer": {"class_name": "VarianceScaling", "config": {"seed": null, "mode": "fan_avg", "scale": 1.0, "distribution": "uniform"}}, "kernel_constraint": null, "filters": 64, "padding": "same", "strides": [1, 1], "activation": "linear", "use_bias": false, "bias_initializer": {"class_name": "Zeros", "config": {}}, "kernel_size": [5, 5], "activity_regularizer": null}}, {"name": "conv2d_11", "inbound_nodes": [[["activation_10", 0, 0, {}]]], "class_name": "Conv2D", "config": {"dilation_rate": [1, 1], "name": "conv2d_11", "bias_regularizer": null, "kernel_regularizer": null, "data_format": "channels_last", "trainable": false, "bias_constraint": null, "kernel_initializer": {"class_name": "VarianceScaling", "config": {"seed": null, "mode": "fan_avg", "scale": 1.0, "distribution": "uniform"}}, "kernel_constraint": null, "filters": 96, "padding": "same", "strides": [1, 1], "activation": "linear", "use_bias": false, "bias_initializer": {"class_name": "Zeros", "config": {}}, "kernel_size": [3, 3], "activity_regularizer": null}}, {"name": "conv2d_12", "inbound_nodes": [[["average_pooling2d_1", 0, 0, {}]]], "class_name": "Conv2D", "config": {"dilation_rate": [1, 1], "name": "conv2d_12", "bias_regularizer": null, "kernel_regularizer": null, "data_format": "channels_last", "trainable": false, "bias_constraint": null, "kernel_initializer": {"class_name": "VarianceScaling", "config": {"seed": null, "mode": "fan_avg", "scale": 1.0, "distribution": "uniform"}}, "kernel_constraint": null, "filters": 32, "padding": "same", "strides": [1, 1], "activation": "linear", "use_bias": false, "bias_initializer": {"class_name": "Zeros", "config": {}}, "kernel_size": [1, 1], "activity_regularizer": null}}, {"name": "batch_normalization_6", "inbound_nodes": [[["conv2d_6", 0, 0, {}]]], "class_name": "BatchNormalization", "config": {"axis": 3, "name": "batch_normalization_6", "moving_mean_initializer": {"class_name": "Zeros", "config": {}}, "beta_initializer": {"class_name": "Zeros", "config": {}}, "moving_variance_initializer": {"class_name": "Ones", "config": {}}, "gamma_constraint": null, "epsilon": 0.001, "center": true, "momentum": 0.99, "gamma_regularizer": null, "beta_constraint": null, "trainable": false, "beta_regularizer": null, "gamma_initializer": {"class_name": "Ones", "config": {}}, "scale": false}}, {"name": "batch_normalization_8", "inbound_nodes": [[["conv2d_8", 0, 0, {}]]], "class_name": "BatchNormalization", "config": {"axis": 3, "name": "batch_normalization_8", "moving_mean_initializer": {"class_name": "Zeros", "config": {}}, "beta_initializer": {"class_name": "Zeros", "config": {}}, "moving_variance_initializer": {"class_name": "Ones", "config": {}}, "gamma_constraint": null, "epsilon": 0.001, "center": true, "momentum": 0.99, "gamma_regularizer": null, "beta_constraint": null, "trainable": false, "beta_regularizer": null, "gamma_initializer": {"class_name": "Ones", "config": {}}, "scale": false}}, {"name": "batch_normalization_11", "inbound_nodes": [[["conv2d_11", 0, 0, {}]]], "class_name": "BatchNormalization", "config": {"axis": 3, "name": "batch_normalization_11", "moving_mean_initializer": {"class_name": "Zeros", "config": {}}, "beta_initializer": {"class_name": "Zeros", "config": {}}, "moving_variance_initializer": {"class_name": "Ones", "config": {}}, "gamma_constraint": null, "epsilon": 0.001, "center": true, "momentum": 0.99, "gamma_regularizer": null, "beta_constraint": null, "trainable": false, "beta_regularizer": null, "gamma_initializer": {"class_name": "Ones", "config": {}}, "scale": false}}, {"name": "batch_normalization_12", "inbound_nodes": [[["conv2d_12", 0, 0, {}]]], "class_name": "BatchNormalization", "config": {"axis": 3, "name": "batch_normalization_12", "moving_mean_initializer": {"class_name": "Zeros", "config": {}}, "beta_initializer": {"class_name": "Zeros", "config": {}}, "moving_variance_initializer": {"class_name": "Ones", "config": {}}, "gamma_constraint": null, "epsilon": 0.001, "center": true, "momentum": 0.99, "gamma_regularizer": null, "beta_constraint": null, "trainable": false, "beta_regularizer": null, "gamma_initializer": {"class_name": "Ones", "config": {}}, "scale": false}}, {"name": "activation_6", "inbound_nodes": [[["batch_normalization_6", 0, 0, {}]]], "class_name": "Activation", "config": {"trainable": false, "name": "activation_6", "activation": "relu"}}, {"name": "activation_8", "inbound_nodes": [[["batch_normalization_8", 0, 0, {}]]], "class_name": "Activation", "config": {"trainable": false, "name": "activation_8", "activation": "relu"}}, {"name": "activation_11", "inbound_nodes": [[["batch_normalization_11", 0, 0, {}]]], "class_name": "Activation", "config": {"trainable": false, "name": "activation_11", "activation": "relu"}}, {"name": "activation_12", "inbound_nodes": [[["batch_normalization_12", 0, 0, {}]]], "class_name": "Activation", "config": {"trainable": false, "name": "activation_12", "activation": "relu"}}, {"name": "mixed0", "inbound_nodes": [[["activation_6", 0, 0, {}], ["activation_8", 0, 0, {}], ["activation_11", 0, 0, {}], ["activation_12", 0, 0, {}]]], "class_name": "Concatenate", "config": {"trainable": false, "axis": 3, "name": "mixed0"}}, {"name": "conv2d_16", "inbound_nodes": [[["mixed0", 0, 0, {}]]], "class_name": "Conv2D", "config": {"dilation_rate": [1, 1], "name": "conv2d_16", "bias_regularizer": null, "kernel_regularizer": null, "data_format": "channels_last", "trainable": false, "bias_constraint": null, "kernel_initializer": {"class_name": "VarianceScaling", "config": {"seed": null, "mode": "fan_avg", "scale": 1.0, "distribution": "uniform"}}, "kernel_constraint": null, "filters": 64, "padding": "same", "strides": [1, 1], "activation": "linear", "use_bias": false, "bias_initializer": {"class_name": "Zeros", "config": {}}, "kernel_size": [1, 1], "activity_regularizer": null}}, {"name": "batch_normalization_16", "inbound_nodes": [[["conv2d_16", 0, 0, {}]]], "class_name": "BatchNormalization", "config": {"axis": 3, "name": "batch_normalization_16", "moving_mean_initializer": {"class_name": "Zeros", "config": {}}, "beta_initializer": {"class_name": "Zeros", "config": {}}, "moving_variance_initializer": {"class_name": "Ones", "config": {}}, "gamma_constraint": null, "epsilon": 0.001, "center": true, "momentum": 0.99, "gamma_regularizer": null, "beta_constraint": null, "trainable": false, "beta_regularizer": null, "gamma_initializer": {"class_name": "Ones", "config": {}}, "scale": false}}, {"name": "activation_16", "inbound_nodes": [[["batch_normalization_16", 0, 0, {}]]], "class_name": "Activation", "config": {"trainable": false, "name": "activation_16", "activation": "relu"}}, {"name": "conv2d_14", "inbound_nodes": [[["mixed0", 0, 0, {}]]], "class_name": "Conv2D", "config": {"dilation_rate": [1, 1], "name": "conv2d_14", "bias_regularizer": null, "kernel_regularizer": null, "data_format": "channels_last", "trainable": false, "bias_constraint": null, "kernel_initializer": {"class_name": "VarianceScaling", "config": {"seed": null, "mode": "fan_avg", "scale": 1.0, "distribution": "uniform"}}, "kernel_constraint": null, "filters": 48, "padding": "same", "strides": [1, 1], "activation": "linear", "use_bias": false, "bias_initializer": {"class_name": "Zeros", "config": {}}, "kernel_size": [1, 1], "activity_regularizer": null}}, {"name": "conv2d_17", "inbound_nodes": [[["activation_16", 0, 0, {}]]], "class_name": "Conv2D", "config": {"dilation_rate": [1, 1], "name": "conv2d_17", "bias_regularizer": null, "kernel_regularizer": null, "data_format": "channels_last", "trainable": false, "bias_constraint": null, "kernel_initializer": {"class_name": "VarianceScaling", "config": {"seed": null, "mode": "fan_avg", "scale": 1.0, "distribution": "uniform"}}, "kernel_constraint": null, "filters": 96, "padding": "same", "strides": [1, 1], "activation": "linear", "use_bias": false, "bias_initializer": {"class_name": "Zeros", "config": {}}, "kernel_size": [3, 3], "activity_regularizer": null}}, {"name": "batch_normalization_14", "inbound_nodes": [[["conv2d_14", 0, 0, {}]]], "class_name": "BatchNormalization", "config": {"axis": 3, "name": "batch_normalization_14", "moving_mean_initializer": {"class_name": "Zeros", "config": {}}, "beta_initializer": {"class_name": "Zeros", "config": {}}, "moving_variance_initializer": {"class_name": "Ones", "config": {}}, "gamma_constraint": null, "epsilon": 0.001, "center": true, "momentum": 0.99, "gamma_regularizer": null, "beta_constraint": null, "trainable": false, "beta_regularizer": null, "gamma_initializer": {"class_name": "Ones", "config": {}}, "scale": false}}, {"name": "batch_normalization_17", "inbound_nodes": [[["conv2d_17", 0, 0, {}]]], "class_name": "BatchNormalization", "config": {"axis": 3, "name": "batch_normalization_17", "moving_mean_initializer": {"class_name": "Zeros", "config": {}}, "beta_initializer": {"class_name": "Zeros", "config": {}}, "moving_variance_initializer": {"class_name": "Ones", "config": {}}, "gamma_constraint": null, "epsilon": 0.001, "center": true, "momentum": 0.99, "gamma_regularizer": null, "beta_constraint": null, "trainable": false, "beta_regularizer": null, "gamma_initializer": {"class_name": "Ones", "config": {}}, "scale": false}}, {"name": "activation_14", "inbound_nodes": [[["batch_normalization_14", 0, 0, {}]]], "class_name": "Activation", "config": {"trainable": false, "name": "activation_14", "activation": "relu"}}, {"name": "activation_17", "inbound_nodes": [[["batch_normalization_17", 0, 0, {}]]], "class_name": "Activation", "config": {"trainable": false, "name": "activation_17", "activation": "relu"}}, {"name": "average_pooling2d_2", "inbound_nodes": [[["mixed0", 0, 0, {}]]], "class_name": "AveragePooling2D", "config": {"padding": "same", "strides": [1, 1], "pool_size": [3, 3], "data_format": "channels_last", "trainable": false, "name": "average_pooling2d_2"}}, {"name": "conv2d_13", "inbound_nodes": [[["mixed0", 0, 0, {}]]], "class_name": "Conv2D", "config": {"dilation_rate": [1, 1], "name": "conv2d_13", "bias_regularizer": null, "kernel_regularizer": null, "data_format": "channels_last", "trainable": false, "bias_constraint": null, "kernel_initializer": {"class_name": "VarianceScaling", "config": {"seed": null, "mode": "fan_avg", "scale": 1.0, "distribution": "uniform"}}, "kernel_constraint": null, "filters": 64, "padding": "same", "strides": [1, 1], "activation": "linear", "use_bias": false, "bias_initializer": {"class_name": "Zeros", "config": {}}, "kernel_size": [1, 1], "activity_regularizer": null}}, {"name": "conv2d_15", "inbound_nodes": [[["activation_14", 0, 0, {}]]], "class_name": "Conv2D", "config": {"dilation_rate": [1, 1], "name": "conv2d_15", "bias_regularizer": null, "kernel_regularizer": null, "data_format": "channels_last", "trainable": false, "bias_constraint": null, "kernel_initializer": {"class_name": "VarianceScaling", "config": {"seed": null, "mode": "fan_avg", "scale": 1.0, "distribution": "uniform"}}, "kernel_constraint": null, "filters": 64, "padding": "same", "strides": [1, 1], "activation": "linear", "use_bias": false, "bias_initializer": {"class_name": "Zeros", "config": {}}, "kernel_size": [5, 5], "activity_regularizer": null}}, {"name": "conv2d_18", "inbound_nodes": [[["activation_17", 0, 0, {}]]], "class_name": "Conv2D", "config": {"dilation_rate": [1, 1], "name": "conv2d_18", "bias_regularizer": null, "kernel_regularizer": null, "data_format": "channels_last", "trainable": false, "bias_constraint": null, "kernel_initializer": {"class_name": "VarianceScaling", "config": {"seed": null, "mode": "fan_avg", "scale": 1.0, "distribution": "uniform"}}, "kernel_constraint": null, "filters": 96, "padding": "same", "strides": [1, 1], "activation": "linear", "use_bias": false, "bias_initializer": {"class_name": "Zeros", "config": {}}, "kernel_size": [3, 3], "activity_regularizer": null}}, {"name": "conv2d_19", "inbound_nodes": [[["average_pooling2d_2", 0, 0, {}]]], "class_name": "Conv2D", "config": {"dilation_rate": [1, 1], "name": "conv2d_19", "bias_regularizer": null, "kernel_regularizer": null, "data_format": "channels_last", "trainable": false, "bias_constraint": null, "kernel_initializer": {"class_name": "VarianceScaling", "config": {"seed": null, "mode": "fan_avg", "scale": 1.0, "distribution": "uniform"}}, "kernel_constraint": null, "filters": 64, "padding": "same", "strides": [1, 1], "activation": "linear", "use_bias": false, "bias_initializer": {"class_name": "Zeros", "config": {}}, "kernel_size": [1, 1], "activity_regularizer": null}}, {"name": "batch_normalization_13", "inbound_nodes": [[["conv2d_13", 0, 0, {}]]], "class_name": "BatchNormalization", "config": {"axis": 3, "name": "batch_normalization_13", "moving_mean_initializer": {"class_name": "Zeros", "config": {}}, "beta_initializer": {"class_name": "Zeros", "config": {}}, "moving_variance_initializer": {"class_name": "Ones", "config": {}}, "gamma_constraint": null, "epsilon": 0.001, "center": true, "momentum": 0.99, "gamma_regularizer": null, "beta_constraint": null, "trainable": false, "beta_regularizer": null, "gamma_initializer": {"class_name": "Ones", "config": {}}, "scale": false}}, {"name": "batch_normalization_15", "inbound_nodes": [[["conv2d_15", 0, 0, {}]]], "class_name": "BatchNormalization", "config": {"axis": 3, "name": "batch_normalization_15", "moving_mean_initializer": {"class_name": "Zeros", "config": {}}, "beta_initializer": {"class_name": "Zeros", "config": {}}, "moving_variance_initializer": {"class_name": "Ones", "config": {}}, "gamma_constraint": null, "epsilon": 0.001, "center": true, "momentum": 0.99, "gamma_regularizer": null, "beta_constraint": null, "trainable": false, "beta_regularizer": null, "gamma_initializer": {"class_name": "Ones", "config": {}}, "scale": false}}, {"name": "batch_normalization_18", "inbound_nodes": [[["conv2d_18", 0, 0, {}]]], "class_name": "BatchNormalization", "config": {"axis": 3, "name": "batch_normalization_18", "moving_mean_initializer": {"class_name": "Zeros", "config": {}}, "beta_initializer": {"class_name": "Zeros", "config": {}}, "moving_variance_initializer": {"class_name": "Ones", "config": {}}, "gamma_constraint": null, "epsilon": 0.001, "center": true, "momentum": 0.99, "gamma_regularizer": null, "beta_constraint": null, "trainable": false, "beta_regularizer": null, "gamma_initializer": {"class_name": "Ones", "config": {}}, "scale": false}}, {"name": "batch_normalization_19", "inbound_nodes": [[["conv2d_19", 0, 0, {}]]], "class_name": "BatchNormalization", "config": {"axis": 3, "name": "batch_normalization_19", "moving_mean_initializer": {"class_name": "Zeros", "config": {}}, "beta_initializer": {"class_name": "Zeros", "config": {}}, "moving_variance_initializer": {"class_name": "Ones", "config": {}}, "gamma_constraint": null, "epsilon": 0.001, "center": true, "momentum": 0.99, "gamma_regularizer": null, "beta_constraint": null, "trainable": false, "beta_regularizer": null, "gamma_initializer": {"class_name": "Ones", "config": {}}, "scale": false}}, {"name": "activation_13", "inbound_nodes": [[["batch_normalization_13", 0, 0, {}]]], "class_name": "Activation", "config": {"trainable": false, "name": "activation_13", "activation": "relu"}}, {"name": "activation_15", "inbound_nodes": [[["batch_normalization_15", 0, 0, {}]]], "class_name": "Activation", "config": {"trainable": false, "name": "activation_15", "activation": "relu"}}, {"name": "activation_18", "inbound_nodes": [[["batch_normalization_18", 0, 0, {}]]], "class_name": "Activation", "config": {"trainable": false, "name": "activation_18", "activation": "relu"}}, {"name": "activation_19", "inbound_nodes": [[["batch_normalization_19", 0, 0, {}]]], "class_name": "Activation", "config": {"trainable": false, "name": "activation_19", "activation": "relu"}}, {"name": "mixed1", "inbound_nodes": [[["activation_13", 0, 0, {}], ["activation_15", 0, 0, {}], ["activation_18", 0, 0, {}], ["activation_19", 0, 0, {}]]], "class_name": "Concatenate", "config": {"trainable": false, "axis": 3, "name": "mixed1"}}, {"name": "conv2d_23", "inbound_nodes": [[["mixed1", 0, 0, {}]]], "class_name": "Conv2D", "config": {"dilation_rate": [1, 1], "name": "conv2d_23", "bias_regularizer": null, "kernel_regularizer": null, "data_format": "channels_last", "trainable": false, "bias_constraint": null, "kernel_initializer": {"class_name": "VarianceScaling", "config": {"seed": null, "mode": "fan_avg", "scale": 1.0, "distribution": "uniform"}}, "kernel_constraint": null, "filters": 64, "padding": "same", "strides": [1, 1], "activation": "linear", "use_bias": false, "bias_initializer": {"class_name": "Zeros", "config": {}}, "kernel_size": [1, 1], "activity_regularizer": null}}, {"name": "batch_normalization_23", "inbound_nodes": [[["conv2d_23", 0, 0, {}]]], "class_name": "BatchNormalization", "config": {"axis": 3, "name": "batch_normalization_23", "moving_mean_initializer": {"class_name": "Zeros", "config": {}}, "beta_initializer": {"class_name": "Zeros", "config": {}}, "moving_variance_initializer": {"class_name": "Ones", "config": {}}, "gamma_constraint": null, "epsilon": 0.001, "center": true, "momentum": 0.99, "gamma_regularizer": null, "beta_constraint": null, "trainable": false, "beta_regularizer": null, "gamma_initializer": {"class_name": "Ones", "config": {}}, "scale": false}}, {"name": "activation_23", "inbound_nodes": [[["batch_normalization_23", 0, 0, {}]]], "class_name": "Activation", "config": {"trainable": false, "name": "activation_23", "activation": "relu"}}, {"name": "conv2d_21", "inbound_nodes": [[["mixed1", 0, 0, {}]]], "class_name": "Conv2D", "config": {"dilation_rate": [1, 1], "name": "conv2d_21", "bias_regularizer": null, "kernel_regularizer": null, "data_format": "channels_last", "trainable": false, "bias_constraint": null, "kernel_initializer": {"class_name": "VarianceScaling", "config": {"seed": null, "mode": "fan_avg", "scale": 1.0, "distribution": "uniform"}}, "kernel_constraint": null, "filters": 48, "padding": "same", "strides": [1, 1], "activation": "linear", "use_bias": false, "bias_initializer": {"class_name": "Zeros", "config": {}}, "kernel_size": [1, 1], "activity_regularizer": null}}, {"name": "conv2d_24", "inbound_nodes": [[["activation_23", 0, 0, {}]]], "class_name": "Conv2D", "config": {"dilation_rate": [1, 1], "name": "conv2d_24", "bias_regularizer": null, "kernel_regularizer": null, "data_format": "channels_last", "trainable": false, "bias_constraint": null, "kernel_initializer": {"class_name": "VarianceScaling", "config": {"seed": null, "mode": "fan_avg", "scale": 1.0, "distribution": "uniform"}}, "kernel_constraint": null, "filters": 96, "padding": "same", "strides": [1, 1], "activation": "linear", "use_bias": false, "bias_initializer": {"class_name": "Zeros", "config": {}}, "kernel_size": [3, 3], "activity_regularizer": null}}, {"name": "batch_normalization_21", "inbound_nodes": [[["conv2d_21", 0, 0, {}]]], "class_name": "BatchNormalization", "config": {"axis": 3, "name": "batch_normalization_21", "moving_mean_initializer": {"class_name": "Zeros", "config": {}}, "beta_initializer": {"class_name": "Zeros", "config": {}}, "moving_variance_initializer": {"class_name": "Ones", "config": {}}, "gamma_constraint": null, "epsilon": 0.001, "center": true, "momentum": 0.99, "gamma_regularizer": null, "beta_constraint": null, "trainable": false, "beta_regularizer": null, "gamma_initializer": {"class_name": "Ones", "config": {}}, "scale": false}}, {"name": "batch_normalization_24", "inbound_nodes": [[["conv2d_24", 0, 0, {}]]], "class_name": "BatchNormalization", "config": {"axis": 3, "name": "batch_normalization_24", "moving_mean_initializer": {"class_name": "Zeros", "config": {}}, "beta_initializer": {"class_name": "Zeros", "config": {}}, "moving_variance_initializer": {"class_name": "Ones", "config": {}}, "gamma_constraint": null, "epsilon": 0.001, "center": true, "momentum": 0.99, "gamma_regularizer": null, "beta_constraint": null, "trainable": false, "beta_regularizer": null, "gamma_initializer": {"class_name": "Ones", "config": {}}, "scale": false}}, {"name": "activation_21", "inbound_nodes": [[["batch_normalization_21", 0, 0, {}]]], "class_name": "Activation", "config": {"trainable": false, "name": "activation_21", "activation": "relu"}}, {"name": "activation_24", "inbound_nodes": [[["batch_normalization_24", 0, 0, {}]]], "class_name": "Activation", "config": {"trainable": false, "name": "activation_24", "activation": "relu"}}, {"name": "average_pooling2d_3", "inbound_nodes": [[["mixed1", 0, 0, {}]]], "class_name": "AveragePooling2D", "config": {"padding": "same", "strides": [1, 1], "pool_size": [3, 3], "data_format": "channels_last", "trainable": false, "name": "average_pooling2d_3"}}, {"name": "conv2d_20", "inbound_nodes": [[["mixed1", 0, 0, {}]]], "class_name": "Conv2D", "config": {"dilation_rate": [1, 1], "name": "conv2d_20", "bias_regularizer": null, "kernel_regularizer": null, "data_format": "channels_last", "trainable": false, "bias_constraint": null, "kernel_initializer": {"class_name": "VarianceScaling", "config": {"seed": null, "mode": "fan_avg", "scale": 1.0, "distribution": "uniform"}}, "kernel_constraint": null, "filters": 64, "padding": "same", "strides": [1, 1], "activation": "linear", "use_bias": false, "bias_initializer": {"class_name": "Zeros", "config": {}}, "kernel_size": [1, 1], "activity_regularizer": null}}, {"name": "conv2d_22", "inbound_nodes": [[["activation_21", 0, 0, {}]]], "class_name": "Conv2D", "config": {"dilation_rate": [1, 1], "name": "conv2d_22", "bias_regularizer": null, "kernel_regularizer": null, "data_format": "channels_last", "trainable": false, "bias_constraint": null, "kernel_initializer": {"class_name": "VarianceScaling", "config": {"seed": null, "mode": "fan_avg", "scale": 1.0, "distribution": "uniform"}}, "kernel_constraint": null, "filters": 64, "padding": "same", "strides": [1, 1], "activation": "linear", "use_bias": false, "bias_initializer": {"class_name": "Zeros", "config": {}}, "kernel_size": [5, 5], "activity_regularizer": null}}, {"name": "conv2d_25", "inbound_nodes": [[["activation_24", 0, 0, {}]]], "class_name": "Conv2D", "config": {"dilation_rate": [1, 1], "name": "conv2d_25", "bias_regularizer": null, "kernel_regularizer": null, "data_format": "channels_last", "trainable": false, "bias_constraint": null, "kernel_initializer": {"class_name": "VarianceScaling", "config": {"seed": null, "mode": "fan_avg", "scale": 1.0, "distribution": "uniform"}}, "kernel_constraint": null, "filters": 96, "padding": "same", "strides": [1, 1], "activation": "linear", "use_bias": false, "bias_initializer": {"class_name": "Zeros", "config": {}}, "kernel_size": [3, 3], "activity_regularizer": null}}, {"name": "conv2d_26", "inbound_nodes": [[["average_pooling2d_3", 0, 0, {}]]], "class_name": "Conv2D", "config": {"dilation_rate": [1, 1], "name": "conv2d_26", "bias_regularizer": null, "kernel_regularizer": null, "data_format": "channels_last", "trainable": false, "bias_constraint": null, "kernel_initializer": {"class_name": "VarianceScaling", "config": {"seed": null, "mode": "fan_avg", "scale": 1.0, "distribution": "uniform"}}, "kernel_constraint": null, "filters": 64, "padding": "same", "strides": [1, 1], "activation": "linear", "use_bias": false, "bias_initializer": {"class_name": "Zeros", "config": {}}, "kernel_size": [1, 1], "activity_regularizer": null}}, {"name": "batch_normalization_20", "inbound_nodes": [[["conv2d_20", 0, 0, {}]]], "class_name": "BatchNormalization", "config": {"axis": 3, "name": "batch_normalization_20", "moving_mean_initializer": {"class_name": "Zeros", "config": {}}, "beta_initializer": {"class_name": "Zeros", "config": {}}, "moving_variance_initializer": {"class_name": "Ones", "config": {}}, "gamma_constraint": null, "epsilon": 0.001, "center": true, "momentum": 0.99, "gamma_regularizer": null, "beta_constraint": null, "trainable": false, "beta_regularizer": null, "gamma_initializer": {"class_name": "Ones", "config": {}}, "scale": false}}, {"name": "batch_normalization_22", "inbound_nodes": [[["conv2d_22", 0, 0, {}]]], "class_name": "BatchNormalization", "config": {"axis": 3, "name": "batch_normalization_22", "moving_mean_initializer": {"class_name": "Zeros", "config": {}}, "beta_initializer": {"class_name": "Zeros", "config": {}}, "moving_variance_initializer": {"class_name": "Ones", "config": {}}, "gamma_constraint": null, "epsilon": 0.001, "center": true, "momentum": 0.99, "gamma_regularizer": null, "beta_constraint": null, "trainable": false, "beta_regularizer": null, "gamma_initializer": {"class_name": "Ones", "config": {}}, "scale": false}}, {"name": "batch_normalization_25", "inbound_nodes": [[["conv2d_25", 0, 0, {}]]], "class_name": "BatchNormalization", "config": {"axis": 3, "name": "batch_normalization_25", "moving_mean_initializer": {"class_name": "Zeros", "config": {}}, "beta_initializer": {"class_name": "Zeros", "config": {}}, "moving_variance_initializer": {"class_name": "Ones", "config": {}}, "gamma_constraint": null, "epsilon": 0.001, "center": true, "momentum": 0.99, "gamma_regularizer": null, "beta_constraint": null, "trainable": false, "beta_regularizer": null, "gamma_initializer": {"class_name": "Ones", "config": {}}, "scale": false}}, {"name": "batch_normalization_26", "inbound_nodes": [[["conv2d_26", 0, 0, {}]]], "class_name": "BatchNormalization", "config": {"axis": 3, "name": "batch_normalization_26", "moving_mean_initializer": {"class_name": "Zeros", "config": {}}, "beta_initializer": {"class_name": "Zeros", "config": {}}, "moving_variance_initializer": {"class_name": "Ones", "config": {}}, "gamma_constraint": null, "epsilon": 0.001, "center": true, "momentum": 0.99, "gamma_regularizer": null, "beta_constraint": null, "trainable": false, "beta_regularizer": null, "gamma_initializer": {"class_name": "Ones", "config": {}}, "scale": false}}, {"name": "activation_20", "inbound_nodes": [[["batch_normalization_20", 0, 0, {}]]], "class_name": "Activation", "config": {"trainable": false, "name": "activation_20", "activation": "relu"}}, {"name": "activation_22", "inbound_nodes": [[["batch_normalization_22", 0, 0, {}]]], "class_name": "Activation", "config": {"trainable": false, "name": "activation_22", "activation": "relu"}}, {"name": "activation_25", "inbound_nodes": [[["batch_normalization_25", 0, 0, {}]]], "class_name": "Activation", "config": {"trainable": false, "name": "activation_25", "activation": "relu"}}, {"name": "activation_26", "inbound_nodes": [[["batch_normalization_26", 0, 0, {}]]], "class_name": "Activation", "config": {"trainable": false, "name": "activation_26", "activation": "relu"}}, {"name": "mixed2", "inbound_nodes": [[["activation_20", 0, 0, {}], ["activation_22", 0, 0, {}], ["activation_25", 0, 0, {}], ["activation_26", 0, 0, {}]]], "class_name": "Concatenate", "config": {"trainable": false, "axis": 3, "name": "mixed2"}}, {"name": "conv2d_28", "inbound_nodes": [[["mixed2", 0, 0, {}]]], "class_name": "Conv2D", "config": {"dilation_rate": [1, 1], "name": "conv2d_28", "bias_regularizer": null, "kernel_regularizer": null, "data_format": "channels_last", "trainable": false, "bias_constraint": null, "kernel_initializer": {"class_name": "VarianceScaling", "config": {"seed": null, "mode": "fan_avg", "scale": 1.0, "distribution": "uniform"}}, "kernel_constraint": null, "filters": 64, "padding": "same", "strides": [1, 1], "activation": "linear", "use_bias": false, "bias_initializer": {"class_name": "Zeros", "config": {}}, "kernel_size": [1, 1], "activity_regularizer": null}}, {"name": "batch_normalization_28", "inbound_nodes": [[["conv2d_28", 0, 0, {}]]], "class_name": "BatchNormalization", "config": {"axis": 3, "name": "batch_normalization_28", "moving_mean_initializer": {"class_name": "Zeros", "config": {}}, "beta_initializer": {"class_name": "Zeros", "config": {}}, "moving_variance_initializer": {"class_name": "Ones", "config": {}}, "gamma_constraint": null, "epsilon": 0.001, "center": true, "momentum": 0.99, "gamma_regularizer": null, "beta_constraint": null, "trainable": false, "beta_regularizer": null, "gamma_initializer": {"class_name": "Ones", "config": {}}, "scale": false}}, {"name": "activation_28", "inbound_nodes": [[["batch_normalization_28", 0, 0, {}]]], "class_name": "Activation", "config": {"trainable": false, "name": "activation_28", "activation": "relu"}}, {"name": "conv2d_29", "inbound_nodes": [[["activation_28", 0, 0, {}]]], "class_name": "Conv2D", "config": {"dilation_rate": [1, 1], "name": "conv2d_29", "bias_regularizer": null, "kernel_regularizer": null, "data_format": "channels_last", "trainable": false, "bias_constraint": null, "kernel_initializer": {"class_name": "VarianceScaling", "config": {"seed": null, "mode": "fan_avg", "scale": 1.0, "distribution": "uniform"}}, "kernel_constraint": null, "filters": 96, "padding": "same", "strides": [1, 1], "activation": "linear", "use_bias": false, "bias_initializer": {"class_name": "Zeros", "config": {}}, "kernel_size": [3, 3], "activity_regularizer": null}}, {"name": "batch_normalization_29", "inbound_nodes": [[["conv2d_29", 0, 0, {}]]], "class_name": "BatchNormalization", "config": {"axis": 3, "name": "batch_normalization_29", "moving_mean_initializer": {"class_name": "Zeros", "config": {}}, "beta_initializer": {"class_name": "Zeros", "config": {}}, "moving_variance_initializer": {"class_name": "Ones", "config": {}}, "gamma_constraint": null, "epsilon": 0.001, "center": true, "momentum": 0.99, "gamma_regularizer": null, "beta_constraint": null, "trainable": false, "beta_regularizer": null, "gamma_initializer": {"class_name": "Ones", "config": {}}, "scale": false}}, {"name": "activation_29", "inbound_nodes": [[["batch_normalization_29", 0, 0, {}]]], "class_name": "Activation", "config": {"trainable": false, "name": "activation_29", "activation": "relu"}}, {"name": "conv2d_27", "inbound_nodes": [[["mixed2", 0, 0, {}]]], "class_name": "Conv2D", "config": {"dilation_rate": [1, 1], "name": "conv2d_27", "bias_regularizer": null, "kernel_regularizer": null, "data_format": "channels_last", "trainable": false, "bias_constraint": null, "kernel_initializer": {"class_name": "VarianceScaling", "config": {"seed": null, "mode": "fan_avg", "scale": 1.0, "distribution": "uniform"}}, "kernel_constraint": null, "filters": 384, "padding": "valid", "strides": [2, 2], "activation": "linear", "use_bias": false, "bias_initializer": {"class_name": "Zeros", "config": {}}, "kernel_size": [3, 3], "activity_regularizer": null}}, {"name": "conv2d_30", "inbound_nodes": [[["activation_29", 0, 0, {}]]], "class_name": "Conv2D", "config": {"dilation_rate": [1, 1], "name": "conv2d_30", "bias_regularizer": null, "kernel_regularizer": null, "data_format": "channels_last", "trainable": false, "bias_constraint": null, "kernel_initializer": {"class_name": "VarianceScaling", "config": {"seed": null, "mode": "fan_avg", "scale": 1.0, "distribution": "uniform"}}, "kernel_constraint": null, "filters": 96, "padding": "valid", "strides": [2, 2], "activation": "linear", "use_bias": false, "bias_initializer": {"class_name": "Zeros", "config": {}}, "kernel_size": [3, 3], "activity_regularizer": null}}, {"name": "batch_normalization_27", "inbound_nodes": [[["conv2d_27", 0, 0, {}]]], "class_name": "BatchNormalization", "config": {"axis": 3, "name": "batch_normalization_27", "moving_mean_initializer": {"class_name": "Zeros", "config": {}}, "beta_initializer": {"class_name": "Zeros", "config": {}}, "moving_variance_initializer": {"class_name": "Ones", "config": {}}, "gamma_constraint": null, "epsilon": 0.001, "center": true, "momentum": 0.99, "gamma_regularizer": null, "beta_constraint": null, "trainable": false, "beta_regularizer": null, "gamma_initializer": {"class_name": "Ones", "config": {}}, "scale": false}}, {"name": "batch_normalization_30", "inbound_nodes": [[["conv2d_30", 0, 0, {}]]], "class_name": "BatchNormalization", "config": {"axis": 3, "name": "batch_normalization_30", "moving_mean_initializer": {"class_name": "Zeros", "config": {}}, "beta_initializer": {"class_name": "Zeros", "config": {}}, "moving_variance_initializer": {"class_name": "Ones", "config": {}}, "gamma_constraint": null, "epsilon": 0.001, "center": true, "momentum": 0.99, "gamma_regularizer": null, "beta_constraint": null, "trainable": false, "beta_regularizer": null, "gamma_initializer": {"class_name": "Ones", "config": {}}, "scale": false}}, {"name": "activation_27", "inbound_nodes": [[["batch_normalization_27", 0, 0, {}]]], "class_name": "Activation", "config": {"trainable": false, "name": "activation_27", "activation": "relu"}}, {"name": "activation_30", "inbound_nodes": [[["batch_normalization_30", 0, 0, {}]]], "class_name": "Activation", "config": {"trainable": false, "name": "activation_30", "activation": "relu"}}, {"name": "max_pooling2d_3", "inbound_nodes": [[["mixed2", 0, 0, {}]]], "class_name": "MaxPooling2D", "config": {"padding": "valid", "strides": [2, 2], "pool_size": [3, 3], "data_format": "channels_last", "trainable": false, "name": "max_pooling2d_3"}}, {"name": "mixed3", "inbound_nodes": [[["activation_27", 0, 0, {}], ["activation_30", 0, 0, {}], ["max_pooling2d_3", 0, 0, {}]]], "class_name": "Concatenate", "config": {"trainable": false, "axis": 3, "name": "mixed3"}}, {"name": "conv2d_35", "inbound_nodes": [[["mixed3", 0, 0, {}]]], "class_name": "Conv2D", "config": {"dilation_rate": [1, 1], "name": "conv2d_35", "bias_regularizer": null, "kernel_regularizer": null, "data_format": "channels_last", "trainable": false, "bias_constraint": null, "kernel_initializer": {"class_name": "VarianceScaling", "config": {"seed": null, "mode": "fan_avg", "scale": 1.0, "distribution": "uniform"}}, "kernel_constraint": null, "filters": 128, "padding": "same", "strides": [1, 1], "activation": "linear", "use_bias": false, "bias_initializer": {"class_name": "Zeros", "config": {}}, "kernel_size": [1, 1], "activity_regularizer": null}}, {"name": "batch_normalization_35", "inbound_nodes": [[["conv2d_35", 0, 0, {}]]], "class_name": "BatchNormalization", "config": {"axis": 3, "name": "batch_normalization_35", "moving_mean_initializer": {"class_name": "Zeros", "config": {}}, "beta_initializer": {"class_name": "Zeros", "config": {}}, "moving_variance_initializer": {"class_name": "Ones", "config": {}}, "gamma_constraint": null, "epsilon": 0.001, "center": true, "momentum": 0.99, "gamma_regularizer": null, "beta_constraint": null, "trainable": false, "beta_regularizer": null, "gamma_initializer": {"class_name": "Ones", "config": {}}, "scale": false}}, {"name": "activation_35", "inbound_nodes": [[["batch_normalization_35", 0, 0, {}]]], "class_name": "Activation", "config": {"trainable": false, "name": "activation_35", "activation": "relu"}}, {"name": "conv2d_36", "inbound_nodes": [[["activation_35", 0, 0, {}]]], "class_name": "Conv2D", "config": {"dilation_rate": [1, 1], "name": "conv2d_36", "bias_regularizer": null, "kernel_regularizer": null, "data_format": "channels_last", "trainable": false, "bias_constraint": null, "kernel_initializer": {"class_name": "VarianceScaling", "config": {"seed": null, "mode": "fan_avg", "scale": 1.0, "distribution": "uniform"}}, "kernel_constraint": null, "filters": 128, "padding": "same", "strides": [1, 1], "activation": "linear", "use_bias": false, "bias_initializer": {"class_name": "Zeros", "config": {}}, "kernel_size": [7, 1], "activity_regularizer": null}}, {"name": "batch_normalization_36", "inbound_nodes": [[["conv2d_36", 0, 0, {}]]], "class_name": "BatchNormalization", "config": {"axis": 3, "name": "batch_normalization_36", "moving_mean_initializer": {"class_name": "Zeros", "config": {}}, "beta_initializer": {"class_name": "Zeros", "config": {}}, "moving_variance_initializer": {"class_name": "Ones", "config": {}}, "gamma_constraint": null, "epsilon": 0.001, "center": true, "momentum": 0.99, "gamma_regularizer": null, "beta_constraint": null, "trainable": false, "beta_regularizer": null, "gamma_initializer": {"class_name": "Ones", "config": {}}, "scale": false}}, {"name": "activation_36", "inbound_nodes": [[["batch_normalization_36", 0, 0, {}]]], "class_name": "Activation", "config": {"trainable": false, "name": "activation_36", "activation": "relu"}}, {"name": "conv2d_32", "inbound_nodes": [[["mixed3", 0, 0, {}]]], "class_name": "Conv2D", "config": {"dilation_rate": [1, 1], "name": "conv2d_32", "bias_regularizer": null, "kernel_regularizer": null, "data_format": "channels_last", "trainable": false, "bias_constraint": null, "kernel_initializer": {"class_name": "VarianceScaling", "config": {"seed": null, "mode": "fan_avg", "scale": 1.0, "distribution": "uniform"}}, "kernel_constraint": null, "filters": 128, "padding": "same", "strides": [1, 1], "activation": "linear", "use_bias": false, "bias_initializer": {"class_name": "Zeros", "config": {}}, "kernel_size": [1, 1], "activity_regularizer": null}}, {"name": "conv2d_37", "inbound_nodes": [[["activation_36", 0, 0, {}]]], "class_name": "Conv2D", "config": {"dilation_rate": [1, 1], "name": "conv2d_37", "bias_regularizer": null, "kernel_regularizer": null, "data_format": "channels_last", "trainable": false, "bias_constraint": null, "kernel_initializer": {"class_name": "VarianceScaling", "config": {"seed": null, "mode": "fan_avg", "scale": 1.0, "distribution": "uniform"}}, "kernel_constraint": null, "filters": 128, "padding": "same", "strides": [1, 1], "activation": "linear", "use_bias": false, "bias_initializer": {"class_name": "Zeros", "config": {}}, "kernel_size": [1, 7], "activity_regularizer": null}}, {"name": "batch_normalization_32", "inbound_nodes": [[["conv2d_32", 0, 0, {}]]], "class_name": "BatchNormalization", "config": {"axis": 3, "name": "batch_normalization_32", "moving_mean_initializer": {"class_name": "Zeros", "config": {}}, "beta_initializer": {"class_name": "Zeros", "config": {}}, "moving_variance_initializer": {"class_name": "Ones", "config": {}}, "gamma_constraint": null, "epsilon": 0.001, "center": true, "momentum": 0.99, "gamma_regularizer": null, "beta_constraint": null, "trainable": false, "beta_regularizer": null, "gamma_initializer": {"class_name": "Ones", "config": {}}, "scale": false}}, {"name": "batch_normalization_37", "inbound_nodes": [[["conv2d_37", 0, 0, {}]]], "class_name": "BatchNormalization", "config": {"axis": 3, "name": "batch_normalization_37", "moving_mean_initializer": {"class_name": "Zeros", "config": {}}, "beta_initializer": {"class_name": "Zeros", "config": {}}, "moving_variance_initializer": {"class_name": "Ones", "config": {}}, "gamma_constraint": null, "epsilon": 0.001, "center": true, "momentum": 0.99, "gamma_regularizer": null, "beta_constraint": null, "trainable": false, "beta_regularizer": null, "gamma_initializer": {"class_name": "Ones", "config": {}}, "scale": false}}, {"name": "activation_32", "inbound_nodes": [[["batch_normalization_32", 0, 0, {}]]], "class_name": "Activation", "config": {"trainable": false, "name": "activation_32", "activation": "relu"}}, {"name": "activation_37", "inbound_nodes": [[["batch_normalization_37", 0, 0, {}]]], "class_name": "Activation", "config": {"trainable": false, "name": "activation_37", "activation": "relu"}}, {"name": "conv2d_33", "inbound_nodes": [[["activation_32", 0, 0, {}]]], "class_name": "Conv2D", "config": {"dilation_rate": [1, 1], "name": "conv2d_33", "bias_regularizer": null, "kernel_regularizer": null, "data_format": "channels_last", "trainable": false, "bias_constraint": null, "kernel_initializer": {"class_name": "VarianceScaling", "config": {"seed": null, "mode": "fan_avg", "scale": 1.0, "distribution": "uniform"}}, "kernel_constraint": null, "filters": 128, "padding": "same", "strides": [1, 1], "activation": "linear", "use_bias": false, "bias_initializer": {"class_name": "Zeros", "config": {}}, "kernel_size": [1, 7], "activity_regularizer": null}}, {"name": "conv2d_38", "inbound_nodes": [[["activation_37", 0, 0, {}]]], "class_name": "Conv2D", "config": {"dilation_rate": [1, 1], "name": "conv2d_38", "bias_regularizer": null, "kernel_regularizer": null, "data_format": "channels_last", "trainable": false, "bias_constraint": null, "kernel_initializer": {"class_name": "VarianceScaling", "config": {"seed": null, "mode": "fan_avg", "scale": 1.0, "distribution": "uniform"}}, "kernel_constraint": null, "filters": 128, "padding": "same", "strides": [1, 1], "activation": "linear", "use_bias": false, "bias_initializer": {"class_name": "Zeros", "config": {}}, "kernel_size": [7, 1], "activity_regularizer": null}}, {"name": "batch_normalization_33", "inbound_nodes": [[["conv2d_33", 0, 0, {}]]], "class_name": "BatchNormalization", "config": {"axis": 3, "name": "batch_normalization_33", "moving_mean_initializer": {"class_name": "Zeros", "config": {}}, "beta_initializer": {"class_name": "Zeros", "config": {}}, "moving_variance_initializer": {"class_name": "Ones", "config": {}}, "gamma_constraint": null, "epsilon": 0.001, "center": true, "momentum": 0.99, "gamma_regularizer": null, "beta_constraint": null, "trainable": false, "beta_regularizer": null, "gamma_initializer": {"class_name": "Ones", "config": {}}, "scale": false}}, {"name": "batch_normalization_38", "inbound_nodes": [[["conv2d_38", 0, 0, {}]]], "class_name": "BatchNormalization", "config": {"axis": 3, "name": "batch_normalization_38", "moving_mean_initializer": {"class_name": "Zeros", "config": {}}, "beta_initializer": {"class_name": "Zeros", "config": {}}, "moving_variance_initializer": {"class_name": "Ones", "config": {}}, "gamma_constraint": null, "epsilon": 0.001, "center": true, "momentum": 0.99, "gamma_regularizer": null, "beta_constraint": null, "trainable": false, "beta_regularizer": null, "gamma_initializer": {"class_name": "Ones", "config": {}}, "scale": false}}, {"name": "activation_33", "inbound_nodes": [[["batch_normalization_33", 0, 0, {}]]], "class_name": "Activation", "config": {"trainable": false, "name": "activation_33", "activation": "relu"}}, {"name": "activation_38", "inbound_nodes": [[["batch_normalization_38", 0, 0, {}]]], "class_name": "Activation", "config": {"trainable": false, "name": "activation_38", "activation": "relu"}}, {"name": "average_pooling2d_4", "inbound_nodes": [[["mixed3", 0, 0, {}]]], "class_name": "AveragePooling2D", "config": {"padding": "same", "strides": [1, 1], "pool_size": [3, 3], "data_format": "channels_last", "trainable": false, "name": "average_pooling2d_4"}}, {"name": "conv2d_31", "inbound_nodes": [[["mixed3", 0, 0, {}]]], "class_name": "Conv2D", "config": {"dilation_rate": [1, 1], "name": "conv2d_31", "bias_regularizer": null, "kernel_regularizer": null, "data_format": "channels_last", "trainable": false, "bias_constraint": null, "kernel_initializer": {"class_name": "VarianceScaling", "config": {"seed": null, "mode": "fan_avg", "scale": 1.0, "distribution": "uniform"}}, "kernel_constraint": null, "filters": 192, "padding": "same", "strides": [1, 1], "activation": "linear", "use_bias": false, "bias_initializer": {"class_name": "Zeros", "config": {}}, "kernel_size": [1, 1], "activity_regularizer": null}}, {"name": "conv2d_34", "inbound_nodes": [[["activation_33", 0, 0, {}]]], "class_name": "Conv2D", "config": {"dilation_rate": [1, 1], "name": "conv2d_34", "bias_regularizer": null, "kernel_regularizer": null, "data_format": "channels_last", "trainable": false, "bias_constraint": null, "kernel_initializer": {"class_name": "VarianceScaling", "config": {"seed": null, "mode": "fan_avg", "scale": 1.0, "distribution": "uniform"}}, "kernel_constraint": null, "filters": 192, "padding": "same", "strides": [1, 1], "activation": "linear", "use_bias": false, "bias_initializer": {"class_name": "Zeros", "config": {}}, "kernel_size": [7, 1], "activity_regularizer": null}}, {"name": "conv2d_39", "inbound_nodes": [[["activation_38", 0, 0, {}]]], "class_name": "Conv2D", "config": {"dilation_rate": [1, 1], "name": "conv2d_39", "bias_regularizer": null, "kernel_regularizer": null, "data_format": "channels_last", "trainable": false, "bias_constraint": null, "kernel_initializer": {"class_name": "VarianceScaling", "config": {"seed": null, "mode": "fan_avg", "scale": 1.0, "distribution": "uniform"}}, "kernel_constraint": null, "filters": 192, "padding": "same", "strides": [1, 1], "activation": "linear", "use_bias": false, "bias_initializer": {"class_name": "Zeros", "config": {}}, "kernel_size": [1, 7], "activity_regularizer": null}}, {"name": "conv2d_40", "inbound_nodes": [[["average_pooling2d_4", 0, 0, {}]]], "class_name": "Conv2D", "config": {"dilation_rate": [1, 1], "name": "conv2d_40", "bias_regularizer": null, "kernel_regularizer": null, "data_format": "channels_last", "trainable": false, "bias_constraint": null, "kernel_initializer": {"class_name": "VarianceScaling", "config": {"seed": null, "mode": "fan_avg", "scale": 1.0, "distribution": "uniform"}}, "kernel_constraint": null, "filters": 192, "padding": "same", "strides": [1, 1], "activation": "linear", "use_bias": false, "bias_initializer": {"class_name": "Zeros", "config": {}}, "kernel_size": [1, 1], "activity_regularizer": null}}, {"name": "batch_normalization_31", "inbound_nodes": [[["conv2d_31", 0, 0, {}]]], "class_name": "BatchNormalization", "config": {"axis": 3, "name": "batch_normalization_31", "moving_mean_initializer": {"class_name": "Zeros", "config": {}}, "beta_initializer": {"class_name": "Zeros", "config": {}}, "moving_variance_initializer": {"class_name": "Ones", "config": {}}, "gamma_constraint": null, "epsilon": 0.001, "center": true, "momentum": 0.99, "gamma_regularizer": null, "beta_constraint": null, "trainable": false, "beta_regularizer": null, "gamma_initializer": {"class_name": "Ones", "config": {}}, "scale": false}}, {"name": "batch_normalization_34", "inbound_nodes": [[["conv2d_34", 0, 0, {}]]], "class_name": "BatchNormalization", "config": {"axis": 3, "name": "batch_normalization_34", "moving_mean_initializer": {"class_name": "Zeros", "config": {}}, "beta_initializer": {"class_name": "Zeros", "config": {}}, "moving_variance_initializer": {"class_name": "Ones", "config": {}}, "gamma_constraint": null, "epsilon": 0.001, "center": true, "momentum": 0.99, "gamma_regularizer": null, "beta_constraint": null, "trainable": false, "beta_regularizer": null, "gamma_initializer": {"class_name": "Ones", "config": {}}, "scale": false}}, {"name": "batch_normalization_39", "inbound_nodes": [[["conv2d_39", 0, 0, {}]]], "class_name": "BatchNormalization", "config": {"axis": 3, "name": "batch_normalization_39", "moving_mean_initializer": {"class_name": "Zeros", "config": {}}, "beta_initializer": {"class_name": "Zeros", "config": {}}, "moving_variance_initializer": {"class_name": "Ones", "config": {}}, "gamma_constraint": null, "epsilon": 0.001, "center": true, "momentum": 0.99, "gamma_regularizer": null, "beta_constraint": null, "trainable": false, "beta_regularizer": null, "gamma_initializer": {"class_name": "Ones", "config": {}}, "scale": false}}, {"name": "batch_normalization_40", "inbound_nodes": [[["conv2d_40", 0, 0, {}]]], "class_name": "BatchNormalization", "config": {"axis": 3, "name": "batch_normalization_40", "moving_mean_initializer": {"class_name": "Zeros", "config": {}}, "beta_initializer": {"class_name": "Zeros", "config": {}}, "moving_variance_initializer": {"class_name": "Ones", "config": {}}, "gamma_constraint": null, "epsilon": 0.001, "center": true, "momentum": 0.99, "gamma_regularizer": null, "beta_constraint": null, "trainable": false, "beta_regularizer": null, "gamma_initializer": {"class_name": "Ones", "config": {}}, "scale": false}}, {"name": "activation_31", "inbound_nodes": [[["batch_normalization_31", 0, 0, {}]]], "class_name": "Activation", "config": {"trainable": false, "name": "activation_31", "activation": "relu"}}, {"name": "activation_34", "inbound_nodes": [[["batch_normalization_34", 0, 0, {}]]], "class_name": "Activation", "config": {"trainable": false, "name": "activation_34", "activation": "relu"}}, {"name": "activation_39", "inbound_nodes": [[["batch_normalization_39", 0, 0, {}]]], "class_name": "Activation", "config": {"trainable": false, "name": "activation_39", "activation": "relu"}}, {"name": "activation_40", "inbound_nodes": [[["batch_normalization_40", 0, 0, {}]]], "class_name": "Activation", "config": {"trainable": false, "name": "activation_40", "activation": "relu"}}, {"name": "mixed4", "inbound_nodes": [[["activation_31", 0, 0, {}], ["activation_34", 0, 0, {}], ["activation_39", 0, 0, {}], ["activation_40", 0, 0, {}]]], "class_name": "Concatenate", "config": {"trainable": false, "axis": 3, "name": "mixed4"}}, {"name": "conv2d_45", "inbound_nodes": [[["mixed4", 0, 0, {}]]], "class_name": "Conv2D", "config": {"dilation_rate": [1, 1], "name": "conv2d_45", "bias_regularizer": null, "kernel_regularizer": null, "data_format": "channels_last", "trainable": false, "bias_constraint": null, "kernel_initializer": {"class_name": "VarianceScaling", "config": {"seed": null, "mode": "fan_avg", "scale": 1.0, "distribution": "uniform"}}, "kernel_constraint": null, "filters": 160, "padding": "same", "strides": [1, 1], "activation": "linear", "use_bias": false, "bias_initializer": {"class_name": "Zeros", "config": {}}, "kernel_size": [1, 1], "activity_regularizer": null}}, {"name": "batch_normalization_45", "inbound_nodes": [[["conv2d_45", 0, 0, {}]]], "class_name": "BatchNormalization", "config": {"axis": 3, "name": "batch_normalization_45", "moving_mean_initializer": {"class_name": "Zeros", "config": {}}, "beta_initializer": {"class_name": "Zeros", "config": {}}, "moving_variance_initializer": {"class_name": "Ones", "config": {}}, "gamma_constraint": null, "epsilon": 0.001, "center": true, "momentum": 0.99, "gamma_regularizer": null, "beta_constraint": null, "trainable": false, "beta_regularizer": null, "gamma_initializer": {"class_name": "Ones", "config": {}}, "scale": false}}, {"name": "activation_45", "inbound_nodes": [[["batch_normalization_45", 0, 0, {}]]], "class_name": "Activation", "config": {"trainable": false, "name": "activation_45", "activation": "relu"}}, {"name": "conv2d_46", "inbound_nodes": [[["activation_45", 0, 0, {}]]], "class_name": "Conv2D", "config": {"dilation_rate": [1, 1], "name": "conv2d_46", "bias_regularizer": null, "kernel_regularizer": null, "data_format": "channels_last", "trainable": false, "bias_constraint": null, "kernel_initializer": {"class_name": "VarianceScaling", "config": {"seed": null, "mode": "fan_avg", "scale": 1.0, "distribution": "uniform"}}, "kernel_constraint": null, "filters": 160, "padding": "same", "strides": [1, 1], "activation": "linear", "use_bias": false, "bias_initializer": {"class_name": "Zeros", "config": {}}, "kernel_size": [7, 1], "activity_regularizer": null}}, {"name": "batch_normalization_46", "inbound_nodes": [[["conv2d_46", 0, 0, {}]]], "class_name": "BatchNormalization", "config": {"axis": 3, "name": "batch_normalization_46", "moving_mean_initializer": {"class_name": "Zeros", "config": {}}, "beta_initializer": {"class_name": "Zeros", "config": {}}, "moving_variance_initializer": {"class_name": "Ones", "config": {}}, "gamma_constraint": null, "epsilon": 0.001, "center": true, "momentum": 0.99, "gamma_regularizer": null, "beta_constraint": null, "trainable": false, "beta_regularizer": null, "gamma_initializer": {"class_name": "Ones", "config": {}}, "scale": false}}, {"name": "activation_46", "inbound_nodes": [[["batch_normalization_46", 0, 0, {}]]], "class_name": "Activation", "config": {"trainable": false, "name": "activation_46", "activation": "relu"}}, {"name": "conv2d_42", "inbound_nodes": [[["mixed4", 0, 0, {}]]], "class_name": "Conv2D", "config": {"dilation_rate": [1, 1], "name": "conv2d_42", "bias_regularizer": null, "kernel_regularizer": null, "data_format": "channels_last", "trainable": false, "bias_constraint": null, "kernel_initializer": {"class_name": "VarianceScaling", "config": {"seed": null, "mode": "fan_avg", "scale": 1.0, "distribution": "uniform"}}, "kernel_constraint": null, "filters": 160, "padding": "same", "strides": [1, 1], "activation": "linear", "use_bias": false, "bias_initializer": {"class_name": "Zeros", "config": {}}, "kernel_size": [1, 1], "activity_regularizer": null}}, {"name": "conv2d_47", "inbound_nodes": [[["activation_46", 0, 0, {}]]], "class_name": "Conv2D", "config": {"dilation_rate": [1, 1], "name": "conv2d_47", "bias_regularizer": null, "kernel_regularizer": null, "data_format": "channels_last", "trainable": false, "bias_constraint": null, "kernel_initializer": {"class_name": "VarianceScaling", "config": {"seed": null, "mode": "fan_avg", "scale": 1.0, "distribution": "uniform"}}, "kernel_constraint": null, "filters": 160, "padding": "same", "strides": [1, 1], "activation": "linear", "use_bias": false, "bias_initializer": {"class_name": "Zeros", "config": {}}, "kernel_size": [1, 7], "activity_regularizer": null}}, {"name": "batch_normalization_42", "inbound_nodes": [[["conv2d_42", 0, 0, {}]]], "class_name": "BatchNormalization", "config": {"axis": 3, "name": "batch_normalization_42", "moving_mean_initializer": {"class_name": "Zeros", "config": {}}, "beta_initializer": {"class_name": "Zeros", "config": {}}, "moving_variance_initializer": {"class_name": "Ones", "config": {}}, "gamma_constraint": null, "epsilon": 0.001, "center": true, "momentum": 0.99, "gamma_regularizer": null, "beta_constraint": null, "trainable": false, "beta_regularizer": null, "gamma_initializer": {"class_name": "Ones", "config": {}}, "scale": false}}, {"name": "batch_normalization_47", "inbound_nodes": [[["conv2d_47", 0, 0, {}]]], "class_name": "BatchNormalization", "config": {"axis": 3, "name": "batch_normalization_47", "moving_mean_initializer": {"class_name": "Zeros", "config": {}}, "beta_initializer": {"class_name": "Zeros", "config": {}}, "moving_variance_initializer": {"class_name": "Ones", "config": {}}, "gamma_constraint": null, "epsilon": 0.001, "center": true, "momentum": 0.99, "gamma_regularizer": null, "beta_constraint": null, "trainable": false, "beta_regularizer": null, "gamma_initializer": {"class_name": "Ones", "config": {}}, "scale": false}}, {"name": "activation_42", "inbound_nodes": [[["batch_normalization_42", 0, 0, {}]]], "class_name": "Activation", "config": {"trainable": false, "name": "activation_42", "activation": "relu"}}, {"name": "activation_47", "inbound_nodes": [[["batch_normalization_47", 0, 0, {}]]], "class_name": "Activation", "config": {"trainable": false, "name": "activation_47", "activation": "relu"}}, {"name": "conv2d_43", "inbound_nodes": [[["activation_42", 0, 0, {}]]], "class_name": "Conv2D", "config": {"dilation_rate": [1, 1], "name": "conv2d_43", "bias_regularizer": null, "kernel_regularizer": null, "data_format": "channels_last", "trainable": false, "bias_constraint": null, "kernel_initializer": {"class_name": "VarianceScaling", "config": {"seed": null, "mode": "fan_avg", "scale": 1.0, "distribution": "uniform"}}, "kernel_constraint": null, "filters": 160, "padding": "same", "strides": [1, 1], "activation": "linear", "use_bias": false, "bias_initializer": {"class_name": "Zeros", "config": {}}, "kernel_size": [1, 7], "activity_regularizer": null}}, {"name": "conv2d_48", "inbound_nodes": [[["activation_47", 0, 0, {}]]], "class_name": "Conv2D", "config": {"dilation_rate": [1, 1], "name": "conv2d_48", "bias_regularizer": null, "kernel_regularizer": null, "data_format": "channels_last", "trainable": false, "bias_constraint": null, "kernel_initializer": {"class_name": "VarianceScaling", "config": {"seed": null, "mode": "fan_avg", "scale": 1.0, "distribution": "uniform"}}, "kernel_constraint": null, "filters": 160, "padding": "same", "strides": [1, 1], "activation": "linear", "use_bias": false, "bias_initializer": {"class_name": "Zeros", "config": {}}, "kernel_size": [7, 1], "activity_regularizer": null}}, {"name": "batch_normalization_43", "inbound_nodes": [[["conv2d_43", 0, 0, {}]]], "class_name": "BatchNormalization", "config": {"axis": 3, "name": "batch_normalization_43", "moving_mean_initializer": {"class_name": "Zeros", "config": {}}, "beta_initializer": {"class_name": "Zeros", "config": {}}, "moving_variance_initializer": {"class_name": "Ones", "config": {}}, "gamma_constraint": null, "epsilon": 0.001, "center": true, "momentum": 0.99, "gamma_regularizer": null, "beta_constraint": null, "trainable": false, "beta_regularizer": null, "gamma_initializer": {"class_name": "Ones", "config": {}}, "scale": false}}, {"name": "batch_normalization_48", "inbound_nodes": [[["conv2d_48", 0, 0, {}]]], "class_name": "BatchNormalization", "config": {"axis": 3, "name": "batch_normalization_48", "moving_mean_initializer": {"class_name": "Zeros", "config": {}}, "beta_initializer": {"class_name": "Zeros", "config": {}}, "moving_variance_initializer": {"class_name": "Ones", "config": {}}, "gamma_constraint": null, "epsilon": 0.001, "center": true, "momentum": 0.99, "gamma_regularizer": null, "beta_constraint": null, "trainable": false, "beta_regularizer": null, "gamma_initializer": {"class_name": "Ones", "config": {}}, "scale": false}}, {"name": "activation_43", "inbound_nodes": [[["batch_normalization_43", 0, 0, {}]]], "class_name": "Activation", "config": {"trainable": false, "name": "activation_43", "activation": "relu"}}, {"name": "activation_48", "inbound_nodes": [[["batch_normalization_48", 0, 0, {}]]], "class_name": "Activation", "config": {"trainable": false, "name": "activation_48", "activation": "relu"}}, {"name": "average_pooling2d_5", "inbound_nodes": [[["mixed4", 0, 0, {}]]], "class_name": "AveragePooling2D", "config": {"padding": "same", "strides": [1, 1], "pool_size": [3, 3], "data_format": "channels_last", "trainable": false, "name": "average_pooling2d_5"}}, {"name": "conv2d_41", "inbound_nodes": [[["mixed4", 0, 0, {}]]], "class_name": "Conv2D", "config": {"dilation_rate": [1, 1], "name": "conv2d_41", "bias_regularizer": null, "kernel_regularizer": null, "data_format": "channels_last", "trainable": false, "bias_constraint": null, "kernel_initializer": {"class_name": "VarianceScaling", "config": {"seed": null, "mode": "fan_avg", "scale": 1.0, "distribution": "uniform"}}, "kernel_constraint": null, "filters": 192, "padding": "same", "strides": [1, 1], "activation": "linear", "use_bias": false, "bias_initializer": {"class_name": "Zeros", "config": {}}, "kernel_size": [1, 1], "activity_regularizer": null}}, {"name": "conv2d_44", "inbound_nodes": [[["activation_43", 0, 0, {}]]], "class_name": "Conv2D", "config": {"dilation_rate": [1, 1], "name": "conv2d_44", "bias_regularizer": null, "kernel_regularizer": null, "data_format": "channels_last", "trainable": false, "bias_constraint": null, "kernel_initializer": {"class_name": "VarianceScaling", "config": {"seed": null, "mode": "fan_avg", "scale": 1.0, "distribution": "uniform"}}, "kernel_constraint": null, "filters": 192, "padding": "same", "strides": [1, 1], "activation": "linear", "use_bias": false, "bias_initializer": {"class_name": "Zeros", "config": {}}, "kernel_size": [7, 1], "activity_regularizer": null}}, {"name": "conv2d_49", "inbound_nodes": [[["activation_48", 0, 0, {}]]], "class_name": "Conv2D", "config": {"dilation_rate": [1, 1], "name": "conv2d_49", "bias_regularizer": null, "kernel_regularizer": null, "data_format": "channels_last", "trainable": false, "bias_constraint": null, "kernel_initializer": {"class_name": "VarianceScaling", "config": {"seed": null, "mode": "fan_avg", "scale": 1.0, "distribution": "uniform"}}, "kernel_constraint": null, "filters": 192, "padding": "same", "strides": [1, 1], "activation": "linear", "use_bias": false, "bias_initializer": {"class_name": "Zeros", "config": {}}, "kernel_size": [1, 7], "activity_regularizer": null}}, {"name": "conv2d_50", "inbound_nodes": [[["average_pooling2d_5", 0, 0, {}]]], "class_name": "Conv2D", "config": {"dilation_rate": [1, 1], "name": "conv2d_50", "bias_regularizer": null, "kernel_regularizer": null, "data_format": "channels_last", "trainable": false, "bias_constraint": null, "kernel_initializer": {"class_name": "VarianceScaling", "config": {"seed": null, "mode": "fan_avg", "scale": 1.0, "distribution": "uniform"}}, "kernel_constraint": null, "filters": 192, "padding": "same", "strides": [1, 1], "activation": "linear", "use_bias": false, "bias_initializer": {"class_name": "Zeros", "config": {}}, "kernel_size": [1, 1], "activity_regularizer": null}}, {"name": "batch_normalization_41", "inbound_nodes": [[["conv2d_41", 0, 0, {}]]], "class_name": "BatchNormalization", "config": {"axis": 3, "name": "batch_normalization_41", "moving_mean_initializer": {"class_name": "Zeros", "config": {}}, "beta_initializer": {"class_name": "Zeros", "config": {}}, "moving_variance_initializer": {"class_name": "Ones", "config": {}}, "gamma_constraint": null, "epsilon": 0.001, "center": true, "momentum": 0.99, "gamma_regularizer": null, "beta_constraint": null, "trainable": false, "beta_regularizer": null, "gamma_initializer": {"class_name": "Ones", "config": {}}, "scale": false}}, {"name": "batch_normalization_44", "inbound_nodes": [[["conv2d_44", 0, 0, {}]]], "class_name": "BatchNormalization", "config": {"axis": 3, "name": "batch_normalization_44", "moving_mean_initializer": {"class_name": "Zeros", "config": {}}, "beta_initializer": {"class_name": "Zeros", "config": {}}, "moving_variance_initializer": {"class_name": "Ones", "config": {}}, "gamma_constraint": null, "epsilon": 0.001, "center": true, "momentum": 0.99, "gamma_regularizer": null, "beta_constraint": null, "trainable": false, "beta_regularizer": null, "gamma_initializer": {"class_name": "Ones", "config": {}}, "scale": false}}, {"name": "batch_normalization_49", "inbound_nodes": [[["conv2d_49", 0, 0, {}]]], "class_name": "BatchNormalization", "config": {"axis": 3, "name": "batch_normalization_49", "moving_mean_initializer": {"class_name": "Zeros", "config": {}}, "beta_initializer": {"class_name": "Zeros", "config": {}}, "moving_variance_initializer": {"class_name": "Ones", "config": {}}, "gamma_constraint": null, "epsilon": 0.001, "center": true, "momentum": 0.99, "gamma_regularizer": null, "beta_constraint": null, "trainable": false, "beta_regularizer": null, "gamma_initializer": {"class_name": "Ones", "config": {}}, "scale": false}}, {"name": "batch_normalization_50", "inbound_nodes": [[["conv2d_50", 0, 0, {}]]], "class_name": "BatchNormalization", "config": {"axis": 3, "name": "batch_normalization_50", "moving_mean_initializer": {"class_name": "Zeros", "config": {}}, "beta_initializer": {"class_name": "Zeros", "config": {}}, "moving_variance_initializer": {"class_name": "Ones", "config": {}}, "gamma_constraint": null, "epsilon": 0.001, "center": true, "momentum": 0.99, "gamma_regularizer": null, "beta_constraint": null, "trainable": false, "beta_regularizer": null, "gamma_initializer": {"class_name": "Ones", "config": {}}, "scale": false}}, {"name": "activation_41", "inbound_nodes": [[["batch_normalization_41", 0, 0, {}]]], "class_name": "Activation", "config": {"trainable": false, "name": "activation_41", "activation": "relu"}}, {"name": "activation_44", "inbound_nodes": [[["batch_normalization_44", 0, 0, {}]]], "class_name": "Activation", "config": {"trainable": false, "name": "activation_44", "activation": "relu"}}, {"name": "activation_49", "inbound_nodes": [[["batch_normalization_49", 0, 0, {}]]], "class_name": "Activation", "config": {"trainable": false, "name": "activation_49", "activation": "relu"}}, {"name": "activation_50", "inbound_nodes": [[["batch_normalization_50", 0, 0, {}]]], "class_name": "Activation", "config": {"trainable": false, "name": "activation_50", "activation": "relu"}}, {"name": "mixed5", "inbound_nodes": [[["activation_41", 0, 0, {}], ["activation_44", 0, 0, {}], ["activation_49", 0, 0, {}], ["activation_50", 0, 0, {}]]], "class_name": "Concatenate", "config": {"trainable": false, "axis": 3, "name": "mixed5"}}, {"name": "conv2d_55", "inbound_nodes": [[["mixed5", 0, 0, {}]]], "class_name": "Conv2D", "config": {"dilation_rate": [1, 1], "name": "conv2d_55", "bias_regularizer": null, "kernel_regularizer": null, "data_format": "channels_last", "trainable": false, "bias_constraint": null, "kernel_initializer": {"class_name": "VarianceScaling", "config": {"seed": null, "mode": "fan_avg", "scale": 1.0, "distribution": "uniform"}}, "kernel_constraint": null, "filters": 160, "padding": "same", "strides": [1, 1], "activation": "linear", "use_bias": false, "bias_initializer": {"class_name": "Zeros", "config": {}}, "kernel_size": [1, 1], "activity_regularizer": null}}, {"name": "batch_normalization_55", "inbound_nodes": [[["conv2d_55", 0, 0, {}]]], "class_name": "BatchNormalization", "config": {"axis": 3, "name": "batch_normalization_55", "moving_mean_initializer": {"class_name": "Zeros", "config": {}}, "beta_initializer": {"class_name": "Zeros", "config": {}}, "moving_variance_initializer": {"class_name": "Ones", "config": {}}, "gamma_constraint": null, "epsilon": 0.001, "center": true, "momentum": 0.99, "gamma_regularizer": null, "beta_constraint": null, "trainable": false, "beta_regularizer": null, "gamma_initializer": {"class_name": "Ones", "config": {}}, "scale": false}}, {"name": "activation_55", "inbound_nodes": [[["batch_normalization_55", 0, 0, {}]]], "class_name": "Activation", "config": {"trainable": false, "name": "activation_55", "activation": "relu"}}, {"name": "conv2d_56", "inbound_nodes": [[["activation_55", 0, 0, {}]]], "class_name": "Conv2D", "config": {"dilation_rate": [1, 1], "name": "conv2d_56", "bias_regularizer": null, "kernel_regularizer": null, "data_format": "channels_last", "trainable": false, "bias_constraint": null, "kernel_initializer": {"class_name": "VarianceScaling", "config": {"seed": null, "mode": "fan_avg", "scale": 1.0, "distribution": "uniform"}}, "kernel_constraint": null, "filters": 160, "padding": "same", "strides": [1, 1], "activation": "linear", "use_bias": false, "bias_initializer": {"class_name": "Zeros", "config": {}}, "kernel_size": [7, 1], "activity_regularizer": null}}, {"name": "batch_normalization_56", "inbound_nodes": [[["conv2d_56", 0, 0, {}]]], "class_name": "BatchNormalization", "config": {"axis": 3, "name": "batch_normalization_56", "moving_mean_initializer": {"class_name": "Zeros", "config": {}}, "beta_initializer": {"class_name": "Zeros", "config": {}}, "moving_variance_initializer": {"class_name": "Ones", "config": {}}, "gamma_constraint": null, "epsilon": 0.001, "center": true, "momentum": 0.99, "gamma_regularizer": null, "beta_constraint": null, "trainable": false, "beta_regularizer": null, "gamma_initializer": {"class_name": "Ones", "config": {}}, "scale": false}}, {"name": "activation_56", "inbound_nodes": [[["batch_normalization_56", 0, 0, {}]]], "class_name": "Activation", "config": {"trainable": false, "name": "activation_56", "activation": "relu"}}, {"name": "conv2d_52", "inbound_nodes": [[["mixed5", 0, 0, {}]]], "class_name": "Conv2D", "config": {"dilation_rate": [1, 1], "name": "conv2d_52", "bias_regularizer": null, "kernel_regularizer": null, "data_format": "channels_last", "trainable": false, "bias_constraint": null, "kernel_initializer": {"class_name": "VarianceScaling", "config": {"seed": null, "mode": "fan_avg", "scale": 1.0, "distribution": "uniform"}}, "kernel_constraint": null, "filters": 160, "padding": "same", "strides": [1, 1], "activation": "linear", "use_bias": false, "bias_initializer": {"class_name": "Zeros", "config": {}}, "kernel_size": [1, 1], "activity_regularizer": null}}, {"name": "conv2d_57", "inbound_nodes": [[["activation_56", 0, 0, {}]]], "class_name": "Conv2D", "config": {"dilation_rate": [1, 1], "name": "conv2d_57", "bias_regularizer": null, "kernel_regularizer": null, "data_format": "channels_last", "trainable": false, "bias_constraint": null, "kernel_initializer": {"class_name": "VarianceScaling", "config": {"seed": null, "mode": "fan_avg", "scale": 1.0, "distribution": "uniform"}}, "kernel_constraint": null, "filters": 160, "padding": "same", "strides": [1, 1], "activation": "linear", "use_bias": false, "bias_initializer": {"class_name": "Zeros", "config": {}}, "kernel_size": [1, 7], "activity_regularizer": null}}, {"name": "batch_normalization_52", "inbound_nodes": [[["conv2d_52", 0, 0, {}]]], "class_name": "BatchNormalization", "config": {"axis": 3, "name": "batch_normalization_52", "moving_mean_initializer": {"class_name": "Zeros", "config": {}}, "beta_initializer": {"class_name": "Zeros", "config": {}}, "moving_variance_initializer": {"class_name": "Ones", "config": {}}, "gamma_constraint": null, "epsilon": 0.001, "center": true, "momentum": 0.99, "gamma_regularizer": null, "beta_constraint": null, "trainable": false, "beta_regularizer": null, "gamma_initializer": {"class_name": "Ones", "config": {}}, "scale": false}}, {"name": "batch_normalization_57", "inbound_nodes": [[["conv2d_57", 0, 0, {}]]], "class_name": "BatchNormalization", "config": {"axis": 3, "name": "batch_normalization_57", "moving_mean_initializer": {"class_name": "Zeros", "config": {}}, "beta_initializer": {"class_name": "Zeros", "config": {}}, "moving_variance_initializer": {"class_name": "Ones", "config": {}}, "gamma_constraint": null, "epsilon": 0.001, "center": true, "momentum": 0.99, "gamma_regularizer": null, "beta_constraint": null, "trainable": false, "beta_regularizer": null, "gamma_initializer": {"class_name": "Ones", "config": {}}, "scale": false}}, {"name": "activation_52", "inbound_nodes": [[["batch_normalization_52", 0, 0, {}]]], "class_name": "Activation", "config": {"trainable": false, "name": "activation_52", "activation": "relu"}}, {"name": "activation_57", "inbound_nodes": [[["batch_normalization_57", 0, 0, {}]]], "class_name": "Activation", "config": {"trainable": false, "name": "activation_57", "activation": "relu"}}, {"name": "conv2d_53", "inbound_nodes": [[["activation_52", 0, 0, {}]]], "class_name": "Conv2D", "config": {"dilation_rate": [1, 1], "name": "conv2d_53", "bias_regularizer": null, "kernel_regularizer": null, "data_format": "channels_last", "trainable": false, "bias_constraint": null, "kernel_initializer": {"class_name": "VarianceScaling", "config": {"seed": null, "mode": "fan_avg", "scale": 1.0, "distribution": "uniform"}}, "kernel_constraint": null, "filters": 160, "padding": "same", "strides": [1, 1], "activation": "linear", "use_bias": false, "bias_initializer": {"class_name": "Zeros", "config": {}}, "kernel_size": [1, 7], "activity_regularizer": null}}, {"name": "conv2d_58", "inbound_nodes": [[["activation_57", 0, 0, {}]]], "class_name": "Conv2D", "config": {"dilation_rate": [1, 1], "name": "conv2d_58", "bias_regularizer": null, "kernel_regularizer": null, "data_format": "channels_last", "trainable": false, "bias_constraint": null, "kernel_initializer": {"class_name": "VarianceScaling", "config": {"seed": null, "mode": "fan_avg", "scale": 1.0, "distribution": "uniform"}}, "kernel_constraint": null, "filters": 160, "padding": "same", "strides": [1, 1], "activation": "linear", "use_bias": false, "bias_initializer": {"class_name": "Zeros", "config": {}}, "kernel_size": [7, 1], "activity_regularizer": null}}, {"name": "batch_normalization_53", "inbound_nodes": [[["conv2d_53", 0, 0, {}]]], "class_name": "BatchNormalization", "config": {"axis": 3, "name": "batch_normalization_53", "moving_mean_initializer": {"class_name": "Zeros", "config": {}}, "beta_initializer": {"class_name": "Zeros", "config": {}}, "moving_variance_initializer": {"class_name": "Ones", "config": {}}, "gamma_constraint": null, "epsilon": 0.001, "center": true, "momentum": 0.99, "gamma_regularizer": null, "beta_constraint": null, "trainable": false, "beta_regularizer": null, "gamma_initializer": {"class_name": "Ones", "config": {}}, "scale": false}}, {"name": "batch_normalization_58", "inbound_nodes": [[["conv2d_58", 0, 0, {}]]], "class_name": "BatchNormalization", "config": {"axis": 3, "name": "batch_normalization_58", "moving_mean_initializer": {"class_name": "Zeros", "config": {}}, "beta_initializer": {"class_name": "Zeros", "config": {}}, "moving_variance_initializer": {"class_name": "Ones", "config": {}}, "gamma_constraint": null, "epsilon": 0.001, "center": true, "momentum": 0.99, "gamma_regularizer": null, "beta_constraint": null, "trainable": false, "beta_regularizer": null, "gamma_initializer": {"class_name": "Ones", "config": {}}, "scale": false}}, {"name": "activation_53", "inbound_nodes": [[["batch_normalization_53", 0, 0, {}]]], "class_name": "Activation", "config": {"trainable": false, "name": "activation_53", "activation": "relu"}}, {"name": "activation_58", "inbound_nodes": [[["batch_normalization_58", 0, 0, {}]]], "class_name": "Activation", "config": {"trainable": false, "name": "activation_58", "activation": "relu"}}, {"name": "average_pooling2d_6", "inbound_nodes": [[["mixed5", 0, 0, {}]]], "class_name": "AveragePooling2D", "config": {"padding": "same", "strides": [1, 1], "pool_size": [3, 3], "data_format": "channels_last", "trainable": false, "name": "average_pooling2d_6"}}, {"name": "conv2d_51", "inbound_nodes": [[["mixed5", 0, 0, {}]]], "class_name": "Conv2D", "config": {"dilation_rate": [1, 1], "name": "conv2d_51", "bias_regularizer": null, "kernel_regularizer": null, "data_format": "channels_last", "trainable": false, "bias_constraint": null, "kernel_initializer": {"class_name": "VarianceScaling", "config": {"seed": null, "mode": "fan_avg", "scale": 1.0, "distribution": "uniform"}}, "kernel_constraint": null, "filters": 192, "padding": "same", "strides": [1, 1], "activation": "linear", "use_bias": false, "bias_initializer": {"class_name": "Zeros", "config": {}}, "kernel_size": [1, 1], "activity_regularizer": null}}, {"name": "conv2d_54", "inbound_nodes": [[["activation_53", 0, 0, {}]]], "class_name": "Conv2D", "config": {"dilation_rate": [1, 1], "name": "conv2d_54", "bias_regularizer": null, "kernel_regularizer": null, "data_format": "channels_last", "trainable": false, "bias_constraint": null, "kernel_initializer": {"class_name": "VarianceScaling", "config": {"seed": null, "mode": "fan_avg", "scale": 1.0, "distribution": "uniform"}}, "kernel_constraint": null, "filters": 192, "padding": "same", "strides": [1, 1], "activation": "linear", "use_bias": false, "bias_initializer": {"class_name": "Zeros", "config": {}}, "kernel_size": [7, 1], "activity_regularizer": null}}, {"name": "conv2d_59", "inbound_nodes": [[["activation_58", 0, 0, {}]]], "class_name": "Conv2D", "config": {"dilation_rate": [1, 1], "name": "conv2d_59", "bias_regularizer": null, "kernel_regularizer": null, "data_format": "channels_last", "trainable": false, "bias_constraint": null, "kernel_initializer": {"class_name": "VarianceScaling", "config": {"seed": null, "mode": "fan_avg", "scale": 1.0, "distribution": "uniform"}}, "kernel_constraint": null, "filters": 192, "padding": "same", "strides": [1, 1], "activation": "linear", "use_bias": false, "bias_initializer": {"class_name": "Zeros", "config": {}}, "kernel_size": [1, 7], "activity_regularizer": null}}, {"name": "conv2d_60", "inbound_nodes": [[["average_pooling2d_6", 0, 0, {}]]], "class_name": "Conv2D", "config": {"dilation_rate": [1, 1], "name": "conv2d_60", "bias_regularizer": null, "kernel_regularizer": null, "data_format": "channels_last", "trainable": false, "bias_constraint": null, "kernel_initializer": {"class_name": "VarianceScaling", "config": {"seed": null, "mode": "fan_avg", "scale": 1.0, "distribution": "uniform"}}, "kernel_constraint": null, "filters": 192, "padding": "same", "strides": [1, 1], "activation": "linear", "use_bias": false, "bias_initializer": {"class_name": "Zeros", "config": {}}, "kernel_size": [1, 1], "activity_regularizer": null}}, {"name": "batch_normalization_51", "inbound_nodes": [[["conv2d_51", 0, 0, {}]]], "class_name": "BatchNormalization", "config": {"axis": 3, "name": "batch_normalization_51", "moving_mean_initializer": {"class_name": "Zeros", "config": {}}, "beta_initializer": {"class_name": "Zeros", "config": {}}, "moving_variance_initializer": {"class_name": "Ones", "config": {}}, "gamma_constraint": null, "epsilon": 0.001, "center": true, "momentum": 0.99, "gamma_regularizer": null, "beta_constraint": null, "trainable": false, "beta_regularizer": null, "gamma_initializer": {"class_name": "Ones", "config": {}}, "scale": false}}, {"name": "batch_normalization_54", "inbound_nodes": [[["conv2d_54", 0, 0, {}]]], "class_name": "BatchNormalization", "config": {"axis": 3, "name": "batch_normalization_54", "moving_mean_initializer": {"class_name": "Zeros", "config": {}}, "beta_initializer": {"class_name": "Zeros", "config": {}}, "moving_variance_initializer": {"class_name": "Ones", "config": {}}, "gamma_constraint": null, "epsilon": 0.001, "center": true, "momentum": 0.99, "gamma_regularizer": null, "beta_constraint": null, "trainable": false, "beta_regularizer": null, "gamma_initializer": {"class_name": "Ones", "config": {}}, "scale": false}}, {"name": "batch_normalization_59", "inbound_nodes": [[["conv2d_59", 0, 0, {}]]], "class_name": "BatchNormalization", "config": {"axis": 3, "name": "batch_normalization_59", "moving_mean_initializer": {"class_name": "Zeros", "config": {}}, "beta_initializer": {"class_name": "Zeros", "config": {}}, "moving_variance_initializer": {"class_name": "Ones", "config": {}}, "gamma_constraint": null, "epsilon": 0.001, "center": true, "momentum": 0.99, "gamma_regularizer": null, "beta_constraint": null, "trainable": false, "beta_regularizer": null, "gamma_initializer": {"class_name": "Ones", "config": {}}, "scale": false}}, {"name": "batch_normalization_60", "inbound_nodes": [[["conv2d_60", 0, 0, {}]]], "class_name": "BatchNormalization", "config": {"axis": 3, "name": "batch_normalization_60", "moving_mean_initializer": {"class_name": "Zeros", "config": {}}, "beta_initializer": {"class_name": "Zeros", "config": {}}, "moving_variance_initializer": {"class_name": "Ones", "config": {}}, "gamma_constraint": null, "epsilon": 0.001, "center": true, "momentum": 0.99, "gamma_regularizer": null, "beta_constraint": null, "trainable": false, "beta_regularizer": null, "gamma_initializer": {"class_name": "Ones", "config": {}}, "scale": false}}, {"name": "activation_51", "inbound_nodes": [[["batch_normalization_51", 0, 0, {}]]], "class_name": "Activation", "config": {"trainable": false, "name": "activation_51", "activation": "relu"}}, {"name": "activation_54", "inbound_nodes": [[["batch_normalization_54", 0, 0, {}]]], "class_name": "Activation", "config": {"trainable": false, "name": "activation_54", "activation": "relu"}}, {"name": "activation_59", "inbound_nodes": [[["batch_normalization_59", 0, 0, {}]]], "class_name": "Activation", "config": {"trainable": false, "name": "activation_59", "activation": "relu"}}, {"name": "activation_60", "inbound_nodes": [[["batch_normalization_60", 0, 0, {}]]], "class_name": "Activation", "config": {"trainable": false, "name": "activation_60", "activation": "relu"}}, {"name": "mixed6", "inbound_nodes": [[["activation_51", 0, 0, {}], ["activation_54", 0, 0, {}], ["activation_59", 0, 0, {}], ["activation_60", 0, 0, {}]]], "class_name": "Concatenate", "config": {"trainable": false, "axis": 3, "name": "mixed6"}}, {"name": "conv2d_65", "inbound_nodes": [[["mixed6", 0, 0, {}]]], "class_name": "Conv2D", "config": {"dilation_rate": [1, 1], "name": "conv2d_65", "bias_regularizer": null, "kernel_regularizer": null, "data_format": "channels_last", "trainable": false, "bias_constraint": null, "kernel_initializer": {"class_name": "VarianceScaling", "config": {"seed": null, "mode": "fan_avg", "scale": 1.0, "distribution": "uniform"}}, "kernel_constraint": null, "filters": 192, "padding": "same", "strides": [1, 1], "activation": "linear", "use_bias": false, "bias_initializer": {"class_name": "Zeros", "config": {}}, "kernel_size": [1, 1], "activity_regularizer": null}}, {"name": "batch_normalization_65", "inbound_nodes": [[["conv2d_65", 0, 0, {}]]], "class_name": "BatchNormalization", "config": {"axis": 3, "name": "batch_normalization_65", "moving_mean_initializer": {"class_name": "Zeros", "config": {}}, "beta_initializer": {"class_name": "Zeros", "config": {}}, "moving_variance_initializer": {"class_name": "Ones", "config": {}}, "gamma_constraint": null, "epsilon": 0.001, "center": true, "momentum": 0.99, "gamma_regularizer": null, "beta_constraint": null, "trainable": false, "beta_regularizer": null, "gamma_initializer": {"class_name": "Ones", "config": {}}, "scale": false}}, {"name": "activation_65", "inbound_nodes": [[["batch_normalization_65", 0, 0, {}]]], "class_name": "Activation", "config": {"trainable": false, "name": "activation_65", "activation": "relu"}}, {"name": "conv2d_66", "inbound_nodes": [[["activation_65", 0, 0, {}]]], "class_name": "Conv2D", "config": {"dilation_rate": [1, 1], "name": "conv2d_66", "bias_regularizer": null, "kernel_regularizer": null, "data_format": "channels_last", "trainable": false, "bias_constraint": null, "kernel_initializer": {"class_name": "VarianceScaling", "config": {"seed": null, "mode": "fan_avg", "scale": 1.0, "distribution": "uniform"}}, "kernel_constraint": null, "filters": 192, "padding": "same", "strides": [1, 1], "activation": "linear", "use_bias": false, "bias_initializer": {"class_name": "Zeros", "config": {}}, "kernel_size": [7, 1], "activity_regularizer": null}}, {"name": "batch_normalization_66", "inbound_nodes": [[["conv2d_66", 0, 0, {}]]], "class_name": "BatchNormalization", "config": {"axis": 3, "name": "batch_normalization_66", "moving_mean_initializer": {"class_name": "Zeros", "config": {}}, "beta_initializer": {"class_name": "Zeros", "config": {}}, "moving_variance_initializer": {"class_name": "Ones", "config": {}}, "gamma_constraint": null, "epsilon": 0.001, "center": true, "momentum": 0.99, "gamma_regularizer": null, "beta_constraint": null, "trainable": false, "beta_regularizer": null, "gamma_initializer": {"class_name": "Ones", "config": {}}, "scale": false}}, {"name": "activation_66", "inbound_nodes": [[["batch_normalization_66", 0, 0, {}]]], "class_name": "Activation", "config": {"trainable": false, "name": "activation_66", "activation": "relu"}}, {"name": "conv2d_62", "inbound_nodes": [[["mixed6", 0, 0, {}]]], "class_name": "Conv2D", "config": {"dilation_rate": [1, 1], "name": "conv2d_62", "bias_regularizer": null, "kernel_regularizer": null, "data_format": "channels_last", "trainable": false, "bias_constraint": null, "kernel_initializer": {"class_name": "VarianceScaling", "config": {"seed": null, "mode": "fan_avg", "scale": 1.0, "distribution": "uniform"}}, "kernel_constraint": null, "filters": 192, "padding": "same", "strides": [1, 1], "activation": "linear", "use_bias": false, "bias_initializer": {"class_name": "Zeros", "config": {}}, "kernel_size": [1, 1], "activity_regularizer": null}}, {"name": "conv2d_67", "inbound_nodes": [[["activation_66", 0, 0, {}]]], "class_name": "Conv2D", "config": {"dilation_rate": [1, 1], "name": "conv2d_67", "bias_regularizer": null, "kernel_regularizer": null, "data_format": "channels_last", "trainable": false, "bias_constraint": null, "kernel_initializer": {"class_name": "VarianceScaling", "config": {"seed": null, "mode": "fan_avg", "scale": 1.0, "distribution": "uniform"}}, "kernel_constraint": null, "filters": 192, "padding": "same", "strides": [1, 1], "activation": "linear", "use_bias": false, "bias_initializer": {"class_name": "Zeros", "config": {}}, "kernel_size": [1, 7], "activity_regularizer": null}}, {"name": "batch_normalization_62", "inbound_nodes": [[["conv2d_62", 0, 0, {}]]], "class_name": "BatchNormalization", "config": {"axis": 3, "name": "batch_normalization_62", "moving_mean_initializer": {"class_name": "Zeros", "config": {}}, "beta_initializer": {"class_name": "Zeros", "config": {}}, "moving_variance_initializer": {"class_name": "Ones", "config": {}}, "gamma_constraint": null, "epsilon": 0.001, "center": true, "momentum": 0.99, "gamma_regularizer": null, "beta_constraint": null, "trainable": false, "beta_regularizer": null, "gamma_initializer": {"class_name": "Ones", "config": {}}, "scale": false}}, {"name": "batch_normalization_67", "inbound_nodes": [[["conv2d_67", 0, 0, {}]]], "class_name": "BatchNormalization", "config": {"axis": 3, "name": "batch_normalization_67", "moving_mean_initializer": {"class_name": "Zeros", "config": {}}, "beta_initializer": {"class_name": "Zeros", "config": {}}, "moving_variance_initializer": {"class_name": "Ones", "config": {}}, "gamma_constraint": null, "epsilon": 0.001, "center": true, "momentum": 0.99, "gamma_regularizer": null, "beta_constraint": null, "trainable": false, "beta_regularizer": null, "gamma_initializer": {"class_name": "Ones", "config": {}}, "scale": false}}, {"name": "activation_62", "inbound_nodes": [[["batch_normalization_62", 0, 0, {}]]], "class_name": "Activation", "config": {"trainable": false, "name": "activation_62", "activation": "relu"}}, {"name": "activation_67", "inbound_nodes": [[["batch_normalization_67", 0, 0, {}]]], "class_name": "Activation", "config": {"trainable": false, "name": "activation_67", "activation": "relu"}}, {"name": "conv2d_63", "inbound_nodes": [[["activation_62", 0, 0, {}]]], "class_name": "Conv2D", "config": {"dilation_rate": [1, 1], "name": "conv2d_63", "bias_regularizer": null, "kernel_regularizer": null, "data_format": "channels_last", "trainable": false, "bias_constraint": null, "kernel_initializer": {"class_name": "VarianceScaling", "config": {"seed": null, "mode": "fan_avg", "scale": 1.0, "distribution": "uniform"}}, "kernel_constraint": null, "filters": 192, "padding": "same", "strides": [1, 1], "activation": "linear", "use_bias": false, "bias_initializer": {"class_name": "Zeros", "config": {}}, "kernel_size": [1, 7], "activity_regularizer": null}}, {"name": "conv2d_68", "inbound_nodes": [[["activation_67", 0, 0, {}]]], "class_name": "Conv2D", "config": {"dilation_rate": [1, 1], "name": "conv2d_68", "bias_regularizer": null, "kernel_regularizer": null, "data_format": "channels_last", "trainable": false, "bias_constraint": null, "kernel_initializer": {"class_name": "VarianceScaling", "config": {"seed": null, "mode": "fan_avg", "scale": 1.0, "distribution": "uniform"}}, "kernel_constraint": null, "filters": 192, "padding": "same", "strides": [1, 1], "activation": "linear", "use_bias": false, "bias_initializer": {"class_name": "Zeros", "config": {}}, "kernel_size": [7, 1], "activity_regularizer": null}}, {"name": "batch_normalization_63", "inbound_nodes": [[["conv2d_63", 0, 0, {}]]], "class_name": "BatchNormalization", "config": {"axis": 3, "name": "batch_normalization_63", "moving_mean_initializer": {"class_name": "Zeros", "config": {}}, "beta_initializer": {"class_name": "Zeros", "config": {}}, "moving_variance_initializer": {"class_name": "Ones", "config": {}}, "gamma_constraint": null, "epsilon": 0.001, "center": true, "momentum": 0.99, "gamma_regularizer": null, "beta_constraint": null, "trainable": false, "beta_regularizer": null, "gamma_initializer": {"class_name": "Ones", "config": {}}, "scale": false}}, {"name": "batch_normalization_68", "inbound_nodes": [[["conv2d_68", 0, 0, {}]]], "class_name": "BatchNormalization", "config": {"axis": 3, "name": "batch_normalization_68", "moving_mean_initializer": {"class_name": "Zeros", "config": {}}, "beta_initializer": {"class_name": "Zeros", "config": {}}, "moving_variance_initializer": {"class_name": "Ones", "config": {}}, "gamma_constraint": null, "epsilon": 0.001, "center": true, "momentum": 0.99, "gamma_regularizer": null, "beta_constraint": null, "trainable": false, "beta_regularizer": null, "gamma_initializer": {"class_name": "Ones", "config": {}}, "scale": false}}, {"name": "activation_63", "inbound_nodes": [[["batch_normalization_63", 0, 0, {}]]], "class_name": "Activation", "config": {"trainable": false, "name": "activation_63", "activation": "relu"}}, {"name": "activation_68", "inbound_nodes": [[["batch_normalization_68", 0, 0, {}]]], "class_name": "Activation", "config": {"trainable": false, "name": "activation_68", "activation": "relu"}}, {"name": "average_pooling2d_7", "inbound_nodes": [[["mixed6", 0, 0, {}]]], "class_name": "AveragePooling2D", "config": {"padding": "same", "strides": [1, 1], "pool_size": [3, 3], "data_format": "channels_last", "trainable": false, "name": "average_pooling2d_7"}}, {"name": "conv2d_61", "inbound_nodes": [[["mixed6", 0, 0, {}]]], "class_name": "Conv2D", "config": {"dilation_rate": [1, 1], "name": "conv2d_61", "bias_regularizer": null, "kernel_regularizer": null, "data_format": "channels_last", "trainable": false, "bias_constraint": null, "kernel_initializer": {"class_name": "VarianceScaling", "config": {"seed": null, "mode": "fan_avg", "scale": 1.0, "distribution": "uniform"}}, "kernel_constraint": null, "filters": 192, "padding": "same", "strides": [1, 1], "activation": "linear", "use_bias": false, "bias_initializer": {"class_name": "Zeros", "config": {}}, "kernel_size": [1, 1], "activity_regularizer": null}}, {"name": "conv2d_64", "inbound_nodes": [[["activation_63", 0, 0, {}]]], "class_name": "Conv2D", "config": {"dilation_rate": [1, 1], "name": "conv2d_64", "bias_regularizer": null, "kernel_regularizer": null, "data_format": "channels_last", "trainable": false, "bias_constraint": null, "kernel_initializer": {"class_name": "VarianceScaling", "config": {"seed": null, "mode": "fan_avg", "scale": 1.0, "distribution": "uniform"}}, "kernel_constraint": null, "filters": 192, "padding": "same", "strides": [1, 1], "activation": "linear", "use_bias": false, "bias_initializer": {"class_name": "Zeros", "config": {}}, "kernel_size": [7, 1], "activity_regularizer": null}}, {"name": "conv2d_69", "inbound_nodes": [[["activation_68", 0, 0, {}]]], "class_name": "Conv2D", "config": {"dilation_rate": [1, 1], "name": "conv2d_69", "bias_regularizer": null, "kernel_regularizer": null, "data_format": "channels_last", "trainable": false, "bias_constraint": null, "kernel_initializer": {"class_name": "VarianceScaling", "config": {"seed": null, "mode": "fan_avg", "scale": 1.0, "distribution": "uniform"}}, "kernel_constraint": null, "filters": 192, "padding": "same", "strides": [1, 1], "activation": "linear", "use_bias": false, "bias_initializer": {"class_name": "Zeros", "config": {}}, "kernel_size": [1, 7], "activity_regularizer": null}}, {"name": "conv2d_70", "inbound_nodes": [[["average_pooling2d_7", 0, 0, {}]]], "class_name": "Conv2D", "config": {"dilation_rate": [1, 1], "name": "conv2d_70", "bias_regularizer": null, "kernel_regularizer": null, "data_format": "channels_last", "trainable": false, "bias_constraint": null, "kernel_initializer": {"class_name": "VarianceScaling", "config": {"seed": null, "mode": "fan_avg", "scale": 1.0, "distribution": "uniform"}}, "kernel_constraint": null, "filters": 192, "padding": "same", "strides": [1, 1], "activation": "linear", "use_bias": false, "bias_initializer": {"class_name": "Zeros", "config": {}}, "kernel_size": [1, 1], "activity_regularizer": null}}, {"name": "batch_normalization_61", "inbound_nodes": [[["conv2d_61", 0, 0, {}]]], "class_name": "BatchNormalization", "config": {"axis": 3, "name": "batch_normalization_61", "moving_mean_initializer": {"class_name": "Zeros", "config": {}}, "beta_initializer": {"class_name": "Zeros", "config": {}}, "moving_variance_initializer": {"class_name": "Ones", "config": {}}, "gamma_constraint": null, "epsilon": 0.001, "center": true, "momentum": 0.99, "gamma_regularizer": null, "beta_constraint": null, "trainable": false, "beta_regularizer": null, "gamma_initializer": {"class_name": "Ones", "config": {}}, "scale": false}}, {"name": "batch_normalization_64", "inbound_nodes": [[["conv2d_64", 0, 0, {}]]], "class_name": "BatchNormalization", "config": {"axis": 3, "name": "batch_normalization_64", "moving_mean_initializer": {"class_name": "Zeros", "config": {}}, "beta_initializer": {"class_name": "Zeros", "config": {}}, "moving_variance_initializer": {"class_name": "Ones", "config": {}}, "gamma_constraint": null, "epsilon": 0.001, "center": true, "momentum": 0.99, "gamma_regularizer": null, "beta_constraint": null, "trainable": false, "beta_regularizer": null, "gamma_initializer": {"class_name": "Ones", "config": {}}, "scale": false}}, {"name": "batch_normalization_69", "inbound_nodes": [[["conv2d_69", 0, 0, {}]]], "class_name": "BatchNormalization", "config": {"axis": 3, "name": "batch_normalization_69", "moving_mean_initializer": {"class_name": "Zeros", "config": {}}, "beta_initializer": {"class_name": "Zeros", "config": {}}, "moving_variance_initializer": {"class_name": "Ones", "config": {}}, "gamma_constraint": null, "epsilon": 0.001, "center": true, "momentum": 0.99, "gamma_regularizer": null, "beta_constraint": null, "trainable": false, "beta_regularizer": null, "gamma_initializer": {"class_name": "Ones", "config": {}}, "scale": false}}, {"name": "batch_normalization_70", "inbound_nodes": [[["conv2d_70", 0, 0, {}]]], "class_name": "BatchNormalization", "config": {"axis": 3, "name": "batch_normalization_70", "moving_mean_initializer": {"class_name": "Zeros", "config": {}}, "beta_initializer": {"class_name": "Zeros", "config": {}}, "moving_variance_initializer": {"class_name": "Ones", "config": {}}, "gamma_constraint": null, "epsilon": 0.001, "center": true, "momentum": 0.99, "gamma_regularizer": null, "beta_constraint": null, "trainable": false, "beta_regularizer": null, "gamma_initializer": {"class_name": "Ones", "config": {}}, "scale": false}}, {"name": "activation_61", "inbound_nodes": [[["batch_normalization_61", 0, 0, {}]]], "class_name": "Activation", "config": {"trainable": false, "name": "activation_61", "activation": "relu"}}, {"name": "activation_64", "inbound_nodes": [[["batch_normalization_64", 0, 0, {}]]], "class_name": "Activation", "config": {"trainable": false, "name": "activation_64", "activation": "relu"}}, {"name": "activation_69", "inbound_nodes": [[["batch_normalization_69", 0, 0, {}]]], "class_name": "Activation", "config": {"trainable": false, "name": "activation_69", "activation": "relu"}}, {"name": "activation_70", "inbound_nodes": [[["batch_normalization_70", 0, 0, {}]]], "class_name": "Activation", "config": {"trainable": false, "name": "activation_70", "activation": "relu"}}, {"name": "mixed7", "inbound_nodes": [[["activation_61", 0, 0, {}], ["activation_64", 0, 0, {}], ["activation_69", 0, 0, {}], ["activation_70", 0, 0, {}]]], "class_name": "Concatenate", "config": {"trainable": false, "axis": 3, "name": "mixed7"}}, {"name": "conv2d_73", "inbound_nodes": [[["mixed7", 0, 0, {}]]], "class_name": "Conv2D", "config": {"dilation_rate": [1, 1], "name": "conv2d_73", "bias_regularizer": null, "kernel_regularizer": null, "data_format": "channels_last", "trainable": false, "bias_constraint": null, "kernel_initializer": {"class_name": "VarianceScaling", "config": {"seed": null, "mode": "fan_avg", "scale": 1.0, "distribution": "uniform"}}, "kernel_constraint": null, "filters": 192, "padding": "same", "strides": [1, 1], "activation": "linear", "use_bias": false, "bias_initializer": {"class_name": "Zeros", "config": {}}, "kernel_size": [1, 1], "activity_regularizer": null}}, {"name": "batch_normalization_73", "inbound_nodes": [[["conv2d_73", 0, 0, {}]]], "class_name": "BatchNormalization", "config": {"axis": 3, "name": "batch_normalization_73", "moving_mean_initializer": {"class_name": "Zeros", "config": {}}, "beta_initializer": {"class_name": "Zeros", "config": {}}, "moving_variance_initializer": {"class_name": "Ones", "config": {}}, "gamma_constraint": null, "epsilon": 0.001, "center": true, "momentum": 0.99, "gamma_regularizer": null, "beta_constraint": null, "trainable": false, "beta_regularizer": null, "gamma_initializer": {"class_name": "Ones", "config": {}}, "scale": false}}, {"name": "activation_73", "inbound_nodes": [[["batch_normalization_73", 0, 0, {}]]], "class_name": "Activation", "config": {"trainable": false, "name": "activation_73", "activation": "relu"}}, {"name": "conv2d_74", "inbound_nodes": [[["activation_73", 0, 0, {}]]], "class_name": "Conv2D", "config": {"dilation_rate": [1, 1], "name": "conv2d_74", "bias_regularizer": null, "kernel_regularizer": null, "data_format": "channels_last", "trainable": false, "bias_constraint": null, "kernel_initializer": {"class_name": "VarianceScaling", "config": {"seed": null, "mode": "fan_avg", "scale": 1.0, "distribution": "uniform"}}, "kernel_constraint": null, "filters": 192, "padding": "same", "strides": [1, 1], "activation": "linear", "use_bias": false, "bias_initializer": {"class_name": "Zeros", "config": {}}, "kernel_size": [1, 7], "activity_regularizer": null}}, {"name": "batch_normalization_74", "inbound_nodes": [[["conv2d_74", 0, 0, {}]]], "class_name": "BatchNormalization", "config": {"axis": 3, "name": "batch_normalization_74", "moving_mean_initializer": {"class_name": "Zeros", "config": {}}, "beta_initializer": {"class_name": "Zeros", "config": {}}, "moving_variance_initializer": {"class_name": "Ones", "config": {}}, "gamma_constraint": null, "epsilon": 0.001, "center": true, "momentum": 0.99, "gamma_regularizer": null, "beta_constraint": null, "trainable": false, "beta_regularizer": null, "gamma_initializer": {"class_name": "Ones", "config": {}}, "scale": false}}, {"name": "activation_74", "inbound_nodes": [[["batch_normalization_74", 0, 0, {}]]], "class_name": "Activation", "config": {"trainable": false, "name": "activation_74", "activation": "relu"}}, {"name": "conv2d_71", "inbound_nodes": [[["mixed7", 0, 0, {}]]], "class_name": "Conv2D", "config": {"dilation_rate": [1, 1], "name": "conv2d_71", "bias_regularizer": null, "kernel_regularizer": null, "data_format": "channels_last", "trainable": false, "bias_constraint": null, "kernel_initializer": {"class_name": "VarianceScaling", "config": {"seed": null, "mode": "fan_avg", "scale": 1.0, "distribution": "uniform"}}, "kernel_constraint": null, "filters": 192, "padding": "same", "strides": [1, 1], "activation": "linear", "use_bias": false, "bias_initializer": {"class_name": "Zeros", "config": {}}, "kernel_size": [1, 1], "activity_regularizer": null}}, {"name": "conv2d_75", "inbound_nodes": [[["activation_74", 0, 0, {}]]], "class_name": "Conv2D", "config": {"dilation_rate": [1, 1], "name": "conv2d_75", "bias_regularizer": null, "kernel_regularizer": null, "data_format": "channels_last", "trainable": false, "bias_constraint": null, "kernel_initializer": {"class_name": "VarianceScaling", "config": {"seed": null, "mode": "fan_avg", "scale": 1.0, "distribution": "uniform"}}, "kernel_constraint": null, "filters": 192, "padding": "same", "strides": [1, 1], "activation": "linear", "use_bias": false, "bias_initializer": {"class_name": "Zeros", "config": {}}, "kernel_size": [7, 1], "activity_regularizer": null}}, {"name": "batch_normalization_71", "inbound_nodes": [[["conv2d_71", 0, 0, {}]]], "class_name": "BatchNormalization", "config": {"axis": 3, "name": "batch_normalization_71", "moving_mean_initializer": {"class_name": "Zeros", "config": {}}, "beta_initializer": {"class_name": "Zeros", "config": {}}, "moving_variance_initializer": {"class_name": "Ones", "config": {}}, "gamma_constraint": null, "epsilon": 0.001, "center": true, "momentum": 0.99, "gamma_regularizer": null, "beta_constraint": null, "trainable": false, "beta_regularizer": null, "gamma_initializer": {"class_name": "Ones", "config": {}}, "scale": false}}, {"name": "batch_normalization_75", "inbound_nodes": [[["conv2d_75", 0, 0, {}]]], "class_name": "BatchNormalization", "config": {"axis": 3, "name": "batch_normalization_75", "moving_mean_initializer": {"class_name": "Zeros", "config": {}}, "beta_initializer": {"class_name": "Zeros", "config": {}}, "moving_variance_initializer": {"class_name": "Ones", "config": {}}, "gamma_constraint": null, "epsilon": 0.001, "center": true, "momentum": 0.99, "gamma_regularizer": null, "beta_constraint": null, "trainable": false, "beta_regularizer": null, "gamma_initializer": {"class_name": "Ones", "config": {}}, "scale": false}}, {"name": "activation_71", "inbound_nodes": [[["batch_normalization_71", 0, 0, {}]]], "class_name": "Activation", "config": {"trainable": false, "name": "activation_71", "activation": "relu"}}, {"name": "activation_75", "inbound_nodes": [[["batch_normalization_75", 0, 0, {}]]], "class_name": "Activation", "config": {"trainable": false, "name": "activation_75", "activation": "relu"}}, {"name": "conv2d_72", "inbound_nodes": [[["activation_71", 0, 0, {}]]], "class_name": "Conv2D", "config": {"dilation_rate": [1, 1], "name": "conv2d_72", "bias_regularizer": null, "kernel_regularizer": null, "data_format": "channels_last", "trainable": false, "bias_constraint": null, "kernel_initializer": {"class_name": "VarianceScaling", "config": {"seed": null, "mode": "fan_avg", "scale": 1.0, "distribution": "uniform"}}, "kernel_constraint": null, "filters": 320, "padding": "valid", "strides": [2, 2], "activation": "linear", "use_bias": false, "bias_initializer": {"class_name": "Zeros", "config": {}}, "kernel_size": [3, 3], "activity_regularizer": null}}, {"name": "conv2d_76", "inbound_nodes": [[["activation_75", 0, 0, {}]]], "class_name": "Conv2D", "config": {"dilation_rate": [1, 1], "name": "conv2d_76", "bias_regularizer": null, "kernel_regularizer": null, "data_format": "channels_last", "trainable": false, "bias_constraint": null, "kernel_initializer": {"class_name": "VarianceScaling", "config": {"seed": null, "mode": "fan_avg", "scale": 1.0, "distribution": "uniform"}}, "kernel_constraint": null, "filters": 192, "padding": "valid", "strides": [2, 2], "activation": "linear", "use_bias": false, "bias_initializer": {"class_name": "Zeros", "config": {}}, "kernel_size": [3, 3], "activity_regularizer": null}}, {"name": "batch_normalization_72", "inbound_nodes": [[["conv2d_72", 0, 0, {}]]], "class_name": "BatchNormalization", "config": {"axis": 3, "name": "batch_normalization_72", "moving_mean_initializer": {"class_name": "Zeros", "config": {}}, "beta_initializer": {"class_name": "Zeros", "config": {}}, "moving_variance_initializer": {"class_name": "Ones", "config": {}}, "gamma_constraint": null, "epsilon": 0.001, "center": true, "momentum": 0.99, "gamma_regularizer": null, "beta_constraint": null, "trainable": false, "beta_regularizer": null, "gamma_initializer": {"class_name": "Ones", "config": {}}, "scale": false}}, {"name": "batch_normalization_76", "inbound_nodes": [[["conv2d_76", 0, 0, {}]]], "class_name": "BatchNormalization", "config": {"axis": 3, "name": "batch_normalization_76", "moving_mean_initializer": {"class_name": "Zeros", "config": {}}, "beta_initializer": {"class_name": "Zeros", "config": {}}, "moving_variance_initializer": {"class_name": "Ones", "config": {}}, "gamma_constraint": null, "epsilon": 0.001, "center": true, "momentum": 0.99, "gamma_regularizer": null, "beta_constraint": null, "trainable": false, "beta_regularizer": null, "gamma_initializer": {"class_name": "Ones", "config": {}}, "scale": false}}, {"name": "activation_72", "inbound_nodes": [[["batch_normalization_72", 0, 0, {}]]], "class_name": "Activation", "config": {"trainable": false, "name": "activation_72", "activation": "relu"}}, {"name": "activation_76", "inbound_nodes": [[["batch_normalization_76", 0, 0, {}]]], "class_name": "Activation", "config": {"trainable": false, "name": "activation_76", "activation": "relu"}}, {"name": "max_pooling2d_4", "inbound_nodes": [[["mixed7", 0, 0, {}]]], "class_name": "MaxPooling2D", "config": {"padding": "valid", "strides": [2, 2], "pool_size": [3, 3], "data_format": "channels_last", "trainable": false, "name": "max_pooling2d_4"}}, {"name": "mixed8", "inbound_nodes": [[["activation_72", 0, 0, {}], ["activation_76", 0, 0, {}], ["max_pooling2d_4", 0, 0, {}]]], "class_name": "Concatenate", "config": {"trainable": false, "axis": 3, "name": "mixed8"}}, {"name": "conv2d_81", "inbound_nodes": [[["mixed8", 0, 0, {}]]], "class_name": "Conv2D", "config": {"dilation_rate": [1, 1], "name": "conv2d_81", "bias_regularizer": null, "kernel_regularizer": null, "data_format": "channels_last", "trainable": false, "bias_constraint": null, "kernel_initializer": {"class_name": "VarianceScaling", "config": {"seed": null, "mode": "fan_avg", "scale": 1.0, "distribution": "uniform"}}, "kernel_constraint": null, "filters": 448, "padding": "same", "strides": [1, 1], "activation": "linear", "use_bias": false, "bias_initializer": {"class_name": "Zeros", "config": {}}, "kernel_size": [1, 1], "activity_regularizer": null}}, {"name": "batch_normalization_81", "inbound_nodes": [[["conv2d_81", 0, 0, {}]]], "class_name": "BatchNormalization", "config": {"axis": 3, "name": "batch_normalization_81", "moving_mean_initializer": {"class_name": "Zeros", "config": {}}, "beta_initializer": {"class_name": "Zeros", "config": {}}, "moving_variance_initializer": {"class_name": "Ones", "config": {}}, "gamma_constraint": null, "epsilon": 0.001, "center": true, "momentum": 0.99, "gamma_regularizer": null, "beta_constraint": null, "trainable": false, "beta_regularizer": null, "gamma_initializer": {"class_name": "Ones", "config": {}}, "scale": false}}, {"name": "activation_81", "inbound_nodes": [[["batch_normalization_81", 0, 0, {}]]], "class_name": "Activation", "config": {"trainable": false, "name": "activation_81", "activation": "relu"}}, {"name": "conv2d_78", "inbound_nodes": [[["mixed8", 0, 0, {}]]], "class_name": "Conv2D", "config": {"dilation_rate": [1, 1], "name": "conv2d_78", "bias_regularizer": null, "kernel_regularizer": null, "data_format": "channels_last", "trainable": false, "bias_constraint": null, "kernel_initializer": {"class_name": "VarianceScaling", "config": {"seed": null, "mode": "fan_avg", "scale": 1.0, "distribution": "uniform"}}, "kernel_constraint": null, "filters": 384, "padding": "same", "strides": [1, 1], "activation": "linear", "use_bias": false, "bias_initializer": {"class_name": "Zeros", "config": {}}, "kernel_size": [1, 1], "activity_regularizer": null}}, {"name": "conv2d_82", "inbound_nodes": [[["activation_81", 0, 0, {}]]], "class_name": "Conv2D", "config": {"dilation_rate": [1, 1], "name": "conv2d_82", "bias_regularizer": null, "kernel_regularizer": null, "data_format": "channels_last", "trainable": false, "bias_constraint": null, "kernel_initializer": {"class_name": "VarianceScaling", "config": {"seed": null, "mode": "fan_avg", "scale": 1.0, "distribution": "uniform"}}, "kernel_constraint": null, "filters": 384, "padding": "same", "strides": [1, 1], "activation": "linear", "use_bias": false, "bias_initializer": {"class_name": "Zeros", "config": {}}, "kernel_size": [3, 3], "activity_regularizer": null}}, {"name": "batch_normalization_78", "inbound_nodes": [[["conv2d_78", 0, 0, {}]]], "class_name": "BatchNormalization", "config": {"axis": 3, "name": "batch_normalization_78", "moving_mean_initializer": {"class_name": "Zeros", "config": {}}, "beta_initializer": {"class_name": "Zeros", "config": {}}, "moving_variance_initializer": {"class_name": "Ones", "config": {}}, "gamma_constraint": null, "epsilon": 0.001, "center": true, "momentum": 0.99, "gamma_regularizer": null, "beta_constraint": null, "trainable": false, "beta_regularizer": null, "gamma_initializer": {"class_name": "Ones", "config": {}}, "scale": false}}, {"name": "batch_normalization_82", "inbound_nodes": [[["conv2d_82", 0, 0, {}]]], "class_name": "BatchNormalization", "config": {"axis": 3, "name": "batch_normalization_82", "moving_mean_initializer": {"class_name": "Zeros", "config": {}}, "beta_initializer": {"class_name": "Zeros", "config": {}}, "moving_variance_initializer": {"class_name": "Ones", "config": {}}, "gamma_constraint": null, "epsilon": 0.001, "center": true, "momentum": 0.99, "gamma_regularizer": null, "beta_constraint": null, "trainable": false, "beta_regularizer": null, "gamma_initializer": {"class_name": "Ones", "config": {}}, "scale": false}}, {"name": "activation_78", "inbound_nodes": [[["batch_normalization_78", 0, 0, {}]]], "class_name": "Activation", "config": {"trainable": false, "name": "activation_78", "activation": "relu"}}, {"name": "activation_82", "inbound_nodes": [[["batch_normalization_82", 0, 0, {}]]], "class_name": "Activation", "config": {"trainable": false, "name": "activation_82", "activation": "relu"}}, {"name": "conv2d_79", "inbound_nodes": [[["activation_78", 0, 0, {}]]], "class_name": "Conv2D", "config": {"dilation_rate": [1, 1], "name": "conv2d_79", "bias_regularizer": null, "kernel_regularizer": null, "data_format": "channels_last", "trainable": false, "bias_constraint": null, "kernel_initializer": {"class_name": "VarianceScaling", "config": {"seed": null, "mode": "fan_avg", "scale": 1.0, "distribution": "uniform"}}, "kernel_constraint": null, "filters": 384, "padding": "same", "strides": [1, 1], "activation": "linear", "use_bias": false, "bias_initializer": {"class_name": "Zeros", "config": {}}, "kernel_size": [1, 3], "activity_regularizer": null}}, {"name": "conv2d_80", "inbound_nodes": [[["activation_78", 0, 0, {}]]], "class_name": "Conv2D", "config": {"dilation_rate": [1, 1], "name": "conv2d_80", "bias_regularizer": null, "kernel_regularizer": null, "data_format": "channels_last", "trainable": false, "bias_constraint": null, "kernel_initializer": {"class_name": "VarianceScaling", "config": {"seed": null, "mode": "fan_avg", "scale": 1.0, "distribution": "uniform"}}, "kernel_constraint": null, "filters": 384, "padding": "same", "strides": [1, 1], "activation": "linear", "use_bias": false, "bias_initializer": {"class_name": "Zeros", "config": {}}, "kernel_size": [3, 1], "activity_regularizer": null}}, {"name": "conv2d_83", "inbound_nodes": [[["activation_82", 0, 0, {}]]], "class_name": "Conv2D", "config": {"dilation_rate": [1, 1], "name": "conv2d_83", "bias_regularizer": null, "kernel_regularizer": null, "data_format": "channels_last", "trainable": false, "bias_constraint": null, "kernel_initializer": {"class_name": "VarianceScaling", "config": {"seed": null, "mode": "fan_avg", "scale": 1.0, "distribution": "uniform"}}, "kernel_constraint": null, "filters": 384, "padding": "same", "strides": [1, 1], "activation": "linear", "use_bias": false, "bias_initializer": {"class_name": "Zeros", "config": {}}, "kernel_size": [1, 3], "activity_regularizer": null}}, {"name": "conv2d_84", "inbound_nodes": [[["activation_82", 0, 0, {}]]], "class_name": "Conv2D", "config": {"dilation_rate": [1, 1], "name": "conv2d_84", "bias_regularizer": null, "kernel_regularizer": null, "data_format": "channels_last", "trainable": false, "bias_constraint": null, "kernel_initializer": {"class_name": "VarianceScaling", "config": {"seed": null, "mode": "fan_avg", "scale": 1.0, "distribution": "uniform"}}, "kernel_constraint": null, "filters": 384, "padding": "same", "strides": [1, 1], "activation": "linear", "use_bias": false, "bias_initializer": {"class_name": "Zeros", "config": {}}, "kernel_size": [3, 1], "activity_regularizer": null}}, {"name": "average_pooling2d_8", "inbound_nodes": [[["mixed8", 0, 0, {}]]], "class_name": "AveragePooling2D", "config": {"padding": "same", "strides": [1, 1], "pool_size": [3, 3], "data_format": "channels_last", "trainable": false, "name": "average_pooling2d_8"}}, {"name": "conv2d_77", "inbound_nodes": [[["mixed8", 0, 0, {}]]], "class_name": "Conv2D", "config": {"dilation_rate": [1, 1], "name": "conv2d_77", "bias_regularizer": null, "kernel_regularizer": null, "data_format": "channels_last", "trainable": false, "bias_constraint": null, "kernel_initializer": {"class_name": "VarianceScaling", "config": {"seed": null, "mode": "fan_avg", "scale": 1.0, "distribution": "uniform"}}, "kernel_constraint": null, "filters": 320, "padding": "same", "strides": [1, 1], "activation": "linear", "use_bias": false, "bias_initializer": {"class_name": "Zeros", "config": {}}, "kernel_size": [1, 1], "activity_regularizer": null}}, {"name": "batch_normalization_79", "inbound_nodes": [[["conv2d_79", 0, 0, {}]]], "class_name": "BatchNormalization", "config": {"axis": 3, "name": "batch_normalization_79", "moving_mean_initializer": {"class_name": "Zeros", "config": {}}, "beta_initializer": {"class_name": "Zeros", "config": {}}, "moving_variance_initializer": {"class_name": "Ones", "config": {}}, "gamma_constraint": null, "epsilon": 0.001, "center": true, "momentum": 0.99, "gamma_regularizer": null, "beta_constraint": null, "trainable": false, "beta_regularizer": null, "gamma_initializer": {"class_name": "Ones", "config": {}}, "scale": false}}, {"name": "batch_normalization_80", "inbound_nodes": [[["conv2d_80", 0, 0, {}]]], "class_name": "BatchNormalization", "config": {"axis": 3, "name": "batch_normalization_80", "moving_mean_initializer": {"class_name": "Zeros", "config": {}}, "beta_initializer": {"class_name": "Zeros", "config": {}}, "moving_variance_initializer": {"class_name": "Ones", "config": {}}, "gamma_constraint": null, "epsilon": 0.001, "center": true, "momentum": 0.99, "gamma_regularizer": null, "beta_constraint": null, "trainable": false, "beta_regularizer": null, "gamma_initializer": {"class_name": "Ones", "config": {}}, "scale": false}}, {"name": "batch_normalization_83", "inbound_nodes": [[["conv2d_83", 0, 0, {}]]], "class_name": "BatchNormalization", "config": {"axis": 3, "name": "batch_normalization_83", "moving_mean_initializer": {"class_name": "Zeros", "config": {}}, "beta_initializer": {"class_name": "Zeros", "config": {}}, "moving_variance_initializer": {"class_name": "Ones", "config": {}}, "gamma_constraint": null, "epsilon": 0.001, "center": true, "momentum": 0.99, "gamma_regularizer": null, "beta_constraint": null, "trainable": false, "beta_regularizer": null, "gamma_initializer": {"class_name": "Ones", "config": {}}, "scale": false}}, {"name": "batch_normalization_84", "inbound_nodes": [[["conv2d_84", 0, 0, {}]]], "class_name": "BatchNormalization", "config": {"axis": 3, "name": "batch_normalization_84", "moving_mean_initializer": {"class_name": "Zeros", "config": {}}, "beta_initializer": {"class_name": "Zeros", "config": {}}, "moving_variance_initializer": {"class_name": "Ones", "config": {}}, "gamma_constraint": null, "epsilon": 0.001, "center": true, "momentum": 0.99, "gamma_regularizer": null, "beta_constraint": null, "trainable": false, "beta_regularizer": null, "gamma_initializer": {"class_name": "Ones", "config": {}}, "scale": false}}, {"name": "conv2d_85", "inbound_nodes": [[["average_pooling2d_8", 0, 0, {}]]], "class_name": "Conv2D", "config": {"dilation_rate": [1, 1], "name": "conv2d_85", "bias_regularizer": null, "kernel_regularizer": null, "data_format": "channels_last", "trainable": false, "bias_constraint": null, "kernel_initializer": {"class_name": "VarianceScaling", "config": {"seed": null, "mode": "fan_avg", "scale": 1.0, "distribution": "uniform"}}, "kernel_constraint": null, "filters": 192, "padding": "same", "strides": [1, 1], "activation": "linear", "use_bias": false, "bias_initializer": {"class_name": "Zeros", "config": {}}, "kernel_size": [1, 1], "activity_regularizer": null}}, {"name": "batch_normalization_77", "inbound_nodes": [[["conv2d_77", 0, 0, {}]]], "class_name": "BatchNormalization", "config": {"axis": 3, "name": "batch_normalization_77", "moving_mean_initializer": {"class_name": "Zeros", "config": {}}, "beta_initializer": {"class_name": "Zeros", "config": {}}, "moving_variance_initializer": {"class_name": "Ones", "config": {}}, "gamma_constraint": null, "epsilon": 0.001, "center": true, "momentum": 0.99, "gamma_regularizer": null, "beta_constraint": null, "trainable": false, "beta_regularizer": null, "gamma_initializer": {"class_name": "Ones", "config": {}}, "scale": false}}, {"name": "activation_79", "inbound_nodes": [[["batch_normalization_79", 0, 0, {}]]], "class_name": "Activation", "config": {"trainable": false, "name": "activation_79", "activation": "relu"}}, {"name": "activation_80", "inbound_nodes": [[["batch_normalization_80", 0, 0, {}]]], "class_name": "Activation", "config": {"trainable": false, "name": "activation_80", "activation": "relu"}}, {"name": "activation_83", "inbound_nodes": [[["batch_normalization_83", 0, 0, {}]]], "class_name": "Activation", "config": {"trainable": false, "name": "activation_83", "activation": "relu"}}, {"name": "activation_84", "inbound_nodes": [[["batch_normalization_84", 0, 0, {}]]], "class_name": "Activation", "config": {"trainable": false, "name": "activation_84", "activation": "relu"}}, {"name": "batch_normalization_85", "inbound_nodes": [[["conv2d_85", 0, 0, {}]]], "class_name": "BatchNormalization", "config": {"axis": 3, "name": "batch_normalization_85", "moving_mean_initializer": {"class_name": "Zeros", "config": {}}, "beta_initializer": {"class_name": "Zeros", "config": {}}, "moving_variance_initializer": {"class_name": "Ones", "config": {}}, "gamma_constraint": null, "epsilon": 0.001, "center": true, "momentum": 0.99, "gamma_regularizer": null, "beta_constraint": null, "trainable": false, "beta_regularizer": null, "gamma_initializer": {"class_name": "Ones", "config": {}}, "scale": false}}, {"name": "activation_77", "inbound_nodes": [[["batch_normalization_77", 0, 0, {}]]], "class_name": "Activation", "config": {"trainable": false, "name": "activation_77", "activation": "relu"}}, {"name": "mixed9_0", "inbound_nodes": [[["activation_79", 0, 0, {}], ["activation_80", 0, 0, {}]]], "class_name": "Concatenate", "config": {"trainable": false, "axis": 3, "name": "mixed9_0"}}, {"name": "concatenate_1", "inbound_nodes": [[["activation_83", 0, 0, {}], ["activation_84", 0, 0, {}]]], "class_name": "Concatenate", "config": {"trainable": false, "axis": 3, "name": "concatenate_1"}}, {"name": "activation_85", "inbound_nodes": [[["batch_normalization_85", 0, 0, {}]]], "class_name": "Activation", "config": {"trainable": false, "name": "activation_85", "activation": "relu"}}, {"name": "mixed9", "inbound_nodes": [[["activation_77", 0, 0, {}], ["mixed9_0", 0, 0, {}], ["concatenate_1", 0, 0, {}], ["activation_85", 0, 0, {}]]], "class_name": "Concatenate", "config": {"trainable": false, "axis": 3, "name": "mixed9"}}, {"name": "conv2d_90", "inbound_nodes": [[["mixed9", 0, 0, {}]]], "class_name": "Conv2D", "config": {"dilation_rate": [1, 1], "name": "conv2d_90", "bias_regularizer": null, "kernel_regularizer": null, "data_format": "channels_last", "trainable": false, "bias_constraint": null, "kernel_initializer": {"class_name": "VarianceScaling", "config": {"seed": null, "mode": "fan_avg", "scale": 1.0, "distribution": "uniform"}}, "kernel_constraint": null, "filters": 448, "padding": "same", "strides": [1, 1], "activation": "linear", "use_bias": false, "bias_initializer": {"class_name": "Zeros", "config": {}}, "kernel_size": [1, 1], "activity_regularizer": null}}, {"name": "batch_normalization_90", "inbound_nodes": [[["conv2d_90", 0, 0, {}]]], "class_name": "BatchNormalization", "config": {"axis": 3, "name": "batch_normalization_90", "moving_mean_initializer": {"class_name": "Zeros", "config": {}}, "beta_initializer": {"class_name": "Zeros", "config": {}}, "moving_variance_initializer": {"class_name": "Ones", "config": {}}, "gamma_constraint": null, "epsilon": 0.001, "center": true, "momentum": 0.99, "gamma_regularizer": null, "beta_constraint": null, "trainable": false, "beta_regularizer": null, "gamma_initializer": {"class_name": "Ones", "config": {}}, "scale": false}}, {"name": "activation_90", "inbound_nodes": [[["batch_normalization_90", 0, 0, {}]]], "class_name": "Activation", "config": {"trainable": false, "name": "activation_90", "activation": "relu"}}, {"name": "conv2d_87", "inbound_nodes": [[["mixed9", 0, 0, {}]]], "class_name": "Conv2D", "config": {"dilation_rate": [1, 1], "name": "conv2d_87", "bias_regularizer": null, "kernel_regularizer": null, "data_format": "channels_last", "trainable": false, "bias_constraint": null, "kernel_initializer": {"class_name": "VarianceScaling", "config": {"seed": null, "mode": "fan_avg", "scale": 1.0, "distribution": "uniform"}}, "kernel_constraint": null, "filters": 384, "padding": "same", "strides": [1, 1], "activation": "linear", "use_bias": false, "bias_initializer": {"class_name": "Zeros", "config": {}}, "kernel_size": [1, 1], "activity_regularizer": null}}, {"name": "conv2d_91", "inbound_nodes": [[["activation_90", 0, 0, {}]]], "class_name": "Conv2D", "config": {"dilation_rate": [1, 1], "name": "conv2d_91", "bias_regularizer": null, "kernel_regularizer": null, "data_format": "channels_last", "trainable": false, "bias_constraint": null, "kernel_initializer": {"class_name": "VarianceScaling", "config": {"seed": null, "mode": "fan_avg", "scale": 1.0, "distribution": "uniform"}}, "kernel_constraint": null, "filters": 384, "padding": "same", "strides": [1, 1], "activation": "linear", "use_bias": false, "bias_initializer": {"class_name": "Zeros", "config": {}}, "kernel_size": [3, 3], "activity_regularizer": null}}, {"name": "batch_normalization_87", "inbound_nodes": [[["conv2d_87", 0, 0, {}]]], "class_name": "BatchNormalization", "config": {"axis": 3, "name": "batch_normalization_87", "moving_mean_initializer": {"class_name": "Zeros", "config": {}}, "beta_initializer": {"class_name": "Zeros", "config": {}}, "moving_variance_initializer": {"class_name": "Ones", "config": {}}, "gamma_constraint": null, "epsilon": 0.001, "center": true, "momentum": 0.99, "gamma_regularizer": null, "beta_constraint": null, "trainable": false, "beta_regularizer": null, "gamma_initializer": {"class_name": "Ones", "config": {}}, "scale": false}}, {"name": "batch_normalization_91", "inbound_nodes": [[["conv2d_91", 0, 0, {}]]], "class_name": "BatchNormalization", "config": {"axis": 3, "name": "batch_normalization_91", "moving_mean_initializer": {"class_name": "Zeros", "config": {}}, "beta_initializer": {"class_name": "Zeros", "config": {}}, "moving_variance_initializer": {"class_name": "Ones", "config": {}}, "gamma_constraint": null, "epsilon": 0.001, "center": true, "momentum": 0.99, "gamma_regularizer": null, "beta_constraint": null, "trainable": false, "beta_regularizer": null, "gamma_initializer": {"class_name": "Ones", "config": {}}, "scale": false}}, {"name": "activation_87", "inbound_nodes": [[["batch_normalization_87", 0, 0, {}]]], "class_name": "Activation", "config": {"trainable": false, "name": "activation_87", "activation": "relu"}}, {"name": "activation_91", "inbound_nodes": [[["batch_normalization_91", 0, 0, {}]]], "class_name": "Activation", "config": {"trainable": false, "name": "activation_91", "activation": "relu"}}, {"name": "conv2d_88", "inbound_nodes": [[["activation_87", 0, 0, {}]]], "class_name": "Conv2D", "config": {"dilation_rate": [1, 1], "name": "conv2d_88", "bias_regularizer": null, "kernel_regularizer": null, "data_format": "channels_last", "trainable": false, "bias_constraint": null, "kernel_initializer": {"class_name": "VarianceScaling", "config": {"seed": null, "mode": "fan_avg", "scale": 1.0, "distribution": "uniform"}}, "kernel_constraint": null, "filters": 384, "padding": "same", "strides": [1, 1], "activation": "linear", "use_bias": false, "bias_initializer": {"class_name": "Zeros", "config": {}}, "kernel_size": [1, 3], "activity_regularizer": null}}, {"name": "conv2d_89", "inbound_nodes": [[["activation_87", 0, 0, {}]]], "class_name": "Conv2D", "config": {"dilation_rate": [1, 1], "name": "conv2d_89", "bias_regularizer": null, "kernel_regularizer": null, "data_format": "channels_last", "trainable": false, "bias_constraint": null, "kernel_initializer": {"class_name": "VarianceScaling", "config": {"seed": null, "mode": "fan_avg", "scale": 1.0, "distribution": "uniform"}}, "kernel_constraint": null, "filters": 384, "padding": "same", "strides": [1, 1], "activation": "linear", "use_bias": false, "bias_initializer": {"class_name": "Zeros", "config": {}}, "kernel_size": [3, 1], "activity_regularizer": null}}, {"name": "conv2d_92", "inbound_nodes": [[["activation_91", 0, 0, {}]]], "class_name": "Conv2D", "config": {"dilation_rate": [1, 1], "name": "conv2d_92", "bias_regularizer": null, "kernel_regularizer": null, "data_format": "channels_last", "trainable": false, "bias_constraint": null, "kernel_initializer": {"class_name": "VarianceScaling", "config": {"seed": null, "mode": "fan_avg", "scale": 1.0, "distribution": "uniform"}}, "kernel_constraint": null, "filters": 384, "padding": "same", "strides": [1, 1], "activation": "linear", "use_bias": false, "bias_initializer": {"class_name": "Zeros", "config": {}}, "kernel_size": [1, 3], "activity_regularizer": null}}, {"name": "conv2d_93", "inbound_nodes": [[["activation_91", 0, 0, {}]]], "class_name": "Conv2D", "config": {"dilation_rate": [1, 1], "name": "conv2d_93", "bias_regularizer": null, "kernel_regularizer": null, "data_format": "channels_last", "trainable": false, "bias_constraint": null, "kernel_initializer": {"class_name": "VarianceScaling", "config": {"seed": null, "mode": "fan_avg", "scale": 1.0, "distribution": "uniform"}}, "kernel_constraint": null, "filters": 384, "padding": "same", "strides": [1, 1], "activation": "linear", "use_bias": false, "bias_initializer": {"class_name": "Zeros", "config": {}}, "kernel_size": [3, 1], "activity_regularizer": null}}, {"name": "average_pooling2d_9", "inbound_nodes": [[["mixed9", 0, 0, {}]]], "class_name": "AveragePooling2D", "config": {"padding": "same", "strides": [1, 1], "pool_size": [3, 3], "data_format": "channels_last", "trainable": false, "name": "average_pooling2d_9"}}, {"name": "conv2d_86", "inbound_nodes": [[["mixed9", 0, 0, {}]]], "class_name": "Conv2D", "config": {"dilation_rate": [1, 1], "name": "conv2d_86", "bias_regularizer": null, "kernel_regularizer": null, "data_format": "channels_last", "trainable": false, "bias_constraint": null, "kernel_initializer": {"class_name": "VarianceScaling", "config": {"seed": null, "mode": "fan_avg", "scale": 1.0, "distribution": "uniform"}}, "kernel_constraint": null, "filters": 320, "padding": "same", "strides": [1, 1], "activation": "linear", "use_bias": false, "bias_initializer": {"class_name": "Zeros", "config": {}}, "kernel_size": [1, 1], "activity_regularizer": null}}, {"name": "batch_normalization_88", "inbound_nodes": [[["conv2d_88", 0, 0, {}]]], "class_name": "BatchNormalization", "config": {"axis": 3, "name": "batch_normalization_88", "moving_mean_initializer": {"class_name": "Zeros", "config": {}}, "beta_initializer": {"class_name": "Zeros", "config": {}}, "moving_variance_initializer": {"class_name": "Ones", "config": {}}, "gamma_constraint": null, "epsilon": 0.001, "center": true, "momentum": 0.99, "gamma_regularizer": null, "beta_constraint": null, "trainable": false, "beta_regularizer": null, "gamma_initializer": {"class_name": "Ones", "config": {}}, "scale": false}}, {"name": "batch_normalization_89", "inbound_nodes": [[["conv2d_89", 0, 0, {}]]], "class_name": "BatchNormalization", "config": {"axis": 3, "name": "batch_normalization_89", "moving_mean_initializer": {"class_name": "Zeros", "config": {}}, "beta_initializer": {"class_name": "Zeros", "config": {}}, "moving_variance_initializer": {"class_name": "Ones", "config": {}}, "gamma_constraint": null, "epsilon": 0.001, "center": true, "momentum": 0.99, "gamma_regularizer": null, "beta_constraint": null, "trainable": false, "beta_regularizer": null, "gamma_initializer": {"class_name": "Ones", "config": {}}, "scale": false}}, {"name": "batch_normalization_92", "inbound_nodes": [[["conv2d_92", 0, 0, {}]]], "class_name": "BatchNormalization", "config": {"axis": 3, "name": "batch_normalization_92", "moving_mean_initializer": {"class_name": "Zeros", "config": {}}, "beta_initializer": {"class_name": "Zeros", "config": {}}, "moving_variance_initializer": {"class_name": "Ones", "config": {}}, "gamma_constraint": null, "epsilon": 0.001, "center": true, "momentum": 0.99, "gamma_regularizer": null, "beta_constraint": null, "trainable": false, "beta_regularizer": null, "gamma_initializer": {"class_name": "Ones", "config": {}}, "scale": false}}, {"name": "batch_normalization_93", "inbound_nodes": [[["conv2d_93", 0, 0, {}]]], "class_name": "BatchNormalization", "config": {"axis": 3, "name": "batch_normalization_93", "moving_mean_initializer": {"class_name": "Zeros", "config": {}}, "beta_initializer": {"class_name": "Zeros", "config": {}}, "moving_variance_initializer": {"class_name": "Ones", "config": {}}, "gamma_constraint": null, "epsilon": 0.001, "center": true, "momentum": 0.99, "gamma_regularizer": null, "beta_constraint": null, "trainable": false, "beta_regularizer": null, "gamma_initializer": {"class_name": "Ones", "config": {}}, "scale": false}}, {"name": "conv2d_94", "inbound_nodes": [[["average_pooling2d_9", 0, 0, {}]]], "class_name": "Conv2D", "config": {"dilation_rate": [1, 1], "name": "conv2d_94", "bias_regularizer": null, "kernel_regularizer": null, "data_format": "channels_last", "trainable": false, "bias_constraint": null, "kernel_initializer": {"class_name": "VarianceScaling", "config": {"seed": null, "mode": "fan_avg", "scale": 1.0, "distribution": "uniform"}}, "kernel_constraint": null, "filters": 192, "padding": "same", "strides": [1, 1], "activation": "linear", "use_bias": false, "bias_initializer": {"class_name": "Zeros", "config": {}}, "kernel_size": [1, 1], "activity_regularizer": null}}, {"name": "batch_normalization_86", "inbound_nodes": [[["conv2d_86", 0, 0, {}]]], "class_name": "BatchNormalization", "config": {"axis": 3, "name": "batch_normalization_86", "moving_mean_initializer": {"class_name": "Zeros", "config": {}}, "beta_initializer": {"class_name": "Zeros", "config": {}}, "moving_variance_initializer": {"class_name": "Ones", "config": {}}, "gamma_constraint": null, "epsilon": 0.001, "center": true, "momentum": 0.99, "gamma_regularizer": null, "beta_constraint": null, "trainable": false, "beta_regularizer": null, "gamma_initializer": {"class_name": "Ones", "config": {}}, "scale": false}}, {"name": "activation_88", "inbound_nodes": [[["batch_normalization_88", 0, 0, {}]]], "class_name": "Activation", "config": {"trainable": false, "name": "activation_88", "activation": "relu"}}, {"name": "activation_89", "inbound_nodes": [[["batch_normalization_89", 0, 0, {}]]], "class_name": "Activation", "config": {"trainable": false, "name": "activation_89", "activation": "relu"}}, {"name": "activation_92", "inbound_nodes": [[["batch_normalization_92", 0, 0, {}]]], "class_name": "Activation", "config": {"trainable": false, "name": "activation_92", "activation": "relu"}}, {"name": "activation_93", "inbound_nodes": [[["batch_normalization_93", 0, 0, {}]]], "class_name": "Activation", "config": {"trainable": false, "name": "activation_93", "activation": "relu"}}, {"name": "batch_normalization_94", "inbound_nodes": [[["conv2d_94", 0, 0, {}]]], "class_name": "BatchNormalization", "config": {"axis": 3, "name": "batch_normalization_94", "moving_mean_initializer": {"class_name": "Zeros", "config": {}}, "beta_initializer": {"class_name": "Zeros", "config": {}}, "moving_variance_initializer": {"class_name": "Ones", "config": {}}, "gamma_constraint": null, "epsilon": 0.001, "center": true, "momentum": 0.99, "gamma_regularizer": null, "beta_constraint": null, "trainable": false, "beta_regularizer": null, "gamma_initializer": {"class_name": "Ones", "config": {}}, "scale": false}}, {"name": "activation_86", "inbound_nodes": [[["batch_normalization_86", 0, 0, {}]]], "class_name": "Activation", "config": {"trainable": false, "name": "activation_86", "activation": "relu"}}, {"name": "mixed9_1", "inbound_nodes": [[["activation_88", 0, 0, {}], ["activation_89", 0, 0, {}]]], "class_name": "Concatenate", "config": {"trainable": false, "axis": 3, "name": "mixed9_1"}}, {"name": "concatenate_2", "inbound_nodes": [[["activation_92", 0, 0, {}], ["activation_93", 0, 0, {}]]], "class_name": "Concatenate", "config": {"trainable": false, "axis": 3, "name": "concatenate_2"}}, {"name": "activation_94", "inbound_nodes": [[["batch_normalization_94", 0, 0, {}]]], "class_name": "Activation", "config": {"trainable": false, "name": "activation_94", "activation": "relu"}}, {"name": "mixed10", "inbound_nodes": [[["activation_86", 0, 0, {}], ["mixed9_1", 0, 0, {}], ["concatenate_2", 0, 0, {}], ["activation_94", 0, 0, {}]]], "class_name": "Concatenate", "config": {"trainable": false, "axis": 3, "name": "mixed10"}}, {"name": "global_average_pooling2d_1", "inbound_nodes": [[["mixed10", 0, 0, {}]]], "class_name": "GlobalAveragePooling2D", "config": {"data_format": "channels_last", "trainable": true, "name": "global_average_pooling2d_1"}}, {"name": "dense_1", "inbound_nodes": [[["global_average_pooling2d_1", 0, 0, {}]]], "class_name": "Dense", "config": {"name": "dense_1", "kernel_regularizer": null, "bias_regularizer": null, "trainable": true, "units": 1024, "bias_constraint": null, "kernel_initializer": {"class_name": "VarianceScaling", "config": {"seed": null, "mode": "fan_avg", "scale": 1.0, "distribution": "uniform"}}, "kernel_constraint": null, "activation": "relu", "use_bias": true, "bias_initializer": {"class_name": "Zeros", "config": {}}, "activity_regularizer": null}}, {"name": "dense_2", "inbound_nodes": [[["dense_1", 0, 0, {}]]], "class_name": "Dense", "config": {"name": "dense_2", "kernel_regularizer": null, "bias_regularizer": null, "trainable": true, "units": 112, "bias_constraint": null, "kernel_initializer": {"class_name": "VarianceScaling", "config": {"seed": null, "mode": "fan_avg", "scale": 1.0, "distribution": "uniform"}}, "kernel_constraint": null, "activation": "softmax", "use_bias": true, "bias_initializer": {"class_name": "Zeros", "config": {}}, "activity_regularizer": null}}]}}